Simulator/models/lane_keeper_small.onnx (onnx, 76826 bytes, 14 tensors)

conv.0.weight f4 [4, 1, 5, 5]
-0.013535246 -0.010060361 0.0018266855 0.009230967 0.0009814951 -0.005171788 -0.0009052833 0.007824349
0.0012331828 0.005870586 0.0063772537 0.004091971 -0.018591447 0.004255039 0.0027987885 -0.0060501895
0.004463173 -0.024898648 0.0043883882 0.008001265 -0.014579729 0.006027475 -0.001781022 -0.0098329345
0.022238923 -0.002449007 0.006353358 0.00042003026 -0.015665429 -0.0016075816 -0.0023141971 0.0012553013
0.010865598 -0.0072190645 -0.003972671 -0.015006342 0.008218043 -0.003101482 0.01510852 -0.023028655
-0.020840578 0.013269887 -0.007191694 0.014410968 -0.014802734 -0.0005154591 -0.014702312 0.011809008
0.006305676 -0.00039708673 0.0010764604 0.0076324544 0.0047700866 -0.014982752 -0.007342205 0.0051780306
-0.0039498173 -0.0004970019 -0.014449537 0.014093175 -0.0018447809 0.018699506 -0.046376493 0.0038071068
0.0035793064 0.0034454237 -0.0017423553 -0.013052591 0.021475036 -0.006865142 0.012660844 -0.036037505
0.012389363 -5.5911438e-05 0.008606189 -0.013256574 -0.00056831515 0.005750679 0.014902615 -0.0027236883
-0.0104832165 0.002961547 -0.020585636 -0.00375099 0.012093348 -0.0003805715 -0.00023640339 -0.0022702254
-0.0070770546 -0.010413627 0.0067957505 0.002777914 -0.013893069 0.0016784797 0.00021549535 -0.0027281079
0.011137905 0.010011745 0.0055006603 -0.017603192
00000000: f0c2 5dbc 36d4 24bc 656d ef3a 7b3d 173c
00000010: 83a5 803a 1a78 a9bb 8950 6dba b331 003c
00000020: c0a2 a13a 0b5e c03b 48f8 d03b f115 863b
00000030: 174d 98bc db6d 8b3b e16b 373b ab40 c6bb
00000040: cf3f 923b 40f8 cbbc 78cc 8f3b bd17 033c
00000050: d1df 6ebc 2082 c53b 2e71 e9ba 511a 21bc
00000060: 672e b63c 857f 20bb d42f d03b 8237 dc39
00000070: c954 80bc 7db5 d2ba c9a9 17bb ec88 a43a
00000080: 9f05 323c e78d ecbb 2e2d 82bb 29dd 75bc
00000090: f8a4 063c 3c42 4bbb ba89 773c 97a6 bcbc
000000a0: dcb9 aabc f169 593c 4da8 ebbb fb1b 6c3c
000000b0: 2b87 72bc e01f 07ba f7e1 70bc 927a 413c
000000c0: d89f ce3b 1430 d0b9 0418 8d3a ab19 fa3b
000000d0: 634e 9c3b 377a 75bc e196 f0bb 78ac a93b
000000e0: 786d 81bb 3c49 02ba c0bd 6cbc 0fe7 663c
000000f0: 93cc f1ba b52f 993c 47f5 3dbd a780 793b
00000100: cc92 6a3b 9ecc 613b be5f e4ba 89da 55bc
00000110: 6aec af3c fcf4 e0bb 6e6f 4f3c 109c 13bd
00000120: c1fc 4a3c 7382 6ab8 f900 0d3c 1a32 59bc
00000130: fcfa 14ba 3170 bc3b 192a 743c e87f 32bb
00000140: ccc1 2bbc 8416 423b 35a3 a8bc 2bd3 75bb
00000150: 2e23 463c 7187 c7b9 0de3 77b9 10c8 14bb
00000160: a3e6 e7bb eb9d 2abc e3ae de3b aa0d 363b
00000170: c19f 63bc 6f00 dc3a 98f6 6139 0eca 32bb
00000180: c27b 363c 4d08 243c e23e b43b 9234 90bc

conv.0.bias f4 [4]
0.0041660233 -0.012384901 -0.0024645727 -0.005410316
00000000: 2383 883b 0aea 4abc ab84 21bb 0549 b1bb

conv.4.weight f4 [4]
0.41038585 0.4149351 0.41513908 0.40280086
00000000: 181e d23e 6072 d43e 1c8d d43e ea3b ce3e

conv.4.bias f4 [4]
0.0029413989 0.0013022489 -0.025960997 -0.0051967762
00000000: 7cc4 403b 39b0 aa3a 28ac d4bc b849 aabb

conv.4.running_mean f4 [4]
0.8788539 0.27417836 0.5983807 0.23932599
00000000: 92fc 603f 1b61 8c3e 7a2f 193f df11 753e

conv.4.running_var f4 [4]
2.4783611 0.8842546 1.2595768 0.42336512
00000000: 789d 1e40 825e 623f d039 a13f 50c3 d83e

conv.6.weight f4 [4, 4, 5, 5]
-0.011697185 -0.0016108569 0.012817614 0.01618802 0.028014667 -0.008333383 0.0017510201 0.0009908098
0.017356886 0.028291896 -0.00072286074 0.0036927483 -0.0012865553 0.012226023 0.0356253 0.0083679715
0.01127761 0.0017815315 0.006389906 0.05832523 0.026773134 0.02262643 0.00042037878 -0.0019493356
0.075748764 -0.014612367 -0.013978796 -0.005404048 0.032206126 0.0310668 -0.002096689 -0.01292008
-0.0106289815 0.012410671 0.038232677 0.0010634039 -0.0045531793 -0.009390318 0.0012603754 0.047090877
-0.0056990823 -0.0009592817 -0.0025710384 -0.0037294123 0.021066872 -0.0063690627 -0.00022523172 -0.0009553714
-0.009850473 -0.0029617841 0.016759904 -0.0019155474 -0.009502865 -0.011916493 -0.007130658 0.00391585
-0.0047432813 -0.009970599 -0.011339416 -0.0077709462 -0.005193392 -0.009836312 -0.011879498 -0.008531933
-0.0031358793 -0.011193291 -0.012913611 -0.0116217295 -0.005703332 -0.002145902 -0.012468397 -0.0057456745
-0.010120819 -0.006361783 -0.0005493386 0.0017378167 0.00045609006 -0.0048971293 -0.015316972 -0.019883826
-0.004187602 -0.0004505942 -0.006232306 -0.010973282 -0.014408756 -0.00092258636 -0.0019896482 0.00023501292
-0.0061504897 -0.01216061 0.00042821275 0.002860386 0.0076451595 0.0025201878 -0.015730351 0.0063282126
0.0070692063 0.008179598 0.003022437 -0.00864036 0.0021818518 -0.0091618495 0.00056053005 0.024729047
-0.012934335 9.412842e-05 0.0016273779 -0.008522309 0.016606133 -0.016547292 -0.0005618484 0.006725449
-0.005762459 0.0075634364 -0.018326057 -0.0038471897 0.0053720484 -0.0026232533 0.007551205 -0.012231989
-0.003462427 0.004343919 0.0018426912 0.0011598794 0.0020431867 0.02715517 0.053145643 0.016722972
0.004912861 0.024189206 0.004384839 0.038200676 0.03680897 -0.0009234907 0.029749848 -0.00693683
0.020699278 0.050959304 -0.0011904568 0.041132413 -0.0084683085 0.0052624447 0.045908798 0.011766142
0.06176653 -0.0047758548 -0.0013942355 0.031954013 0.048633896 0.024735788 -0.021085402 -0.014540252
-0.0065960893 0.00066573545 -0.0013591829 -0.014967896 -0.013786652 -0.011573895 -0.00028093462 -0.0039412607
-0.0066918745 -0.009627874 -0.006865071 -0.004008307 -0.0028323932 -0.0018913078 -0.0025064196 -0.0019150209
-0.008994017 -0.006032388 -0.0035338704 -9.631887e-05 0.0032148235 -0.016792947 -0.006438153 -0.0024539498
-0.0073773763 -0.01070185 -0.012597194 -0.01609128 -0.005041166 -0.010469587 -0.010564673 -0.012932004
-0.012595503 0.0037316578 -0.004935148 -0.008461422 -0.01178344 -0.016394597 -0.00034930403 -0.0007282352
-0.0048518116 -0.011116504 -0.015256184 0.0003185285 -0.007066469 -0.01115261 -0.01191619 -0.011564986
0.04228782 0.026423533 -0.0020942662 -0.0114218695 -0.010520473 0.033530124 -0.00018487628 -0.016634211
-0.009584259 -0.0076865912 0.01976362 -0.029431175 -0.023828054 -0.005811451 -0.00862953 -0.008939946
-0.052327365 -0.01904323 -0.00027646084 -0.001292311 -0.03984838 -0.056203585 -0.011243437 0.003970324
0.001690864 0.008370625 0.0019310244 -0.0029105544 -0.013093226 -0.016916083 0.010749784 0.0023991321
-0.008037616 -0.016531127 -0.011911628 0.01256919 0.0055172704 -0.011477565 -0.014650715 -0.011886969
0.012607659 -0.0015379871 -0.019434873 -0.012359916 -0.01013316 0.010482154 -0.01486108 -0.01496531
-0.011313644 -0.0074882074 0.022272527 0.03692509 0.03055668 0.024581358 0.021449998 0.028918281
00000000: 8da5 3fbc 6323 d3ba f800 523c bd9c 843c
00000010: 047f e53c be88 08bc 7c82 e53a 0fde 813a
00000020: 0730 8e3c 68c4 e73c 5d7e 3dba 0902 723b
00000030: a2a1 a8ba a84f 483c d6eb 113d d119 093c
00000040: bac5 383c 4782 e93a 6b62 d13b 70e6 6e3d
00000050: 5553 db3c 105b b93c 4966 dc39 d980 ffba
00000060: 2b22 9b3d b668 6fbc 5207 65bc 7114 b1bb
00000070: 92ea 033d cd7f fe3c 9b68 09bb beae 53bc
00000080: 2e25 2ebc 2156 4b3c de99 1c3d ea61 8b3a
00000090: d632 95bb d9d9 19bc 2e33 a53a 5de2 403d
000000a0: 5ebf babb 4e78 7bba de7e 28bb 2869 74bb
000000b0: 6f94 ac3c 92b3 d0bb 2e2c 6cb9 e471 7aba
000000c0: e163 21bc 7e1a 42bb 114c 893c 1b13 fbba
000000d0: e8b1 1bbc 653d 43bc 4ba8 e9bb 8850 803b
000000e0: 876d 9bbb b95b 23bc f5c8 39bc 6ca3 febb
000000f0: 542d aabb 7c28 21bc 3aa2 42bc 85c9 0bbc
00000100: 5383 4dbb 1164 37bc 9c93 53bc 1169 3ebc
00000110: 04e3 babb 43a2 0cbb 3f48 4cbc 3646 bcbb
00000120: cbd1 25bc 8176 d0bb 7d01 10ba 74c7 e33a
00000130: 5f1f ef39 1978 a0bb 09f4 7abc 68e3 a2bc
00000140: 2738 89bb bb3d ecb9 5f38 ccbb 48c9 33bc
00000150: b412 6cbc b9d9 71ba c264 02bb cd6d 7639
00000160: 0c8a c9bb 4c3d 47bc be81 e039 5075 3b3b
00000170: 3f84 fa3b bc29 253b f0dc 80bc e55c cf3b
00000180: cda4 e73b b803 063c 1414 463b 4c90 0dbc
00000190: 66fd 0e3b 951b 16bc 89f0 123a 9294 ca3c
000001a0: 88ea 53bc d066 c538 be4d d53a 28a1 0bbc
000001b0: 9609 883c 308e 87bc 0249 13ba 2861 dc3b
000001c0: 02d3 bcbb b4d6 f73b 8720 96bc 2221 7cbb
000001d0: 0208 b03b e3ea 2bbb 1970 f73b ae68 48bc
000001e0: e3e9 62bb 6f57 8e3b 7586 f13a 1807 983a
000001f0: fce6 053b 8574 de3c 3faf 593d 9dfe 883c
00000200: 11fc a03b 7128 c63c b2ae 8f3b 5078 1c3d
00000210: 01c5 163d 6916 72ba f4b5 f33c 594e e3bb
00000220: 8891 a93c b4ba 503d 1a09 9cba 767a 283d
00000230: a9be 0abc 9670 ac3b dd0a 3c3d c7c6 403c
00000240: e7fe 7c3d c67e 9cbb c8be b6ba 36e2 023d
00000250: 5634 473d b5a2 ca3c 4bbb acbc 3d3a 6ebc
00000260: 0224 d8bb c084 2e3a 9c26 b2ba e83b 75bc
00000270: 69e1 61bc 6fa0 3dbc 684a 93b9 b125 81bb
00000280: 8347 dbbb 3bbe 1dbc 64f4 e0bb 1e58 83bb
00000290: ac9f 39bb c2e5 f7ba be42 24bb 7001 fbba
000002a0: a45b 13bc 57ab c5bb 8298 67bb cdfe c9b8
000002b0: caaf 523b 5d91 89bc 24f7 d2bb 72d2 20bb
000002c0: ebbd f1bb d056 2fbc 7664 4ebc dcd1 83bc
000002d0: 5e30 a5bb a188 2bbc 7317 2dbc c2e0 53bc
000002e0: 5e5d 4ebc d48e 743b 06b7 a1bb c7a1 0abc
000002f0: 540f 41bc f64d 86bc cb22 b7b9 09e7 3eba
00000300: f2fb 9ebb ff21 36bc 13f5 79bc 2c00 a739
00000310: d78d e7bb 70b9 36bc 203c 43bc 117b 3dbc
00000320: fe35 2d3d 2a76 d83c f53f 09bb cb22 3bbc
00000330: 105e 2cbc e256 093d 59db 41b9 7844 88bc
00000340: 4c07 1dbc cddf fbbb 51e7 a13c a619 f1bc
00000350: 0d33 c3bc fc6d bebb df62 0dbc da78 12bc
00000360: 3855 56bd 8c00 9cbc f2f1 90b9 c362 a9ba
00000370: 0e38 23bd bb35 66bd 6536 38bc 7e19 823b
00000380: fb9f dd3a f224 093c 6d1a fd3a 00bf 3ebb
00000390: f884 56bc 9993 8abc dd1f 303c c23a 1d3b
000003a0: 34b0 03bc 496c 87bc fd28 43bc 01ef 4d3c
000003b0: 38ca b43b 660c 3cbc 8d09 70bc 90c1 42bc
000003c0: 5b90 4e3c 4996 c9ba e235 9fbc 3f81 4abc
000003d0: 8e05 26bc 57bd 2b3c e37b 73bc 0f31 75bc
000003e0: dd5c 39bc a35f f5bb e074 b63c c33e 173d
000003f0: 0152 fa3c d85e c93c e8b7 af3c 08e6 ec3c

conv.6.bias f4 [4]
0.011922578 -0.0038151022 -0.03430132 -0.0023898464
00000000: eb56 433c cb06 7abb 8a7f 0cbd f89e 1cbb

conv.11.weight f4 [32, 4, 5, 5]
7.3876625e-05 -0.00051166676 -0.0001785536 -8.790067e-05 0.005229878 -0.00029677333 -0.0027615584 -0.0010734343
0.0007004626 0.0010986322 -5.4481396e-05 -0.0017722036 -0.00011115732 0.002171177 -0.0005301439 -0.0031129986
-0.0025310558 0.00016894136 0.0065025436 0.0011125834 -0.0023542542 0.00057710474 0.0022139857 0.012836417
0.00393651 -0.001405897 0.0023464505 0.0029596568 0.0033641155 0.0032874106 -0.00097638834 0.00033766852
0.0025162194 0.0066002496 0.0023397699 -0.0024010164 0.00027925445 0.0026159377 0.009695173 0.0037995407
-0.0034147662 -0.00049458345 0.005690613 0.013298518 0.0082456 -0.0005279143 0.00012491128 0.003178825
0.013901192 0.016701993 0.005017039 0.0020188768 0.009251588 0.0048163715 -0.0011089719 0.009466677
0.0027713662 0.008210111 0.002433229 -0.002267508 0.009366314 -0.00018941851 0.005736916 -0.00053886435
-0.0043255286 0.0024164761 -0.00089375424 0.0032888511 -0.0033921374 -0.004175543 -0.0007700072 0.0018866289
0.0012535251 -0.00042880717 -0.0015413947 0.0025549326 0.00137641 0.0018803668 0.002510439 0.008470333
0.0031171925 0.0006560995 0.0003580804 0.0003093239 0.0017203372 0.00025837883 0.001187718 0.0005262765
0.00017472196 0.00018387349 -0.0014293793 -0.00036257887 0.0012425797 0.0006758225 -9.0762565e-05 -0.0015696964
-0.00026202737 -0.004961912 -0.006051805 -0.0001708488 -0.00018907139 0.00034691306 0.00014751016 0.00049867935
-0.0003355406 -0.00027153688 0.0018126442 -3.4183497e-05 -0.0008373713 0.00042684833 4.6559562e-05 0.0030907663
-2.2003078e-05 -0.0035209404 0.00075458724 0.0003532362 0.0012438052 0.00031913767 -0.0051447167 3.7950035e-06
-6.0363433e-05 0.00024432116 -6.511916e-05 -0.0039934823 -0.0029758767 0.003686996 0.00012066297 -0.0007135328
-0.0020281798 0.00025045572 0.0023138067 0.00099633 0.00033301962 -0.0025659816 -0.0012458098 0.0015525905
0.0009588583 0.00040412563 -0.002853479 -0.0031983396 0.0005405086 0.00069689035 -0.00021888428 -0.0022475014
-0.0035461057 5.198398e-05 0.00034995604 -8.4461244e-05 -0.0038715217 -0.0048580524 -0.0017839413 -0.00013120231
-0.00078141503 -0.00027949552 0.00012152607 -0.0033116548 -0.0018386673 -0.0034866885 -0.0006153498 0.0022764762
-0.0036002889 -0.0015069562 -0.0033523827 1.963402e-06 0.0040154355 -0.002842499 -0.0035949992 -0.0037077144
0.0023743666 0.0040521687 -0.0034206528 -0.00363621 -0.000592962 0.00042576838 0.0030370469 -0.0012943619
-0.00055296853 -0.002821717 -0.0018391128 -2.5106043e-05 -0.00086283055 -2.8323833e-05 -0.0010613904 -0.0013985242
-0.0005640724 -4.0004034e-05 -1.7062772e-05 2.960972e-05 -0.0017386024 -0.00020930592 0.00029469392 0.00012540421
-0.00031898197 -0.00013226793 -0.00094164244 0.00030831207 0.00033280236 0.0011084394 0.0016465249 -0.00047894442
-0.0020538117 -0.0036713043 -0.0130602 0.00019016782 0.004903258 -0.0048375516 -0.00616379 -0.012447171
0.00014831303 0.0040236874 -0.006157814 -0.006715312 -0.0104816295 0.00083599903 0.0035175425 -0.0055733016
-0.0042450586 -0.0074085165 0.0018646321 0.00601861 -0.0012573326 -0.0006876503 -0.006529707 8.82665e-05
0.008154432 -0.00616631 -0.0007070039 -0.0054688696 -0.00045707944 0.0003364637 -0.008353041 3.0085783e-05
-0.0048024897 0.0005488503 0.001936369 -0.009007334 -0.0010200702 -0.0039571896 0.00029540315 0.0040532877
-0.0073787305 -0.0026881562 -0.004047568 -0.0009834229 0.0035214946 -0.0075452793 -0.0006871836 -0.0001345474
-0.003987309 0.004976425 -0.011075943 -0.0059563443 0.010710276 0.008575893 0.0017991103 -0.0011844347
00000000: 36ee 9a38 6021 06ba 1e3a 3bb9 5057 b8b8
00000010: 655f ab3b 3e98 9bb9 43fb 34bb 7ab2 8cba
00000020: 409f 373a fbff 8f3a f482 64b8 4949 e8ba
00000030: 221d e9b8 4e4a 0e3b 5bf9 0aba 7303 4cbb
00000040: 12e0 25bb da25 3139 4a13 d53b 1bd4 913a
00000050: d549 1abb d848 173a 8418 113b d64f 523c
00000060: d7fd 803b 1346 b8ba e8c6 193b cdf6 413b
00000070: 7e78 5c3b 9971 573b 50f4 7fba 1a09 b139
00000080: 28e7 243b e846 d83b d356 193b 5f5a 1dbb
00000090: e668 9239 2770 2b3b 81d8 1e3c b701 793b
000000a0: 45ca 5fbb efa6 01ba 5278 ba3b 07e2 593c
000000b0: 8e18 073c bb63 0aba 9efa 0239 d553 503b
000000c0: d3c1 633c 9ed2 883c f965 a43b 224f 043b
000000d0: f993 173c a7d2 9d3b ec5a 91ba 1f1a 1b3c
000000e0: cf9f 353b b483 063c cf76 1f3b 799a 14bb
000000f0: 2b75 193c a59e 46b9 bdfc bb3b 9342 0dba
00000100: 2abd 8dbb be5d 1e3b d54a 6aba c489 573b
00000110: 9f4e 5ebb fed2 88bb 4fda 49ba c348 f73a
00000120: 534d a43a 86d1 e0b9 a008 caba a870 273b
00000130: a868 b43a a476 f63a 2d86 243b 27c7 0a3c
00000140: d049 4c3b 18fe 2b3a bdbc bb39 c02c a239
00000150: f07c e13a 0577 8739 34ad 9b3a d1f5 093a
00000160: 9235 3739 2ace 4039 035a bbba 8318 beb9
00000170: 0ede a23a ae29 313a c857 beb8 45be cdba
00000180: b860 89b9 8997 a2bb 384e c6bb e025 33b9
00000190: 7741 46b9 e2e1 b539 f5ac 1a39 ceb9 023a
000001a0: 7feb afb9 105d 8eb9 3f96 ed3a 4060 0fb8
000001b0: 0983 5bba 9dca df39 f348 4338 748e 4a3b
000001c0: 4093 b8b7 94bf 66bb 7ecf 453a 8f32 b939
000001d0: 2d07 a33a ef51 a739 0395 a8bb aaad 7e36
000001e0: be2e 7db8 3b18 8039 9590 88b8 c2db 82bb
000001f0: ed06 43bb 87a1 713b 700c fd38 600c 3bba
00000200: 36eb 04bb 994f 8339 3ca3 173b 4a97 823a
00000210: 2399 ae39 072a 28bb 714a a3ba 4b80 cb3a
00000220: e45b 7b3a d3e0 d339 6f01 3bbb 3c9b 51bb
00000230: ebb0 0d3a 85af 363a 4d84 65b9 d14a 13bb
00000240: c865 68bb 6009 5a38 4e7a b739 c920 b1b8
00000250: 5bb9 7dbb 4c30 9fbb 23d3 e9ba 5a93 09b9
00000260: e0d7 4cba 4189 92b9 d0db fe38 5908 59bb
00000270: 70ff f0ba ed80 64bb 6d4f 21ba ef30 153b
00000280: d3f2 6bbb 0f85 c5ba a6b3 5bbb fdc2 0336
00000290: ea93 833b 3849 3abb 149a 6bbb 20fd 72bb
000002a0: 439b 1b3b 0ec8 843b 082d 60bb 7b4d 6ebb
000002b0: 0271 1bba aa39 df39 3109 473b 94a7 a9ba
000002c0: 17f5 10ba 8eec 38bb 630e f1ba d19a d2b7
000002d0: 942f 62ba f898 edb7 5a1e 8bba af4e b7ba
000002e0: 42de 13ba 01ca 27b8 0622 8fb7 6462 f837
000002f0: d1e1 e3ba 2179 5bb9 2681 9a39 f07e 0339
00000300: 093d a7b9 67b1 0ab9 8ed8 76ba f2a4 a139
00000310: fa7b ae39 0e49 913a 35d0 d73a d51a fbb9
00000320: 3e99 06bb 449a 70bb 73fa 55bc c967 4739
00000330: 82ab a03b 5384 9ebb 9ef9 c9bb 38ef 4bbc
00000340: 7a84 1b39 23d9 833b 7dc7 c9bb 1f0c dcbb
00000350: 24bb 2bbc f226 5b3a 9286 663b 3ea0 b6bb
00000360: 221a 8bbb 24c3 f2bb ac66 f43a c337 c53b
00000370: 15cd a4ba 6e43 34ba 27f7 d5bb b71b b938
00000380: 2b9a 053c c20e cabb 3b56 39ba 3434 b3bb
00000390: 2aa4 efb9 6567 b039 31db 08bc ba60 fc37
000003a0: 345e 9dbb b8e0 0f3a c3cd fd3a 7f93 13bc
000003b0: e0b3 85ba 50ab 81bb 57e0 9a39 71d1 843b
000003c0: 47c9 f1bb c72b 30bb 76a1 84bb 32e6 80ba
000003d0: e0c8 663b 643e f7bb 1c24 34ba 4b15 0db9
000003e0: f9a7 82bb 4711 a33b df77 35bc 702d c3bb
000003f0: 277a 2f3c e781 0c3c 20d0 eb3a 093f 9bba

conv.11.bias f4 [32]
0.003824997 0.01240528 0.016151423 0.003443618 0.0063031865 0.0051298877 0.031937882 -0.0060213413
0.0134304 0.011416459 0.007887745 0.035840236 -0.0035329096 0.010427458 0.010620638 0.0036660323
-0.0014587197 0.019703344 0.0024462903 0.013902474 0.0036807575 -0.00012146171 0.009589086 0.013881207
0.013244947 -0.0074368524 0.013391815 0.005119642 0.008056393 0.008070721 -0.0007308815 0.004781828
00000000: cdac 7a3b 843f 4b3c fd4f 843c 53ae 613b
00000010: f68a ce3b 9e18 a83b 4cd1 023d ac4e c5bb
00000020: 2e0b 5c3c 1a0c 3b3c 9a3b 013c 36cd 123d
00000030: 6388 67bb eed7 2a3c 2f02 2e3c d141 703b
00000040: 8332 bfba e868 a13c f151 203b 34c7 633c
00000050: dd38 713b 42b9 feb8 8b1b 1d3c 016e 633c
00000060: 5601 593c d7b0 f3bb 5869 5b3c abc2 a73b
00000070: f6fe 033c 0f3b 043c a198 3fba e1b0 9c3b

lin.0.weight f4 [32, 32]
0.13655205 0.10921689 0.16839497 -0.06421182 0.0034845897 -0.17170826 0.09472523 -0.1331815
0.11742759 0.027441664 -0.3039231 0.033782348 0.32959658 0.017348772 -0.0016833239 0.13688292
-0.31288528 0.15539598 0.0628966 0.23091307 0.012724126 -0.014468184 -0.30801636 0.16875185
-0.029770069 0.19753176 0.23235933 0.11061827 -0.046651535 -0.0922551 0.041346174 0.06090939
-0.035838854 -0.07807188 0.10208766 0.016317423 0.08782403 0.013726194 -0.49046645 0.09657886
-0.059352838 0.18352385 -0.069673076 -0.09645721 0.115022644 0.25722352 -0.08660887 0.21836597
-0.0009837572 0.1418553 -0.005646297 0.14749727 -0.04927345 -0.011395221 -0.05541169 0.15908733
0.11227405 0.16797355 0.23016027 0.1142589 0.037076116 0.14306615 0.06838873 0.05724107
0.024035702 -0.13303179 0.1518052 0.0118787745 0.18585663 0.02408187 -0.51333433 0.16834539
-0.030269334 0.15775031 0.046253785 -0.13114806 0.12250637 0.27306348 0.12072064 0.12071137
-0.22609115 0.19762798 -0.02857079 0.120494835 -0.18742326 0.060265932 -0.18506676 0.03322617
0.17079143 0.1443317 0.19476405 0.15814039 0.018759578 0.00036081998 0.13504103 0.078382865
-0.001764793 -0.0019013182 -2.8279277e-05 0.02119531 -2.733237e-05 -5.586815e-14 -1.9265715e-12 -0.05430679
-7.517785e-05 -9.154897e-17 0.00011969939 0.004034248 4.587536e-09 7.807243e-15 0.020046743 8.997254e-06
0.0033873927 -2.3062824e-11 0.009523213 1.2283678e-05 -0.014125276 -1.579626e-07 0.0048041525 0.038476635
-2.1392877e-07 -8.224302e-19 -7.363237e-15 0.0042904746 9.092181e-05 -0.0073810965 -0.00021123477 -1.8570354e-17
0.03903353 0.085096344 -0.16608284 0.08504971 0.18377095 0.1523768 -0.4436363 0.14276344
-0.09657683 0.16464573 0.16865323 -0.014252846 -0.23183578 0.30880842 0.023080366 0.22057723
0.09738094 0.095761485 0.12348856 -0.10637458 0.12294604 -0.029253643 0.16473606 -0.077100426
0.22742285 0.16519688 -0.00032947096 0.112284146 0.115205415 0.10169651 0.08172079 -0.0077052047
2.5971732e-07 7.173694e-14 8.391806e-09 0.0001036788 2.3901577e-11 8.181872e-19 -1.0613293e-21 -0.0044486527
-6.284717e-13 4.0835312e-20 3.577444e-17 0.0009810188 -4.432915e-08 1.9115788e-12 -8.690501e-17 2.3952046e-07
-2.6876873e-07 1.1714675e-18 0.00014060337 -1.3251418e-16 0.0005831604 9.109483e-14 -1.0190913e-08 0.008730376
-4.1192447e-19 -4.0748354e-19 -8.37071e-13 -3.5696202e-13 8.9199915e-17 -1.7532987e-07 -7.813805e-15 -9.970727e-19
-0.1378602 0.07653336 -0.026247405 0.027984248 0.18224943 0.038275152 -0.4732319 0.059227563
0.17129911 0.21582782 -0.17141673 -0.42614377 -0.024004824 0.36582386 0.05499676 0.18178113
-0.27618822 0.16762441 0.037888303 0.22699864 -0.06130323 -0.019889757 -0.09169998 -0.02065063
0.21935605 0.04786002 0.29800415 0.21176016 0.04326741 -0.023116779 -0.0011543147 0.063708276
0.0059224656 -0.07530809 0.055231817 0.10356093 -0.10343777 -0.0081136115 0.0031921263 -0.0043608663
-0.017104495 0.00962094 0.03684631 0.0048896126 -3.0220228e-05 0.006563827 0.13018142 0.076898456
0.10572029 -0.00058879366 -0.08082748 0.0007115492 0.038379047 -0.010167932 0.015712865 0.009563474
0.08373983 0.011051113 -0.04135712 0.123493135 -0.044441354 -0.097928084 0.012067399 -0.010411679
00000000: 4dd4 0b3e 1bad df3d bb6f 2c3e 7d81 83bd
00000010: b75d 643b 4ad4 2fbe 4dff c13d bb60 08be
00000020: e07d f03d 57cd e03c cf9b 9bbe 5c5f 0a3d
00000030: e2c0 a83e 031f 8e3c faa2 dcba 092b 0c3e
00000040: 8032 a0be 2020 1f3e efcf 803d 7a74 6c3e
00000050: da78 503c f60b 6dbc 52b4 9dbe 49cd 2c3e
00000060: 5ce0 f3bc c445 4a3e 9bef 6d3e d58b e23d
00000070: ae15 3fbd 3ef0 bcbd 9b5a 293d 207c 793d
00000080: c3cb 12bd 26e4 9fbd 5613 d13d 1eac 853c
00000090: 16dd b33d d5e3 603c 6b1e fbbe 23cb c53d
000000a0: f61b 73bd aded 3b3e c2b0 8ebd 5c8b c5bd
000000b0: fe90 eb3d cdb2 833e fe5f b1bd 549b 5f3e
000000c0: 6af1 80ba 8442 113e 9204 b9bb 8609 173e
000000d0: f5d2 49bd 05b3 3abc 5ef7 62bd cae7 223e
000000e0: f0ef e53d 4201 2c3e 22af 6b3e 9200 ea3d
000000f0: 20dd 173d ef7f 123e 640f 8c3d 9d75 6a3d
00000100: 85e6 c43c 7c39 08be d372 1b3e 319f 423c
00000110: 3351 3e3e 5847 c53c e169 03bf bc62 2c3e
00000120: 65f7 f7bc 4c89 213e 9c74 3d3d ad4b 06be
00000130: 9fe4 fa3d face 8b3e 623c f73d 8637 f73d
00000140: 7084 67be fd5e 4a3e 4a0d eabc ffc5 f63d
00000150: e2eb 3fbe 69d9 763d 2482 3dbe 2a18 083d
00000160: f3e3 2e3e b0cb 133e 3a70 473e 8eef 213e
00000170: b0ad 993c 702c bd39 3248 0a3e 3287 a03d
00000180: a050 e7ba a735 f9ba 4939 edb7 c9a1 ad3c
00000190: d147 e5b7 979b 7ba9 0792 07ac cc70 5ebd
000001a0: cda8 9db8 f918 d3a4 1f07 fb38 ba31 843b
000001b0: 65a0 9d31 8ea4 0c28 1139 a43c e9f2 1637
000001c0: 05ff 5d3b dddc caad 4007 1c3c ff15 4e37
000001d0: b46d 67bc 6e9c 29b4 276c 9d3b ad99 1d3d
000001e0: 4bb4 65b4 12bd 72a1 f0a4 04a8 1c97 8c3b
000001f0: 46ad be38 20dd f1bb e77e 5db9 0248 aba3
00000200: 9fe1 1f3d fe46 ae3d 9f11 2abe 8b2e ae3d
00000210: 742e 3c3e aa08 1c3e 4c24 e3be 9430 123e
00000220: 13ca c5bd e498 283e 6fb3 2c3e c584 69bc
00000230: 5c66 6dbe 231c 9e3e 0913 bd3c ffde 613e
00000240: a96f c73d 991e c43d 92e7 fc3d eada d9bd
00000250: 22cb fb3d 56a5 efbc 92b0 283e d4e6 9dbd
00000260: 89e1 683e 5f29 293e d8bc acb9 3bf5 e53d
00000270: d1f0 eb3d 4346 d03d 3b5d a73d f17b fcbb
00000280: 476f 8b34 8889 a129 8e2b 1032 226e d938
00000290: 913d d22d 7a7c 7121 3062 a09c 01c6 91bb
000002a0: 29e6 30ab ddd6 401f 01fb 2424 8795 803a
000002b0: 6a64 3eb3 f183 062c aa63 c8a4 7197 8034
000002c0: 4b4b 90b4 cae0 ac21 ee6e 1339 48c7 18a5
000002d0: 3bdf 183a 9820 cd29 1c14 2fb2 da09 0f3c
000002e0: 4428 f3a0 2c89 f0a0 539d 6bab a6f3 c8aa
000002f0: 56ae cd24 4f42 3cb4 d1c2 0ca8 5724 93a1
00000300: 392b 0dbe 86bd 9c3d cc04 d7bc 393f e53c
00000310: 989f 3a3e 68c6 1c3d 744b f2be 9a98 723d
00000320: 0969 2f3e f801 5d3e de87 2fbe 842f dabe
00000330: c4a5 c4bc 444d bb3e 4844 613d d524 3a3e
00000340: 8b68 8dbe bca5 2b3e c430 1b3d 5572 683e
00000350: 1819 7bbd d8ef a2bc 33cd bbbd 832b a9bc
00000360: df9e 603e de08 443d 0094 983e a8d7 583e
00000370: 2b39 313d 665f bdbc 604c 97ba 7c79 823d
00000380: 3e11 c23b 213b 9abd c23a 623d c117 d43d
00000390: 2ed7 d3bd f4ee 04bc fe32 513b 99e5 8ebb
000003a0: ba1e 8cbc 26a1 1d3c 28ec 163d 0b39 a03b
000003b0: 7281 fdb7 5f15 d73b 474e 053e f07c 9d3d
000003c0: e183 d83d 4659 1aba e188 a5bd 4287 3a3a
000003d0: 5933 1d3d 6697 26bc 44b8 803c 1eb0 1c3c
000003e0: ca7f ab3d ba0f 353c 1566 29bd f8e9 fc3d
000003f0: 2308 36bd 858e c8bd 57b6 453c bf95 2abc

lin.0.bias f4 [32]
0.040220704 0.14108498 0.08307597 -0.018529696 0.1608657 -0.004480446 0.043060433 -0.04579678
-0.007174037 0.0805725 -0.053326193 -0.056285664 0.11341425 0.08290445 0.003915873 -0.09919781
0.054096244 -0.0010248879 -0.01804084 0.09783457 -0.12799966 -0.04242857 0.07452263 0.12336671
0.076246955 0.061965045 0.05465578 -0.09729126 -0.08481671 0.06300997 -0.030994762 -0.03453085
00000000: 77be 243d 9578 103e bc23 aa3d 97cb 97bc
00000010: fab9 243e b5d0 92bb 2360 303d 6895 3bbd
00000020: 2f14 ebbb 3203 a53d 916c 5abd cc8b 66bd
00000030: bb45 e83d cfc9 a93d b950 803b 3928 cbbd
00000040: 0694 5d3d 8855 86ba 62ca 93bc 7e5d c83d
00000050: 5812 03be 95c9 2dbd 529f 983d b0a7 fc3d
00000060: 5d27 9c3d 0fcf 7d3d bdde 5f3d a440 c7bd
00000070: 62b4 adbd 5f0b 813d bae8 fdbc 3870 0dbd

lin.2.weight f4 [2, 32]
0.39073315 0.083549954 0.16531219 -0.009530406 -0.08218922 7.9044585e-06 0.17087157 0.101769276
-0.0075450293 -0.029420525 -0.052589707 -0.06932577 -0.23163132 -0.18205172 0.34757435 -0.13806613
0.043575525 -0.009226133 -0.029728314 -0.09363305 0.10604054 0.026192745 0.037869666 -0.18210196
-0.13399877 0.12947717 0.00030607678 -0.14414608 -0.020821562 -0.09792078 -0.0261825 -0.062462676
-0.07822756 -0.16878565 -0.21500988 0.005880591 -0.13998927 -0.0052334364 -0.25649393 0.15121467
-0.008584309 -0.18856747 -0.08011576 0.13917136 0.5869127 0.26257962 0.2605215 -0.041629974
-0.46920264 -0.0022167682 -0.02949681 0.53592026 -0.09085074 -0.0075856126 -0.37739608 -0.03248283
-0.3629605 -0.3802526 -0.21981792 0.06333788 0.13350093 -0.16892152 0.012778488 0.09185643
00000000: 2d0e c83e 3d1c ab3d 9947 293e 6c25 1cbc
00000010: d252 a8bd 649d 0437 f5f8 2e3e 696c d03d
00000020: 4b3c f7bb 5003 f1bc 4e68 57bd abfa 8dbd
00000030: c330 6dbe c46b 3abe 44f5 b13e 3561 0dbe
00000040: 407c 323d 3529 17bc cb88 f3bc afc2 bfbd
00000050: c82b d93d 2b92 d63c 391d 1b3d f078 3abe
00000060: f936 09be aa95 043e ee78 a039 089b 13be
00000070: fb91 aabc b18a c8bd af7c d6bc ddd8 7fbd
00000080: c535 a0bd 25d6 2cbe 8d2b 5cbe f9b1 c03b
00000090: 5959 0fbe 3f7d abbb 2c53 83be 05d8 1a3e
000000a0: 34a5 0cbc d517 41be bb13 a4bd f082 0e3e
000000b0: e93f 163f d670 863e 1363 853e 3184 2abd
000000c0: 543b f0be 3347 11bb 4ba3 f1bc 1232 093f
000000d0: f40f babd bb90 f8bb 0f3a c1be b70c 05bd
000000e0: f5d5 b9be 78b0 c2be f317 61be 4ab7 813d
000000f0: 78b4 083e c3f9 2cbe dd5c 513c 391f bc3d

lin.2.bias f4 [2]
0.024858352 0.12776688
00000000: bea3 cb3c 52d5 023e
