Simulator/models/lane_keeper_ahead.pt (torch, 22072 bytes, 13 tensors)

conv.0.weight f4 [4, 1, 5, 5]
000000 95 32 e2 3b 2f 65 83 3c 2c 2e 81 3c 89 a7 9d bc
       0.0069030025 0.016039459 0.015769087 -0.019244926
000010 47 be 41 bc fc 0f 05 3c 43 cf 2b 3c 0e 15 94 bc
       -0.011825151 0.008121487 0.010486427 -0.018076446
000020 75 88 0c bd d4 eb d9 3b b5 bf 01 3c 82 6b 81 ba
       -0.034309823 0.0066504274 0.007919242 -0.0009873959
000030 56 76 0a bd 22 c9 30 bc 7f b7 a4 3c 3a b8 3f 3b
       -0.03380426 -0.010790141 0.020107029 0.0029254095
000040 c4 15 61 bc e4 25 af bc 0f 1f 53 3c e1 89 1b 3c
       -0.0137380995 -0.021380372 0.012885823 0.009493322
000050 55 b5 b0 bb 37 5f 91 bc 51 c6 53 ba 51 11 4f 3c
       -0.00539271 -0.017745597 -0.00080785627 0.012638406
000060 7b 73 02 3c be c0 82 3a 3c 84 79 bc 12 76 e1 ba
       0.007962103 0.0009975655 -0.015229281 -0.0017201325
000070 33 e6 58 3c 9f ea f2 3b da e9 e8 3b 5f 1f 2c b9
       0.0132384775 0.007413223 0.0071079554 -0.00016414885
000080 0d d3 ab bc e5 cf 66 3c 8a aa 33 ba e0 51 c3 bb
       -0.02097466 0.014087652 -0.00068537204 -0.005960688
000090 f8 a6 df 3b 84 9d f6 bc 77 97 24 3b 73 57 7f 3c
       0.006825324 -0.030104406 0.0025114694 0.015584814
0000a0 b1 a2 72 bb e6 f3 8d 3c d9 6a bb bb e4 50 47 bc
       -0.0037023241 0.017328214 -0.0057195243 -0.012165282
0000b0 27 9c 8e 3c 18 e5 4b 3a fd fd 2d 3b f2 6f 14 b9
       0.017408444 0.0007777973 0.0026549094 -0.00014156083
0000c0 31 90 e7 bc de e5 da ba 3c 1d 27 3c 1b 4f 29 bc
       -0.028266998 -0.0016700586 0.010199841 -0.010333802
0000d0 79 32 b2 bc 15 a5 50 bb 2b 0b 9e bb 3c 61 3f 3c
       -0.021752583 -0.0031836678 -0.0048231087 0.011680897
0000e0 a1 3a a4 3c 5f cd b1 bb f4 23 8d bc 5a 01 17 bc
       0.020047488 -0.0054260935 -0.017229058 -0.009216631
0000f0 31 9e ba 3b c8 eb e1 3a b9 27 91 3c 24 ad 51 b9
       0.0056951274 0.0017236406 0.017719137 -0.00019996293
000100 4c 20 55 bc 19 98 7b bb 7d 89 80 3c 6d 6e e1 39
       -0.013008188 -0.0038390218 0.01569056 0.00042997618
000110 63 a9 99 3c 37 8d 53 bb 34 7d ce bc 01 73 46 bc
       0.018757528 -0.0032280216 -0.025206186 -0.01211238
000120 d4 2d 4b ba 13 81 86 3a 39 7e a3 3b 46 1f fb b9
       -0.00077506644 0.0010261856 0.004989412 -0.0004789775
000130 42 b5 3a 3c 44 18 54 3c 89 02 96 bc 12 0c 8d bc
       0.011395754 0.0129452385 -0.018311756 -0.01721767
000140 f0 63 d7 bb c0 22 8a 3b d7 81 9e 3b c0 f5 74 3b
       -0.006573193 0.0042155683 0.0048372555 0.0037377924
000150 1d d1 be bc 08 48 9f bc 34 23 4e 3c d5 21 a7 bb
       -0.023293072 -0.019443527 0.012581635 -0.0051004686
000160 87 b6 61 3c e3 31 a7 bc 7d 87 9d bc 62 c8 cb b9
       0.013776428 -0.02040953 -0.019229645 -0.00038868474
000170 9f d9 1f ba 2d a9 99 3b cb 8e 6c bb 49 a1 84 bc
       -0.0006097797 0.004689357 -0.0036095853 -0.016190188
000180 09 ac 59 bc 23 4d 20 3c 34 51 53 3c 97 ee 6b 3b
       -0.013285645 0.009784016 0.012897778 0.0036000365

conv.0.bias f4 [4]
000000 a0 81 d0 ba 44 2c 83 b8 1c 17 01 b9 01 d1 bb ba
       -0.0015907772 -6.254812e-05 -0.00012311008 -0.0014329256

conv.4.weight f4 [4]
000000 35 22 12 3e db 03 c1 3d 6c c4 ee 3d 90 71 f1 3d
       0.14270861 0.094245635 0.11658558 0.117892385

conv.4.bias f4 [4]
000000 bb 7b 22 3c 40 a0 65 3b 32 f7 df 3b d5 74 f9 3b
       0.009917195 0.0035038143 0.006834888 0.0076128044

conv.4.running_mean f4 [4]
000000 2b 24 49 3f 81 c1 39 3f cc f8 f0 3e 24 b2 95 3e
       0.7857081 0.7256089 0.47064817 0.29237473

conv.4.running_var f4 [4]
000000 20 ac 3a 40 76 e3 fe 3f a4 7d d3 3f 7e 1e 8e 3f
       2.9167557 1.9913166 1.6522717 1.1103055

conv.6.weight f4 [4, 4, 5, 5]
000000 12 9c b0 bc 11 05 9e bc 0b fb 82 bc 8a 30 5b bc
       -0.021558795 -0.019289525 -0.015988847 -0.013378272
000010 9b 64 8b bc a6 ab 83 bc 4a 72 52 bc 1d 0d 2d bc
       -0.017015746 -0.01607306 -0.012844631 -0.0105622085
000020 08 78 4b bc 38 da 96 bc 92 0e 3d bc 30 f4 bc bb
       -0.012418754 -0.018414602 -0.011539118 -0.005766414
000030 6e 65 09 bb 46 f5 2b bc d2 53 aa bc 03 54 b8 bb
       -0.0020964998 -0.010495489 -0.020791922 -0.0056252494
000040 36 86 ca bb 35 7e 9d bb ab 92 7e bb db 3e a4 bc
       -0.00618055 -0.004806305 -0.0038844745 -0.020049503
000050 5b c2 06 bc 25 38 e1 bb a0 91 f0 bb 68 f1 2c bc
       -0.008225049 -0.006873148 -0.0073415786 -0.010555603
000060 b4 eb b2 bc 75 fc 21 3c 45 93 e8 3a a6 5f 53 3b
       -0.021840908 0.009886851 0.0017744085 0.0032253056
000070 50 04 af bb df 6a 6a bc 75 bf 90 3a 83 f7 14 bb
       -0.0053410903 -0.014307707 0.0011043387 -0.0022730536
000080 e2 11 8e ba 00 7a 58 b9 cc 9e 80 ba f7 a7 5a b7
       -0.001083907 -0.00020644814 -0.000981295 -1.303292e-05
000090 c4 b9 02 bb cb 9a db ba 1f 08 7f bb f9 c7 9a bb
       -0.001994715 -0.0016754506 -0.0038914753 -0.0047235456
0000a0 b0 9a d1 b9 14 fb 12 3a 9c 84 b0 3a 3c 09 1a bb
       -0.00039978838 0.00056068716 0.0013467255 -0.002350404
0000b0 84 39 3d bc 10 42 a4 b8 12 83 97 3a b6 16 4b 3b
       -0.011549357 -7.8324345e-05 0.0011559448 0.0030988879
0000c0 f8 64 65 3b 2a fe a7 39 9a 4a 38 3d c8 8f 54 3c
       0.003500281 0.0003204209 0.04499302 0.012973733
0000d0 48 58 45 3c cc e2 5e 3a f8 17 fd 3c 5a 78 13 3d
       0.012044974 0.00085024233 0.030895218 0.036003448
0000e0 fd 0a a3 3c f9 09 a0 3c 4f e3 4d 3c b7 00 0c 3c
       0.0199027 0.019536005 0.012566402 0.008545092
0000f0 2f fc de 3c e1 c5 81 3c 23 a9 95 3c 87 a2 86 3c
       0.02721986 0.015841426 0.018269127 0.016434921
000100 1a fb f3 3b 4c 4f 53 3c 04 f0 b6 3b d8 66 34 3c
       0.007445705 0.012897324 0.0055828113 0.011010848
000110 0f b4 46 3c e1 74 68 3c b3 41 1a bb 0a b2 94 3b
       0.01212789 0.014188022 -0.0023537695 0.0045378255
000120 aa 2e bb 3a 86 97 b5 3b 88 87 63 3c 3d 41 2b 3c
       0.0014280875 0.0055417446 0.013887294 0.010452566
000130 b9 a0 94 3b 1c bb 3c 3a 33 8f ed b9 a8 3e 1a bc
       0.004535761 0.00071995123 -0.00045310854 -0.0094143525
000140 02 bc 33 3c 90 28 34 3c 1b f7 ba 3a aa 55 b3 bb
       0.0109701175 0.010995999 0.0014264317 -0.0054728584
000150 c5 01 64 bc c2 c7 1d 3c 36 b5 37 3c e5 7f 97 ba
       -0.0139164375 0.0096301455 0.011212638 -0.0011558501
000160 8b c8 88 bb 2a 7a 2c bc 98 82 09 3c a5 2b a9 3b
       -0.004174297 -0.010527173 0.008392952 0.0051626735
000170 02 35 71 ba 2f 24 22 39 64 c5 03 bc 32 c8 43 3b
       -0.0009201319 0.00015463003 -0.008042667 0.0029873964
000180 0a 95 d3 3b a5 b0 8a 3b 4d 87 4d 3b 4d 31 f1 3b
       0.006456976 0.0042324835 0.0031361163 0.0073606134
000190 be 02 fd bb 73 7b 1a bc b1 f5 bd bb 99 f2 7b bb
       -0.007721274 -0.009428847 -0.005797111 -0.003844416
0001a0 88 20 86 b9 cb b7 3d bc 36 6a 2c bc 56 3b f4 ba
       -0.0002558271 -0.011579464 -0.01052337 -0.0018633406
0001b0 f1 87 21 bc b9 11 e3 bb 30 54 85 bc 8d 0e 42 bc
       -0.009859071 -0.006929603 -0.016275495 -0.0118442895
0001c0 4d 72 8b bb 49 a1 71 bc 39 b0 34 bc 14 f7 0e bc
       -0.004255569 -0.014747926 -0.011028343 -0.0087259
0001d0 36 b0 1b bc e9 f9 45 bb 95 32 5e bb 93 75 2d bc
       -0.009502461 -0.0030208773 -0.003390466 -0.010587114
0001e0 e4 4b cc bb 04 e5 cc bb 92 bc 44 bb 50 6c 32 bc
       -0.006234633 -0.0062528867 -0.0030019623 -0.0108900815
0001f0 f4 32 2a bc 7e 30 a5 3b 45 d8 ce 3b 0f 00 b4 3c
       -0.010388125 0.005041181 0.0063124024 0.021972684
000200 09 0c 5d 3c ab ca b3 3c e2 e7 1a 3b 23 6b e2 b9
       0.013491639 0.021947226 0.0023636748 -0.00043185902
000210 c2 fd 7a 3c 4e 1e 46 3c ce fb eb 3c 11 b5 ac b9
       0.01531929 0.012092186 0.028806593 -0.00032941301
000220 12 56 e1 34 28 9b 39 3c 9e 3a 78 3c 91 66 f9 3c
       4.197214e-07 0.011328496 0.015150694 0.030444415
000230 f3 41 62 3b a2 95 79 bb c4 9b 9c 3b f8 28 23 3c
       0.0034524172 -0.0038083573 0.004779311 0.009958498
000240 16 ba f9 3c c7 e0 1c ba 7f e5 8e bb 1f 39 af 3a
       0.03048424 -0.0005984422 -0.004360854 0.0013368464
000250 2c f1 4e 3c 45 f1 04 3d 5e 81 c8 3b 8f a3 49 bb
       0.012630742 0.032456655 0.0061189374 -0.0030767655
000260 a2 f5 21 bc aa 02 27 bb bb 3a ac 3a 48 58 3b bb
       -0.009885224 -0.0025483766 0.0013140062 -0.0028586555
000270 0e 68 4b bb 5d ab 4a bc 9d 59 e7 bb da ef 2f bb
       -0.0031037363 -0.012369958 -0.0070602433 -0.0026845844
000280 84 ac cf ba b8 34 8c bb 84 c9 4e bc 4e 8f 15 bc
       -0.001584426 -0.0042787455 -0.012621287 -0.009128405
000290 97 1e 86 ba 93 a4 a9 bb b3 d2 f9 bb 15 1c ea bb
       -0.0010232505 -0.0051770895 -0.0076239943 -0.007144461
0002a0 49 b5 1f bc ee f4 05 bc 82 48 09 bc 35 69 e5 bb
       -0.009747812 -0.008176072 -0.008379104 -0.007001067
0002b0 6b e1 8c bb 62 68 b4 bb 96 0e a0 bb 57 e7 a0 3c
       -0.004299333 -0.0055056075 -0.0048845513 0.019641561
0002c0 3c 8e 8f 3b d8 6f 90 3c 03 3a 0c 3d 8a ca d2 3c
       0.0043809693 0.017631456 0.03423501 0.025731344
0002d0 c7 f7 52 3c 09 9e 87 3b 29 91 71 3b 8c 67 b4 3c
       0.012876458 0.0041387123 0.0036860204 0.022022031
0002e0 4d ad 11 3d 25 2d 41 3c 34 14 16 3c a6 d2 03 3a
       0.035565663 0.011790548 0.00916009 0.00050286425
0002f0 79 88 45 3c 05 5b 00 3d cc b6 33 39 56 02 7e 3c
       0.012056463 0.031336803 0.00017138867 0.015503487
000300 ad 91 02 3b 36 29 38 3c fa ee cd 3c a2 ab 1f 3a
       0.0019923255 0.011240294 0.025138367 0.0006090944
000310 af ac 75 3c 02 b9 eb 3a e9 e0 fe 38 aa 13 9d 3c
       0.014994784 0.0017984214 0.000121535566 0.019174416
000320 2c 87 c2 bc 88 f7 87 bc dc 4f 3a bc f9 19 8e bc
       -0.023746096 -0.016597524 -0.011371579 -0.01734637
000330 4d a7 90 bc 9b b2 95 bc 22 8d 40 bc bb aa 20 bc
       -0.0176579 -0.018273642 -0.011752399 -0.00980633
000340 b1 c6 f7 bb 1d 21 ac bc a7 cb 93 bc f7 e8 3f bc
       -0.0075615277 -0.021011883 -0.018041445 -0.011713258
000350 80 e7 c1 bb a3 50 80 bc b5 53 a3 bc d0 87 55 bc
       -0.0059174895 -0.01566345 -0.019937376 -0.0130328685
000360 e9 f8 1d bc 8e 36 ff bb 11 03 07 bc 60 2a bc bc
       -0.009641864 -0.007788486 -0.008240477 -0.022969425
000370 82 cb 71 bc f3 82 42 bc 24 f5 3f bc 24 e9 01 bc
       -0.014757993 -0.011872041 -0.011716161 -0.00792912
000380 1a 2a dc bc 1e f0 1c 3c 37 4d 21 3c 15 81 57 3b
       -0.026875544 0.009578733 0.00984507 0.0032883335
000390 41 2f fb b8 b0 c0 a5 bb 5f d2 57 3b 4c 69 0b 3c
       -0.000119774144 -0.0050583705 0.0032931787 0.008508991
0003a0 f1 36 28 3c a0 a0 75 3a 38 80 81 b9 22 74 8b 3a
       0.010267005 0.0009369943 -0.00024700328 0.0010639469
0003b0 13 85 c1 b9 fe d2 26 3c 42 4e f1 3b 91 c3 60 3b
       -0.00036910977 0.01018214 0.0073640654 0.0034296254
0003c0 ce 7d 1f 3b 2f 0d 92 3b 93 ca 28 3a b0 98 11 3c
       0.002433646 0.004457138 0.00064388773 0.008886501
0003d0 8c 7d dd 3b 3b 43 83 b9 94 6c 48 3b 7e 6d c3 3b
       0.006759351 -0.00025036358 0.0030582296 0.00596398
0003e0 e5 d7 0a 3c 41 f3 99 3c db db bc 3b 11 89 e7 3a
       0.008474325 0.01879275 0.0057635135 0.001766475
0003f0 9e fc 8b 3b 1f 70 fd 3a 00 18 6e 3b b9 39 95 39
       0.0042720577 0.0019335783 0.0036330223 0.000284625

conv.6.bias f4 [4]
000000 78 30 1c 3c 51 65 0d 3c f3 20 b9 3c 46 60 a5 3c
       0.00953304 0.008630113 0.02259872 0.020187508

conv.11.weight f4 [32, 4, 5, 5]
000000 dc 53 d1 3b 03 36 32 3c 96 74 2c 3c dd e9 1b 3c
       0.0063881706 0.010877135 0.010525843 0.009516207
000010 94 c1 04 3b b8 9f 0b 3c 8a 3a c7 3b 1e 17 f8 3b
       0.0020256983 0.008521967 0.0060799764 0.007571115
000020 dc a7 3f 3c fc e0 cb 3b c3 23 11 3c 29 f9 11 3b
       0.011697736 0.0062218886 0.008858624 0.0022273755
000030 a4 36 32 3a 18 88 ce 3b bf 60 62 3c b2 8b 94 3b
       0.0006798303 0.0063028447 0.013817011 0.0045332545
000040 bf 64 8d 3b 96 5a 05 3a 58 89 a4 3b 4a c9 47 3c
       0.0043149884 0.0005087046 0.0050212555 0.012193987
000050 1a ac 5e 3a ac 24 8f 3a 70 bd a4 b9 ce e9 33 ba
       0.0008494273 0.0010920963 -0.0003142166 -0.0006863148
000060 b0 62 02 3c 96 40 b8 3b 40 02 2a 3c 8c ac 41 3b
       0.007958099 0.0056229336 0.010376513 0.002955231
000070 2c d1 2b bc cc a4 9f bc ec ea 9d 3b 33 23 13 3c
       -0.010486882 -0.019487761 0.0048192646 0.00898056
000080 04 55 c8 3b 02 d7 be bb b6 aa 5a bc ea f6 8f 3a
       0.0061136503 -0.005823971 -0.013346365 0.001098362
000090 df 48 01 3c be 76 10 3c f2 58 07 ba 48 8f 05 bc
       0.007890909 0.008817373 -0.0005163095 -0.008151837
0000a0 86 89 95 3b 78 f9 08 3c a4 00 12 3c 94 27 06 3b
       0.004563513 0.008360259 0.008911286 0.0020470368
0000b0 f3 38 d7 ba d8 be d6 3b 28 99 8e 3b b1 e8 be 3b
       -0.001642017 0.006553512 0.0043517537 0.005826079
0000c0 0e 86 db 3b a0 b6 a1 3a ea 1f 0c 3b ef 80 02 3c
       0.00669933 0.0012337752 0.0021381327 0.0079653105
0000d0 8c fb 09 3c d6 f4 c2 ba 01 03 ce ba 43 08 61 3b
       0.00842179 -0.0014873992 -0.0015717448 0.00343372
0000e0 08 9d 2a 3c bf 7e da 3b bd 49 97 ba 8a c0 0c bb
       0.010413416 0.0066679413 -0.0011542361 -0.0021477067
0000f0 c9 ff b3 3b 4f 57 d5 3b 6e 89 b7 3b 6f 66 b5 3b
       0.0054931385 0.006510652 0.0056010997 0.0055358927
000100 86 ce 9f ba ad 06 14 3c 9d f5 eb 3b 3d d9 86 3b
       -0.0012192286 0.009034795 0.0072009102 0.0041152523
000110 16 e4 cc 3b 0b 41 8a 3b 37 98 ff 3b c5 39 8b 3b
       0.006252776 0.0042191795 0.007800128 0.00424883
000120 ba 90 31 3b 20 86 f4 3b fd b4 c6 3b 21 86 f8 3a
       0.002709432 0.007462278 0.006064056 0.0018960872
000130 05 40 d8 3b f0 c1 19 3c ba ad a2 3b 18 49 a5 ba
       0.0065994286 0.009384617 0.0049645575 -0.0012610285
000140 66 82 1d 3b b0 57 c8 3b fb fc e4 3b 44 98 e8 3b
       0.0024034022 0.006113969 0.0069881654 0.0070982296
000150 4d 3e 51 3a dd b2 ff 3b 65 28 ce 3b fe 0b 97 3b
       0.0007982001 0.0078033046 0.0062914365 0.004609584
000160 9f 5f d9 3b e5 dd cc 3b 6d 03 16 3c 5d 28 4d 3b
       0.0066337134 0.006252038 0.00915609 0.0031304576
000170 60 66 4a 3b 3a 65 8e 3b fb 58 d6 3b 9e cf cb 3b
       0.0030883774 0.0043455632 0.006541369 0.0062198183
000180 9c 70 9a 3a 3e 29 a0 3a 4e 98 53 3b 04 61 12 3c
       0.0011782828 0.0012219322 0.0032286826 0.008934263
000190 16 79 29 3a d2 35 94 b9 b1 24 4a ba df 56 7f b9
       0.00064648816 -0.0002826886 -0.0007711156 -0.00024351057
0001a0 53 68 87 b9 42 92 4b 39 5f fb 48 b9 54 e1 42 39
       -0.00025826934 0.00019414074 -0.0001916713 0.00018585223
0001b0 51 51 1b 3a 8e 30 24 b9 e2 77 49 b9 40 aa 38 ba
       0.0005924898 -0.00015658347 -0.00019213514 -0.0007044412
0001c0 9f 43 5e b9 b3 be 21 39 74 c6 30 39 b3 58 35 b9
       -0.0002119676 0.00015425197 0.00016858598 -0.00017294548
0001d0 f5 80 bb 39 37 cf c7 b9 59 7a 3b 38 d0 79 54 39
       0.000357635 -0.00038110625 4.469822e-05 0.00020263274
0001e0 86 5e 7d b9 ca 2d 24 3a 1a 66 61 39 21 82 8f b9
       -0.00024163173 0.00062629266 0.00021495708 -0.0002737204
0001f0 4e d6 13 3a ec d6 1c 39 fd 6e 93 b9 3b bb 11 39
       0.0005639539 0.00014957384 -0.00028120718 0.00013898026
000200 e8 e6 4a 3a ab 94 4f b9 10 4f 2c 39 18 6f e5 b9
       0.0007740096 -0.00019796441 0.00016432651 -0.00043761055
000210 50 e1 60 39 12 70 27 3a 2f 4f 1d ba 87 d3 f3 38
       0.0002144624 0.0006387244 -0.0006000874 0.00011626543
000220 ca 29 95 b9 8c 40 d8 b9 89 b4 6c 39 ff 6d 1e b9
       -0.0002845063 -0.00041246822 0.00022573968 -0.00015109031
000230 81 a7 14 3a 46 32 ad 39 84 9b bb 39 a3 a2 d9 39
       0.0005670712 0.00033034588 0.00035783288 0.0004151064
000240 c4 84 4e b9 0b 8f e2 b9 9d 5b b0 39 0f 6a 39 39
       -0.0001969515 -0.00043212654 0.00033637593 0.00017682485
000250 b5 0a 6b b9 78 da 2c b9 c3 1c 02 39 0f cd bc 39
       -0.00022415335 -0.00016484584 0.0001240848 0.00036010935
000260 1d fe e5 38 83 36 4b 39 d4 fc 80 b9 63 4a 84 b9
       0.00010966903 0.00019379896 -0.00024602434 -0.00025232424
000270 e5 db 1d 3a 1c 78 11 3a 84 97 49 3a 6e 8b 15 3a
       0.00060218415 0.0005549209 0.0007690119 0.00057046756
000280 ba 30 a7 39 2b 4e 30 ba ea 09 7a b9 94 b0 34 b9
       0.00031889026 -0.0006725515 -0.00023845551 -0.00017231918
000290 d2 7d c0 39 3d 0b f4 b9 7f 4b 24 39 b9 e3 22 3a
       0.00036714837 -0.0004654768 0.00015668383 0.0006213743
0002a0 fa d3 e8 b9 7f fa d7 b9 a0 1e 98 b9 ca 73 db b9
       -0.00044408423 -0.0004119463 -0.00029014517 -0.00041857205
0002b0 ff 7e 01 ba 15 41 20 3a a4 9f 9c 38 a4 ae 8c 39
       -0.00049398834 0.00061132136 7.468395e-05 0.00026832998
0002c0 86 d6 40 39 6b e4 fe b9 7f 2f 7b b9 4b 73 87 39
       0.00018390463 -0.0004861684 -0.00023954919 0.00025835106
0002d0 0a c4 6b b9 ce de 22 3a e3 50 ed 38 03 45 c9 39
       -0.00022484377 0.000621301 0.00011316107 0.00038389125
0002e0 64 66 e0 b9 e7 50 f7 b9 49 fc 69 b9 4d 7e 26 ba
       -0.00042800896 -0.00047171788 -0.00022314595 -0.0006351218
0002f0 63 3d 35 ba fe e8 d5 b9 01 d3 9f 38 a7 5a 16 39
       -0.00069137494 -0.0004080012 7.621013e-05 0.00014338885
000300 4d b1 42 39 e5 64 71 39 c3 d1 5d 39 84 75 85 b9
       0.00018567331 0.00023021137 0.00021154345 -0.00025455293
000310 72 ab 86 b9 e9 5c ac 39 72 84 2e b9 99 0f 53 39
       -0.00025686208 0.0003287562 -0.00016643273 0.00020128339
000320 32 90 86 3a 4c 6d 36 ba c3 93 77 b9 b6 f9 8a b9
       0.0010266362 -0.00069590355 -0.00023610801 -0.0002650746
000330 89 e3 16 39 37 04 50 39 58 9c cf b9 60 c4 2f ba
       0.00014389878 0.00019837996 -0.00039598602 -0.00067049824
000340 e2 71 44 39 2f d2 e9 b9 1c ab c3 39 75 cf 93 b9
       0.00018734441 -0.00044597822 0.00037320785 -0.00028192592
000350 ca 7e 9c b9 79 bb c0 b9 6e bb 27 39 db 2b d8 b9
       -0.00029849104 -0.00036760772 0.00015996184 -0.00041231405
000360 24 10 32 ba 73 d8 ce 39 a3 f2 c9 b9 6c 46 31 ba
       -0.0006792566 0.0003945265 -0.00038518486 -0.0006762508
000370 72 a2 66 39 36 cf c5 39 4d 09 8e b9 d5 7f 18 3a
       0.00021995025 0.00037729152 -0.0002709128 0.00058173883
000380 4e 76 4a b9 9c b5 0c 3a dd 59 33 b9 b9 17 ec b9
       -0.00019308293 0.0005367638 -0.00017104247 -0.00045031102
000390 a5 eb 41 b9 e2 c9 22 3a 18 14 dc b9 14 86 3e b9
       -0.00018493699 0.00062098925 -0.0004197664 -0.0001816976
0003a0 04 d9 69 b9 57 f5 22 3a 69 bd a2 b9 de 13 37 ba
       -0.00022301456 0.0006216368 -0.0003104017 -0.00069838564
0003b0 77 76 d2 b9 85 08 94 b9 88 c5 70 b9 cc d6 b0 39
       -0.00040142584 -0.00028235107 -0.0002296177 0.00033729372
0003c0 a1 08 34 3a 5d 67 de b9 64 6b 90 b9 ca b4 17 3a
       0.0006867741 -0.0004242015 -0.00027545833 0.00057871325
0003d0 50 2b f3 b9 40 f0 b5 39 bb 1f 63 b9 0b d1 12 39
       -0.00046380842 0.0003470201 -0.00021660228 0.0001400152
0003e0 8c 12 90 b9 99 51 18 ba d5 86 3d 39 71 53 85 b9
       -0.0002747964 -0.0005810499 0.00018074673 -0.00025429906
0003f0 27 59 ab 39 2e d6 13 39 a5 f8 05 3a d8 38 26 39
       0.00032682085 0.000140988 0.0005110598 0.0001585217

conv.11.bias f4 [32]
000000 72 b4 e0 bb 16 7a 81 b9 77 22 47 38 79 ac ff b8
       -0.0068574483 -0.00024695758 4.7477395e-05 -0.00012191473
000010 70 37 9f b7 98 33 29 37 55 e3 18 3d ce 9a fc b9
       -1.8980092e-05 1.0085198e-05 0.037326176 -0.00048180524
000020 d6 c1 db b7 34 ed 4c b9 d7 49 79 37 a5 b8 05 bc
       -2.6197096e-05 -0.00019543321 1.4858749e-05 -0.0081616985
000030 a5 9f 11 39 3e 84 36 39 32 d9 2e b7 a4 b4 e9 ba
       0.0001388775 0.00017406137 -1.0421778e-05 -0.0017830324
000040 18 79 35 b8 24 e3 5a ba 49 c3 96 b8 32 75 06 b9
       -4.326654e-05 -0.00083498866 -7.188932e-05 -0.00012822894
000050 cb 52 02 39 ff f1 f9 3c b4 59 21 b9 59 c8 34 38
       0.00012428609 0.0305109 -0.00015387574 4.3101933e-05
000060 7d 9b 50 3a ce 58 7a b9 d8 98 83 b9 23 22 c6 3a
       0.000795774 -0.0002387494 -0.00025100145 0.0015116375
000070 87 5b 44 bc 22 45 6c 39 02 7a 12 ba a5 d7 91 39
       -0.011984712 0.00022532468 -0.00055876386 0.00027817223

lin.0.weight f4 [16, 32]
000000 fc 6f 18 bf 1d 71 16 bb 0a cf d8 39 66 94 77 3a
       -0.59545875 -0.0022955604 0.00041352987 0.00094444153
000010 c0 7e c5 39 58 f9 b9 39 6c 09 48 3f d0 e7 cc 3a
       0.00037669204 0.00035471725 0.78139377 0.001563305
000020 9a dd 3b b7 1e 4a b2 3a e6 7b ca b9 43 c8 16 bf
       -1.1197664e-05 0.0013602411 -0.00038620754 -0.58899325
000030 2e 8b c4 39 fd f0 03 ba 5a a2 8f ba c7 15 9a bb
       0.0003748773 -0.00050331635 -0.0010958419 -0.004702303
000040 a1 00 ca b8 34 3c 8a ba 43 bc 4d b8 4d 30 85 ba
       -9.632228e-05 -0.0010546506 -4.905114e-05 -0.001016149
000050 9e 16 46 ba 0d 0a 86 3f 30 1c 02 3a 9d be 8b 38
       -0.0007556471 1.0471817 0.0004963307 6.663541e-05
000060 22 88 e8 38 aa ad 97 b9 50 b2 d7 38 db da 03 bb
       0.00011087979 -0.00028930354 0.00010285212 -0.0020119462
000070 c4 f4 41 bf b4 a0 e0 b9 9e af ea b8 f4 0b 1d bb
       -0.7576411 -0.00042844343 -0.00011190701 -0.0023963423
000080 d2 3f a8 3d 20 34 7f 3a 99 2f a4 ba 43 95 1b bb
       0.08215298 0.0009735245 -0.0012526392 -0.002374009
000090 20 e1 a1 ba d7 d9 8a ba 14 5e 07 bf fb 4b f4 ba
       -0.0012350418 -0.0010593486 -0.52877927 -0.0018638367
0000a0 ca 27 e4 ba a8 48 fd ba f6 ed 3c b9 30 79 89 3e
       -0.0017406878 -0.0019324021 -0.00018017725 0.2685027
0000b0 70 2a 0c ba 87 93 44 ba 56 33 ee b7 59 fb c0 3a
       -0.00053469 -0.000749879 -2.8395716e-05 0.0014723345
0000c0 94 b5 40 ba 44 1c 3a b9 90 92 dc b9 c1 ad ef b9
       -0.0007351276 -0.00017748872 -0.00042070867 -0.0004571509
0000d0 1a c1 35 ba ee de 30 bf df 7c e4 b9 a9 8b 45 ba
       -0.00069333764 -0.69090164 -0.00043580585 -0.00075357646
0000e0 c1 be 25 bb fc a0 c3 b8 0e 76 4c ba ac 50 10 3a
       -0.00252907 -9.32831e-05 -0.0007799574 0.0005505185
0000f0 0c 43 16 3f 66 e4 07 ba e6 fa de ba a6 28 6f 37
       0.58696055 -0.00051838753 -0.001701203 1.4254974e-05
000100 13 12 9c 3d da a0 ea 39 4f ca 7b ba 21 72 01 bb
       0.07620635 0.00044751802 -0.00096050365 -0.0019751864
000110 10 a1 7e ba 0b 0d 58 ba ba 62 ef be 19 1e cb ba
       -0.0009713331 -0.00082416896 -0.4675501 -0.0015496641
000120 23 b7 d0 ba f9 c6 df ba 01 ec 43 b9 14 47 77 3e
       -0.001592372 -0.0017072848 -0.00018684567 0.24148208
000130 db 94 c0 38 b4 46 42 ba 62 18 b9 b8 2a 9f c4 3a
       9.183e-05 -0.0007411048 -8.826029e-05 0.0015001048
000140 01 c8 2d ba df 6e 5b b9 44 03 c9 b9 60 2a f1 b9
       -0.0006629229 -0.0002092677 -0.0003834014 -0.00045998674
000150 b9 d6 20 ba d3 f1 1f bf 5b f4 60 b8 2d 46 1e ba
       -0.0006135512 -0.6247837 -5.3633335e-05 -0.00060376787
000160 92 c5 07 bb 44 15 6e b9 fb 1d 04 ba 09 93 d2 39
       -0.0020717126 -0.00022705371 -0.0005039868 0.0004016387
000170 c7 90 07 3f 4d 29 06 ba 33 9e bb ba ae 6c b4 b8
       0.5295529 -0.00051178486 -0.0014314115 -8.603312e-05
000180 3c 50 52 3d 3e d0 ff 39 ec e2 85 ba 91 ff 09 bb
       0.05134605 0.00048792543 -0.0010214723 -0.002105687
000190 d0 6c 82 ba a9 d6 78 ba bf 8d 00 bf be 0d 01 bb
       -0.0009950642 -0.0009492436 -0.5021629 -0.001969203
0001a0 27 8f a2 ba 5c 67 d3 ba 4f 14 38 b9 75 6e 88 3e
       -0.0012402282 -0.0016128826 -0.00017555173 0.26646772
0001b0 8d 4d 0f ba 31 07 22 ba 75 5c c6 b8 92 5a b7 3a
       -0.0005466573 -0.0006180881 -9.458597e-05 0.0013988784
0001c0 92 7f 39 ba bf b1 2f b9 db f0 dd b9 c1 a8 05 ba
       -0.00070761994 -0.00016755516 -0.00042331856 -0.00050986937
0001d0 8b ee 2b ba 07 79 2a bf 83 5b 10 ba 2a 44 3e ba
       -0.0006558678 -0.66590923 -0.00055068004 -0.0007258082
0001e0 0c f6 0d bb f8 e2 03 b9 58 22 2a ba 4e 97 6a 39
       -0.0021661548 -0.00012577686 -0.0006490103 0.00022372344
0001f0 f7 91 10 3f 68 ad 16 ba 65 2d d0 ba f0 1a b2 b8
       0.56472725 -0.00057478854 -0.0015882669 -8.492719e-05
000200 c2 9c 0a 3d d9 8b cc 39 5f 5c 36 ba 70 e6 ae ba
       0.033840902 0.00039014107 -0.00069565134 -0.0013343822
000210 2a 25 2a ba 66 71 19 ba be f8 a8 be 26 95 92 ba
       -0.0006490523 -0.00058533845 -0.33002275 -0.0011183366
000220 19 9e 82 ba b4 f8 90 ba 66 77 06 b9 80 13 30 3e
       -0.000996533 -0.0011060447 -0.00012823715 0.17194939
000230 17 f8 d1 39 a3 69 27 ba 84 55 26 b8 09 95 a3 3a
       0.00040048428 -0.00063862855 -3.9657127e-05 0.0012480329
000240 1d 38 fc b9 30 38 01 b9 99 fd 91 b9 3b e7 b6 b9
       -0.00048106993 -0.0001232333 -0.000278455 -0.00034886025
000250 e3 48 db b9 47 ad df be a3 05 1e 3a 17 fb ea b9
       -0.0004182524 -0.43686888 0.00060280616 -0.00044819035
000260 b0 57 b3 ba 56 ea 14 b9 1c 0a bb b9 7f b3 0c 39
       -0.0013682749 -0.00014201677 -0.00035674952 0.00013418308
000270 3e c1 be 3e fb 0b c1 b9 39 97 85 ba c3 23 a7 b8
       0.37256807 -0.00036820755 -0.0010192163 -7.969842e-05
000280 1d c7 00 80 ec 3d ad 04 c9 35 0d 9a 58 26 00 00
       -7.1428e-41 4.072897e-36 -2.9201564e-23 1.3755e-41
000290 e8 af 00 00 ca f9 78 31 7d 7b 00 80 1b 63 d4 32
       6.3103e-41 3.6230738e-09 -4.4299e-41 2.4725116e-08
0002a0 bd 75 e5 36 de 1a 87 08 52 7f 24 9f fd fb 00 80
       6.8384384e-06 8.131333e-34 -3.4833668e-20 -9.0396e-41
0002b0 b9 52 bb b4 fc 98 99 b4 fb 72 26 a4 16 19 00 00
       -3.4891653e-07 -2.8609782e-07 -3.6092904e-17 8.999e-42
0002c0 00 fa 63 21 f4 fd 94 27 95 ed e7 32 0f 14 cb 97
       7.7241464e-19 4.135359e-15 2.699998e-08 -1.3123631e-24
0002d0 68 e7 53 9e 17 ca 67 0e 1a 2b 46 37 9f 01 90 99
       -1.1218101e-20 2.8570251e-30 1.1811755e-05 -1.4889906e-23
0002e0 b0 18 9b 94 02 c2 33 27 41 39 32 b2 10 73 33 a5
       -1.5660738e-26 2.4946412e-15 -1.0373982e-08 -1.556476e-16
0002f0 04 84 00 80 d9 d6 00 00 dc 87 15 34 2e 9f 05 96
       -4.7358e-41 7.7073e-41 1.3926132e-07 -1.0793883e-25
000300 c1 ef 71 be c1 56 1b bb 19 b3 44 3a b3 54 be 3a
       -0.23626615 -0.0023702832 0.0007503494 0.0014521092
000310 4e 7f 57 3a c6 00 41 3a c9 21 e0 3e 99 0a cf 3a
       0.0008220569 0.0007362481 0.43775776 0.0015796005
000320 05 11 5a 3a ba 96 d3 3a 25 04 9b 37 0d 93 9f be
       0.0008318576 0.0016142942 1.847937e-05 -0.31166878
000330 47 ce 0a 3a 3b 37 3e 38 2e 82 fd b9 82 20 49 bb
       0.000529502 4.5350967e-05 -0.00048352912 -0.0030689542
000340 37 98 8c 39 f4 e8 2c ba 6a 51 b2 38 6f 50 b7 b9
       0.0002681629 -0.0006595992 8.502866e-05 -0.00034964408
000350 f6 23 1f b9 51 04 1b 3f bc 28 6f 39 5b 9f 77 3a
       -0.00015176818 0.6055346 0.00022807991 0.0009446048
000360 6d 75 9b 3a a2 36 88 b9 66 c9 d7 39 9a fc f8 ba
       0.0011860557 -0.00025980646 0.0004115805 -0.001899618
000370 1a fe fe be a9 f2 65 b9 84 dc 37 3a 8d 43 a3 ba
       -0.4980324 -0.0002192954 0.00070137554 -0.0012456045
000380 34 08 01 00 d5 16 00 00 33 21 00 80 c1 9f 00 80
       9.4778e-41 8.19e-42 -1.191e-41 -5.7309e-41
000390 e3 15 01 00 ac c8 00 00 7e 56 00 00 48 e6 00 80
       9.9687e-41 7.1988e-41 3.1028e-41 -8.261e-41
0003a0 3c a6 00 80 65 d3 00 00 6a 17 00 00 5b 88 00 00
       -5.9634e-41 7.5834e-41 8.4e-42 4.8915e-41
0003b0 11 82 00 00 db bc 93 0c 71 11 00 80 30 5f 01 80
       4.6659e-41 2.27626e-31 -6.257e-42 -1.25982e-40
0003c0 15 64 00 00 71 d6 00 00 48 0e 00 80 00 0e 00 80
       3.5903e-41 7.6927e-41 -5.123e-42 -5.022e-42
0003d0 e8 31 00 00 b1 4d 00 00 a2 10 00 00 d7 4b 00 00
       1.7903e-41 2.787e-41 5.967e-42 2.7206e-41
0003e0 0b c2 00 80 7b 09 01 80 3c 10 77 86 8d ed 8e 89
       -6.961e-41 -9.5236e-41 -4.6467464e-35 -3.440865e-33
0003f0 3f 1f 00 80 49 fb 00 80 26 9a 00 00 1f 05 0c 80
       -1.1209e-41 -9.0144e-41 5.5298e-41 -1.103863e-39

lin.0.bias f4 [16]
000000 7f b1 44 3d 68 9a b7 3d fe ea 64 3d c7 13 8e 3d
       0.048020836 0.089649975 0.05588817 0.06937366
000010 56 e3 47 3e 10 e1 0c b7 dd a9 00 3d d5 0f c4 a1
       0.19520316 -8.397052e-06 0.031411994 -1.3285667e-18
000020 3e b0 fb a3 c8 a2 c7 b0 c1 15 a0 8b ac d6 86 a7
       -2.7288116e-17 -1.4525421e-09 -6.166249e-32 -3.742522e-15
000030 10 8f 18 34 07 cd 4e 3d 6f 3b 20 3d 8b b2 8c b8
       1.4208149e-07 0.050488498 0.03911918 -6.7089764e-05

lin.2.weight f4 [1, 16]
000000 ec aa bf bf e9 b0 79 3f 4a b4 62 3f a6 2e 71 3f
       -1.4974036 0.9753557 0.8855635 0.94211805
000010 b6 dc 1d 3f 32 71 99 35 0a 00 5e bf bf 67 00 00
       0.61664903 1.1432332e-06 -0.8671881 3.7217e-41
000020 8c 40 36 a0 1e fc 1b 33 0b 57 a3 8a eb 8a 0b 26
       -1.5437356e-19 3.631805e-08 -1.5729071e-32 4.841358e-16
000030 7a e7 53 35 bf 0a ee bf c7 14 60 3f 6e 6e 49 bb
       7.894047e-07 -1.859703 0.87531704 -0.0030735987
