Simulator/models/lane_keeper_small.pt (torch, 75448 bytes, 14 tensors)

conv.0.weight f4 [4, 1, 5, 5]
-0.0015073521 0.0055432064 0.008713291 -0.017355371 -0.008135996 -0.00047205607 -3.4059856e-05 0.010607092
-0.00017934143 -0.009518503 -0.006137552 0.0031378593 0.0021490003 0.009753876 -0.011538671 -0.008800978
7.1594644e-05 -0.0002540574 0.0096728 -0.0090638045 -0.0101125715 -0.006803247 0.0018229318 0.013737208
-0.0015253163 -0.013962574 -0.0054044267 0.01141247 0.005236676 -0.0010977389 -0.00812595 0.0021735174
-0.001354457 0.009819264 -0.007283973 -0.0075485725 0.0029830588 0.0011822896 0.0020988018 -0.0032585717
-0.0011949044 0.0036421446 0.002434333 -0.005074641 -0.0030481063 -0.0015603909 0.0105313435 0.0042010415
-0.007857458 -0.012301714 0.00068156444 0.0036504501 -0.0074862647 -0.0073581 0.004003289 0.00056385726
0.003187319 -0.013109489 0.0018626766 0.0032393541 0.006448417 -0.0063872114 -0.011448428 0.010643914
-0.004033566 0.00796587 -0.01261 0.0031965526 0.004939591 -0.005405377 -0.0034811457 -0.010769169
0.010430459 -0.0020811243 -0.00015783362 -0.0028896788 -0.00412646 -0.01320584 -0.007283466 0.004676376
-0.0084666405 -0.008630797 -0.0006911085 0.011012391 0.007099857 -0.00695749 0.0052116034 0.007731599
-0.0016217423 0.0019322373 0.004684757 0.008645542 7.9233265e-05 -0.00020902314 -0.006450356 0.0043558623
-0.0044044745 -0.0070685903 -0.004813409 -0.009588868
00000000: 5892 c5ba c9a3 b53b 31c2 0e3c da2c 8ebc
00000010: d74c 05bc 4b7e f7b9 7edb 0eb8 5ec9 2d3c
00000020: 990d 3cb9 7ff3 1bbc 851d c9bb 8ba4 4d3b
00000030: 3ed6 0c3b b9ce 1f3c b20c 3dbc fa31 10bc
00000040: 1525 9638 0233 85b9 aa7a 1e3c 5a80 14bc
00000050: 33af 25bc c6ed debb 71ef ee3a 0712 613c
00000060: 1fed c7ba 48c3 64bc 9e17 b1bb 5efb 3a3c
00000070: 6c98 ab3b 01e2 8fba b422 05bc 9271 0e3b
00000080: 0988 b1ba fae0 203c 65ae eebb 045a f7bb
00000090: 6c7f 433b 0ef7 9a3a 0d8c 093b c38d 55bb
000000a0: 579e 9cba 0cb1 6e3b 5589 1f3b 2d49 a6bb
000000b0: bdc2 47bb 0886 ccba a88b 2c3c e4a8 893b
000000c0: 91bc 00bc 218d 49bc 04ab 323a 643c 6f3b
000000d0: 574f f5bb 371c f1bb 062e 833b d2cf 133a
000000e0: 57e2 503b 2fc9 56bc 0e25 f43a 584b 543b
000000f0: 3e4d d33b d04b d1bb 3092 3bbc d063 2e3c
00000100: 012c 84bb 4883 023c 2c9a 4ebc 417d 513b
00000110: 4bdc a13b 971f b1bb ef23 64bb 2b71 30bc
00000120: 84e4 2a3c 7963 08bb 2480 25b9 c460 3dbb
00000130: 4137 87bb 4f5d 58bc 24aa eebb 493c 993b
00000140: aab7 0abc 3068 0dbc 822b 35ba 516d 343c
00000150: eba5 e83b a8fb e3bb 19c6 aa3b 5a59 fd3b
00000160: a490 d4ba 2043 fd3a 9782 993b 08a6 0d3c
00000170: 092a a638 392d 5bb9 825d d3bb 9fbb 8e3b
00000180: 6953 90bb a29f e7bb cdb9 9dbb a11a 1dbc

conv.0.bias f4 [4]
-0.00031600572 -0.0002083405 -0.0006406464 -0.0005476919
00000000: 92ad a5b9 fa75 5ab9 0df1 27ba fb92 0fba

conv.4.weight f4 [4]
0.48962578 0.4860476 0.48297378 0.48432195
00000000: 3bb0 fa3e 3bdb f83e 5748 f73e 0cf9 f73e

conv.4.bias f4 [4]
0.0004870712 -0.00017244049 -2.9274694e-05 2.144064e-05
00000000: 975d ff39 24d1 34b9 ed92 f5b7 6cdb b337

conv.4.running_mean f4 [4]
0.28282169 0.19992179 0.23933615 0.16930501
00000000: 01ce 903e 4cb8 4c3e 8914 753e 4b5e 2d3e

conv.4.running_var f4 [4]
0.6476089 0.35389334 0.26707506 0.33504307
00000000: b2c9 253f 8231 b53e 10be 883e c48a ab3e

conv.6.weight f4 [4, 4, 5, 5]
-0.0044433814 -0.005849739 -0.008282336 -0.005591611 -0.0022937749 -0.0028776359 -0.0070940834 -0.0040696384
-0.0034508617 -0.002026405 -0.0026182309 -0.0010203338 0.000259694 -0.0008432172 0.00045389443 -0.0027726872
0.00025850342 -0.0009632242 0.00019878926 0.00028433668 -0.00057375245 0.0015623252 0.00034049724 0.0001524804
0.00076483894 -0.0034712139 -0.0033927164 -0.0028027103 -0.0037863986 -0.0007247244 -0.006973878 -0.0055274083
-0.0030064236 -0.005049081 0.0016571977 -0.0062938975 -0.004960701 -0.006516992 -0.005213475 0.0036096813
-0.009350095 -0.0038625933 -0.0062889853 -0.0035545419 0.006935298 -0.009022603 -0.0037366985 -0.005128498
-0.00019146313 0.011293562 -0.0043740296 -0.00017623123 -0.0008618853 -0.003368911 0.001271931 -0.0078112236
-0.004109173 -0.0019328465 -0.0042929384 0.0005062792 -0.010198811 -0.0057739574 -0.004039547 0.00054994307
0.0010723234 -0.009321841 -0.005246006 -0.00055862794 0.004761113 0.002224302 -0.0067803143 -0.0042335195
0.0008159665 0.0127669005 0.0003796956 0.024648828 0.00960639 0.013832839 0.015208041 0.017400518
0.030105276 0.024991127 0.01969604 0.009800337 0.004159147 0.0369099 0.016738899 0.0060717636
0.00020749257 -0.002788363 0.018049551 0.00545442 -0.001968972 -0.002589417 0.00024675767 0.0032989283
-0.0012260103 -0.0024825132 -0.0022230637 -0.00044905418 0.0049025095 0.024779635 0.02985088 0.028313536
0.013180016 -0.0003327928 0.0051301573 0.01941222 0.031158406 0.017827936 0.010189563 2.038297e-05
0.00977222 0.029593447 0.023848241 0.020619588 -9.892867e-05 0.0041428288 0.018330261 0.03180972
0.007652658 0.017600838 0.0005035785 0.010212395 0.03652726 -0.00017673535 -0.0062944093 -0.0049104486
-0.0020191364 -0.0018592732 -0.0008588698 -0.0044781133 -0.009281729 -0.0073832297 -0.004306991 -0.0028587251
-0.00093458453 -0.005123909 -0.010309901 -0.010463787 -0.0064186174 -0.0030073165 -0.006556048 -0.0073864046
-0.010488935 -0.005492853 -0.0019878612 -0.0016967324 -0.008002941 -0.010459582 0.00017054018 -0.0021633694
-0.0011567136 -0.00058736687 0.0005445344 -0.0009955573 -0.0027034243 -0.005862012 -0.00420725 -0.002495735
-3.7611102e-05 -0.0009766466 -0.0029030566 -0.0032171276 -0.00694623 -0.0045452397 -0.0009960956 -0.0009828575
-0.0004496126 -0.004920136 -0.0029626756 -0.00039857277 0.00012208942 -0.00038814973 -0.0053654118 -0.0025451947
2.1620579e-05 0.0001751048 -0.0025891636 -0.004736291 -0.0028712542 -0.0020330308 -0.00034985197 -0.0010284395
-0.004925106 -0.00070761057 0.0011658467 0.0014871882 -0.00016627363 -0.0039467434 -0.0026079833 0.00011455146
0.0008533297 0.0004116784 -0.002975615 0.000439166 0.0019400808 0.003792827 0.0033920533 -0.00032130352
-0.0039742664 -0.0036760278 0.0010783937 0.0116553875 0.022407668 -0.00047602665 -0.0026092604 -6.437931e-05
0.0049120598 0.02403465 -0.00029380774 -0.0013845863 -0.0004018616 0.0016578082 0.021896763 0.00012352054
0.0020209742 -0.0002129446 2.3106362e-05 0.010142369 -6.545888e-05 -0.0022753498 0.004459649 -0.0007000156
-0.00014126778 -0.00092651555 -0.000874014 -0.004791039 -0.006341348 -0.010383998 -0.0010937655 -0.0020383
-0.0038939614 -0.005336405 -0.01045346 -0.0011745458 -0.0017855872 -0.00029918546 -0.0036297133 -0.010407873
5.4279823e-05 -0.00077245524 -0.0015595648 -0.0014601281 -0.004014703 8.743245e-05 -0.0016486896 0.0012582885
0.00036103267 -0.00010813384 -0.0001194945 -0.0007297707 -0.00022646878 -0.0012498123 -1.4463518e-06 -0.0011772761
00000000: c999 91bb 2baf bfbb a3b2 07bc d539 b7bb
00000010: 2853 16bb b896 3cbb 7c75 e8bb 9a5a 85bb
00000020: da27 62bb 6fcd 04bb a096 2bbb b9bc 85ba
00000030: 8a27 8839 590b 5dba aef8 ed39 f9b5 35bb
00000040: be87 8739 e280 7cba 1672 5039 0613 9539
00000050: e067 16ba efc6 cc3a c484 b239 25e3 1f39
00000060: 797f 483a 4e7d 63bb 5658 5ebb adad 37bb
00000070: 3a25 78bb 6efb 3dba 2185 e4bb 431f b5bb
00000080: 6b07 45bb c372 a5bb 5436 d93a 0a3d cebb
00000090: 608d a2bb 7e8c d5bb ccd5 aabb 6790 6c3b
000000a0: 2431 19bc 9023 7dbb d513 cebb 51f3 68bb
000000b0: 7f41 e33b 8ad3 13bc 66e3 74bb f60c a8bb
000000c0: 7ec3 48b9 a208 393c 0554 8fbb b6ca 38b9
000000d0: 25f0 61ba f3c8 5cbb ecb6 a63a 4bf5 ffbb
000000e0: 3ea6 86bb 9157 fdba c7ab 8cbb d2b7 043a
000000f0: ea18 27bc 7733 bdbb 2d5e 84bb 0e2a 103a
00000100: 348d 8c3a a3ba 18bc b0e6 abbb e370 12ba
00000110: 1c03 9c3b 98c5 113b 662d debb 56b9 8abb
00000120: 96e6 553a 432c 513c e111 c739 57ec c93c
00000130: 1f64 1d3c 22a3 623c 262b 793c 888b 8e3c
00000140: 579f f63c 31ba cc3c 9759 a13c 9891 203c
00000150: 7449 883b d62e 173d 0420 893c a5f5 c63b
00000160: 5d92 5939 f8bc 36bb a7dc 933c feba b23b
00000170: de09 01bb 35b3 29bb 415f 8139 d532 583b
00000180: 14b2 a0ba a9b1 22bb d2b0 11bb 086f ebb9
00000190: 3ba5 a03b a9fe ca3c d589 f43c caf1 e73c
000001a0: fef0 573c b27a aeb9 e11a a83b 6006 9f3c
000001b0: ea3f ff3c e40b 923c 20f2 263c 18fc aa37
000001c0: a91b 203c f56d f23c 635d c33c 69ea a83c
000001d0: ed77 cfb8 91c0 873b 5829 963c e94a 023d
000001e0: 26c3 fa3b a22f 903c 9502 043a e451 273c
000001f0: 9c9d 153d 0952 39b9 5541 cebb d4e7 a0bb
00000200: 7d53 04bb dbb2 f3ba c725 61ba 23bd 92bb
00000210: 6512 18bc 05ef f1bb a921 8dbb 7359 3bbb
00000220: e8fe 74ba 77e6 a7bb dcea 28bc 4e70 2bbc
00000230: 4453 d2bb 6616 45bb 1ed4 d6bb a709 f2bb
00000240: c8d9 2bbc 64fd b3bb c746 02bb e464 deba
00000250: c41e 03bc ab5e 2bbc 08d3 3239 51c7 0dbb
00000260: de9c 97ba 86f9 19ba 16bf 0e3a 5c7d 82ba
00000270: ef2b 31bb 1f16 c0bb f9dc 89bb 7c8f 23bb
00000280: 9dc0 1db8 d202 80ba 3541 3ebb 72d6 52bb
00000290: 339d e3bb 3cf0 94bb 6c8f 82ba 3ad3 80ba
000002a0: fbb9 ebb9 1839 a1bb 7329 42bb 88f7 d0b9
000002b0: 2105 0039 9380 cbb9 56d0 afbb 48cd 26bb
000002c0: d75d b537 569c 3739 f5ae 29bb e332 9bbb
000002d0: a72b 3cbb 993c 05bb 566c b7b9 b4cc 86ba
000002e0: c962 a1bb f17e 39ba 53cf 983a c1ed c23a
000002f0: bd59 2eb9 af53 81bb b3ea 2abb 593b f038
00000300: fdb1 5f3a 8ad6 d739 8902 43bb dd3f e639
00000310: 4f4a fe3a 1491 783b 364d 5e3b a174 a8b9
00000320: 903a 82bb 83e9 70bb e358 8d3a 3df6 3e3c
00000330: 4990 b73c 3793 f9b9 2000 2bbb 6103 87b8
00000340: 58f5 a03b 50e4 c43c 350a 9ab9 027b b5ba
00000350: f3b0 d2b9 d04a d93a d760 b33c 4b85 0139
00000360: 5272 043b e149 5fb9 89d4 c137 2e2c 263c
00000370: f846 89b8 091e 15bb 3f22 923b 4081 37ba
00000380: 4821 14b9 68e1 72ba 161e 65ba 26fe 9cbb
00000390: 15cb cfbb a521 2abc ae5c 8fba 0095 05bb
000003a0: d531 7fbb 02dd aebb fd44 2bbc 38f3 99ba
000003b0: 5d0a eaba fedb 9cb9 7ce0 6dbb c985 2abc
000003c0: 84aa 6338 987e 4aba 506a ccba c561 bfba
000003d0: c58d 83bb f05b b738 d818 d8ba 28ed a43a
000003e0: fc48 bd39 eac5 e2b8 1f99 fab8 154e 3fba
000003f0: 4078 6db9 bed0 a3ba 4520 c2b5 d54e 9aba

conv.6.bias f4 [4]
-3.9657236e-05 0.006818895 0.0057099955 0.0033003483
00000000: a255 26b8 0a71 df3b ea1a bb3b a84a 583b

conv.11.weight f4 [128, 4, 5, 5]
-7.0756173e-06 -1.44161095e-05 -2.496303e-05 -3.554279e-05 5.2611394e-05 -1.8248838e-05 -2.2555543e-05 -5.890187e-05
-0.00017153457 -7.9910256e-05 6.48108e-06 1.5052121e-05 -0.00025619072 -0.000100175166 -3.7626964e-05 7.2464885e-05
8.336954e-05 7.371126e-06 -3.9181086e-05 -6.0138886e-05 0.00017468487 6.490877e-05 -0.00020870838 6.38656e-06
1.3141484e-05 1.0985598e-06 -7.732537e-05 0.00017112002 4.8076585e-05 0.00011132702 0.00025718566 5.255149e-05
0.00027814583 -6.116616e-05 0.00019708279 -1.620597e-05 -1.9043566e-05 3.989915e-05 7.039413e-06 2.4239816e-05
-4.41843e-05 -3.5533421e-06 4.5108907e-05 -4.240882e-05 -3.7357404e-05 -2.9601384e-05 -1.3696074e-05 -0.00012417005
0.00029973692 -6.621982e-05 4.7749545e-05 5.9846865e-05 4.9319515e-05 -0.00011792233 3.8154147e-05 -5.1733645e-05
3.4061533e-05 -3.198442e-05 -6.450347e-05 1.7489154e-05 -4.9834594e-05 -7.92886e-05 4.6599835e-06 3.402174e-05
1.1092702e-05 -3.0982246e-05 -0.00010187707 4.660901e-05 -2.3012723e-05 -3.0257916e-05 3.2343552e-05 -5.599828e-06
-1.5767058e-05 0.00010828618 7.179385e-05 -2.625006e-05 2.4260415e-05 2.1533815e-05 -9.3272356e-05 0.00011867853
-4.7038566e-06 -3.4526132e-05 5.57614e-05 -2.4076757e-05 1.6354108e-05 -5.0974657e-05 7.744623e-05 -4.1740677e-05
-2.2243834e-05 4.1253102e-07 5.232741e-06 -9.6212134e-05 -1.1154278e-05 0.000104733444 1.8844497e-05 -9.7804455e-05
-1.1010113e-05 1.5063492e-05 0.00012359576 2.1635493e-05 3.9138475e-05 -1.8419058e-05 -1.9523688e-05 -9.71051e-06
-7.524e-05 -9.211153e-05 4.750083e-05 5.7324232e-05 -2.7779202e-05 1.4021575e-05 6.7007466e-05 2.6480891e-05
-5.939041e-06 1.3264598e-05 -1.1541875e-05 5.6049947e-05 1.3649495e-05 1.1344571e-05 -1.5672966e-05 1.4463017e-05
2.6285361e-05 1.0540203e-05 -0.00032530236 -1.9316894e-05 6.89226e-05 0.00026404377 -5.9876733e-05 1.2761926e-07
-3.7737856e-05 2.169778e-05 0.00013188287 -4.2487383e-05 -2.4803205e-06 -1.8975445e-05 7.019815e-05 3.553111e-05
1.7259174e-05 1.5570551e-05 -2.2539449e-05 -6.115508e-05 2.6011581e-05 5.6618064e-05 -5.091368e-05 -0.0001664968
-2.3865188e-05 -0.00013055831 0.00016400927 -2.3150707e-05 -0.00016588808 -3.1195003e-05 -3.3666143e-05 -4.48532e-05
5.473395e-05 2.8497247e-05 0.00020129724 -3.9001793e-06 6.921832e-05 1.7221808e-05 0.00011534907 -1.5469861e-05
2.7368784e-05 -0.000102347985 9.2518785e-05 -9.489837e-05 4.255189e-05 -7.07795e-05 -3.7536945e-05 2.844189e-05
-5.3194595e-05 8.061206e-05 0.00011976965 -2.5689387e-05 1.5209162e-05 6.64862e-06 -6.969098e-05 -0.00011187505
1.4170656e-05 -7.1822054e-05 0.00014034235 -1.8753244e-05 -6.806942e-05 -0.000107668355 2.1452126e-05 4.2348718e-05
0.00018543494 -3.3541473e-05 5.0577884e-05 0.00019545118 -7.56745e-05 2.5119467e-05 -0.00021248758 -4.6534296e-05
-0.00019528129 0.00016819785 0.00019641971 -4.387183e-05 0.00028994185 2.8444958e-05 2.3475046e-05 -2.331252e-05
-6.905947e-05 -8.7379456e-05 3.2672942e-05 -4.4920605e-05 -3.532886e-05 -1.0226726e-05 7.4561256e-05 -3.9081784e-05
-4.162492e-06 -3.3816876e-05 6.970773e-05 3.6710688e-05 -1.5224758e-05 3.1273773e-06 -4.6750515e-06 0.00014217809
5.3207925e-05 -2.292588e-05 -4.9087237e-05 3.671803e-05 1.5627968e-05 5.7567926e-05 -0.00011223632 2.9841245e-05
-1.363503e-05 2.0011455e-05 -3.328369e-05 2.6079633e-05 2.560727e-05 -5.392093e-05 -5.2584037e-06 -0.00010300212
0.000109487715 -5.8802023e-05 0.00013561037 9.825519e-06 0.00017655604 1.7064409e-05 2.9636247e-05 7.8874175e-05
-0.00012504758 -3.1764225e-07 4.645965e-05 -2.6351323e-05 0.00018289397 0.000112558606 6.993918e-05 8.865661e-05
-1.5672506e-06 1.3816052e-05 -2.0282816e-05 -7.106972e-05 -1.1774893e-05 -1.01258975e-05 3.3344797e-05 1.2718187e-05
00000000: 176b edb6 b8dc 71b7 b367 d1b7 c813 15b8
00000010: 0eab 5c38 1515 99b7 a935 bdb7 670d 77b8
00000020: f6dd 33b9 7e95 a7b8 0e78 d936 5e88 7c37
00000030: 5651 86b9 2215 d2b8 a5d1 1db8 4af8 9738
00000040: aed6 ae38 7d55 f736 5f56 24b8 a33d 7cb8
00000050: 9d2b 3739 a11f 8838 bbd8 5ab9 224c d636
00000060: 3e7a 5c37 3a72 9335 be29 a2b8 ae6e 3339
00000070: d7a5 4938 3d78 e938 e0d6 8639 bc6a 5c38
00000080: 1ad4 9139 5546 80b8 02a8 4e39 0ef2 87b7
00000090: bfbf 9fb7 6359 2738 1934 ec36 9c56 cb37
000000a0: 8852 39b8 f475 6eb6 5233 3d38 20e0 31b8
000000b0: 35b0 1cb8 7d50 f8b7 31c8 65b7 a533 02b9
000000c0: 0226 9d39 7fdf 8ab8 af46 4838 1504 7b38
000000d0: 6ddc 4e38 124d f7b8 b407 2038 94fc 58b8
000000e0: 4bdd 0e38 0227 06b8 0946 87b8 acb5 9237
000000f0: 7d05 51b8 be47 a6b8 f45c 9c36 91b2 0e38
00000100: cb1a 3a37 eff2 01b8 d6a6 d5b8 0b7e 4338
00000110: 720b c1b7 61d2 fdb7 a0a8 0738 28e6 bbb6
00000120: 8043 84b7 b317 e338 0890 9638 9333 dcb7
00000130: d882 cb37 84a3 b437 379b c3b8 0de3 f838
00000140: d2d5 9db6 27d0 10b8 59e1 6938 71f8 c9b7
00000150: 2e30 8937 9fcd 55b8 a16a a238 b612 2fb8
00000160: 4598 bab7 d579 dd34 e794 af36 7fc5 c9b8
00000170: 4223 3bb7 57a4 db38 4014 9e37 5e1c cdb8
00000180: 13b8 38b7 35b9 7c37 7c99 0139 de7d b537
00000190: 9e28 2438 a082 9ab7 cdc6 a3b7 53ea 22b7
000001a0: 2bca 9db8 002c c1b8 a13b 4738 6d6f 7038
000001b0: 6207 e9b7 353e 6b37 5c86 8c38 4823 de37
000001c0: f947 c7b6 048b 5e37 faa3 41b7 2c17 6b38
000001d0: 2200 6537 9054 3e37 7079 83b7 2fa6 7237
000001e0: 627f dc37 d4d5 3037 588d aab9 b70a a2b7
000001f0: 8a8a 9038 5b6f 8a39 2724 7bb8 b707 0934
00000200: b748 1eb8 a103 b637 0a4a 0a39 7b34 32b8
00000210: 9573 26b6 752d 9fb7 5837 9338 3d07 1538
00000220: cbc7 9037 819d 8237 1913 bdb7 6240 80b8
00000230: 7233 da37 2f79 6d38 268c 55b8 a595 2eb9
00000240: 1a32 c8b7 7be6 08b9 e7f9 2b39 c433 c2b7
00000250: 3ef2 2db9 61d7 02b8 bf34 0db8 c220 3cb8
00000260: 2292 6538 5f0d ef37 5113 5339 49de 82b6
00000270: 4d29 9138 8d77 9037 8fe7 f138 46c5 81b7
00000280: 0496 e537 a8a3 d6b8 a506 c238 2d04 c7b8
00000290: be79 3238 746f 94b8 fd70 1db8 7e96 ee37
000002a0: 431d 5fb8 450e a938 d72c fb38 8a7f d7b7
000002b0: da2a 7f37 3617 df36 0f27 92b8 769e eab8
000002c0: 81be 6d37 2c9f 96b8 dd28 1339 4950 9db7
000002d0: 7ec0 8eb8 02cc e1b8 17f4 b337 979f 3138
000002e0: 5071 4239 e2ae 0cb8 9723 5438 07f2 4c39
000002f0: 70b3 9eb8 a5b7 d237 33cf 5eb9 d22d 43b8
00000300: 6cc4 4cb9 445e 3039 04f6 4d39 0503 38b8
00000310: 5603 9839 159d ee37 47ec c437 418f c3b7
00000320: 05d4 90b8 7d3f b7b8 4e0a 0938 2269 3cb8
00000330: 132e 14b8 7493 2bb7 c55d 9c38 bfeb 23b8
00000340: 89ab 8bb6 98d6 0db8 0d30 9238 cdf9 1938
00000350: d66d 7fb7 efdf 5136 63de 9cb6 a415 1539
00000360: 932b 5f38 f450 c0b7 05e3 4db8 af01 1a38
00000370: ce18 8337 1775 7138 6a60 ebb8 9653 fa37
00000380: 02c2 64b7 46de a737 179a 0bb8 96c5 da37
00000390: 32cf d637 2829 62b8 5871 b0b6 d802 d8b8
000003a0: c59c e538 31a2 76b8 a232 0e39 48d8 2437
000003b0: e721 3939 8a25 8f37 5b9b f837 4069 a538
000003c0: 341f 03b9 6b88 aab4 abdd 4238 090d ddb7
000003d0: 3ac7 3f39 710d ec38 50ac 9238 28ed b938
000003e0: 525a d2b5 7ecb 6737 0425 aab7 440b 95b8
000003f0: c88c 45b7 66e2 29b7 b4db 0b38 3260 5537

conv.11.bias f4 [128]
-0.0003900343 0.00024553656 -5.031524e-06 8.549191e-05 -0.00011775887 -0.0001961847 5.055633e-06 -1.3508812e-05
8.696938e-06 1.686025e-05 -0.00033088974 -0.00025285027 0.014099631 -2.4002129e-05 6.499197e-05 0.0027346108
4.408854e-05 0.00013971006 7.6836135e-05 0.00014959635 -0.00031336874 7.1413706e-05 -0.00015314875 -0.000110636276
0.0003042871 -7.6024386e-05 -2.6211314e-05 0.019459669 -0.00034000963 -0.0003285991 -0.0003137121 -0.00018434641
-0.000198033 -2.509918e-05 -2.5768504e-05 6.930754e-05 -0.00026777177 7.187421e-05 -0.00022099365 -5.0931554e-05
0.00015942851 -0.0006644741 0.000106918786 0.035484582 -0.0001070537 4.5308097e-05 -7.8824065e-05 -0.00013173006
9.3785944e-05 1.13726055e-05 2.1275659e-05 -1.3169986e-05 0.00016404553 -1.7953445e-05 0.00016878943 -0.0002100132
-0.00018411767 0.0029252004 -0.0008257592 0.00018816061 9.780925e-05 3.4266202e-05 -0.0004979117 -7.99794e-06
-0.00022651756 0.00013546852 -0.0001633596 0.019200599 -1.1870204e-05 0.00010680527 0.0001281145 -0.00047976215
-0.000295171 5.8391447e-06 -8.7224165e-05 2.0464144e-05 -6.518746e-05 1.8601118e-05 7.797371e-05 -1.8640274e-05
0.013778089 0.023859465 -8.413045e-05 0.00018949634 0.0002106064 -0.00032473195 1.3111822e-05 -8.319824e-05
-0.00011870335 -0.00049589534 1.20172635e-05 0.0005796318 -3.78037e-07 0.0038594373 -0.00019295281 -1.0600333e-05
-0.00027095943 -4.4321274e-05 6.7023466e-05 0.00045153842 0.00011787593 2.0261365e-05 -0.0003206625 -0.00061151845
-7.43854e-05 -5.8147358e-05 2.8322464e-05 2.3038581e-05 -9.69115e-05 5.9377835e-05 -4.827673e-07 8.871988e-05
-3.3057745e-06 -1.1281308e-05 0.00042370404 3.678308e-05 -0.00018892715 -0.00013599715 0.0007378994 -9.449865e-05
-0.0007397683 0.00012448267 1.7815673e-05 -9.32575e-05 4.2645177e-05 -2.9243936e-05 0.00053965254 -0.00021078257
00000000: 857d ccb9 5cbb 8039 76d4 a8b6 1f4a b338
00000010: 50f5 f6b8 eeb6 4db9 8fa3 a936 e8a3 62b7
00000020: 10e9 1137 1c6f 8d37 457b adb9 fd90 84b9
00000030: 2402 673c 2e58 c9b7 4c4c 8838 2837 333b
00000040: b6eb 3838 227f 1239 1623 a138 f7dc 1c39
00000050: a44b a4b9 f1c3 9538 8e96 20b9 6605 e8b8
00000060: b988 9f39 486f 9fb8 5ee0 dbb7 e269 9f3c
00000070: 5243 b2b9 d347 acb9 ba79 a4b9 1d4d 41b9
00000080: 14a7 4fb9 148c d2b7 7129 d8b7 3459 9138
00000090: b863 8cb9 2cbb 9638 88ba 67b9 579f 55b8
000000a0: 442c 2739 1a30 2eba 9639 e038 4858 113d
000000b0: 0482 e0b8 3309 3e38 594e a5b8 0521 0ab9
000000c0: f2ae c438 f8cc 3e37 2179 b237 a9f4 5cb7
000000d0: a303 2c39 bb9a 96b7 11fd 3039 fd36 5cb9
000000e0: b60f 41b9 b8b4 3f3b c377 58ba fb4c 4539
000000f0: f11e cd38 0eb9 0f38 4a86 02ba e42e 06b7
00000100: 5885 6db9 8e0c 0e39 824b 2bb9 934a 9d3c
00000110: 2326 47b7 a5fc df38 7956 0639 9688 fbb9
00000120: 2ec1 9ab9 dfed c336 1eec b6b8 6aaa ab37
00000130: 40b5 88b8 9909 9c37 d185 a338 af5d 9cb7
00000140: 7ebd 613c ed74 c33c 316f b0b8 89b3 4639
00000150: 3ad6 5c39 c940 aab9 d9fa 5b37 b77a aeb8
00000160: 60f0 f8b8 f9fe 01ba c19d 4937 6ef2 173a
00000170: 02f5 cab4 9dee 7c3b 6053 4ab9 15d8 31b7
00000180: 8f0f 8eb9 9be5 39b8 f38e 8c38 76bc ec39
00000190: 2834 f738 f3f6 a937 981e a8b9 4f4e 20ba
000001a0: 5cff 9bb8 40e3 73b8 0796 ed37 fa42 c137
000001b0: f73c cbb8 770c 7938 8497 01b5 1f0f ba38
000001c0: c6d8 5db6 d944 3db7 9824 de39 8847 1a38
000001d0: bf1a 46b9 759a 0eb9 976f 413a 942d c6b8
000001e0: 03ed 41ba 9087 0239 de72 9537 3d93 c3b8
000001f0: e9dd 3238 e050 f5b7 7877 0d3a 8405 5db9

lin.0.weight f4 [32, 128]
-0.0032633697 -0.012802058 0.0025524956 -0.011193785 -0.019814186 0.03082038 -1.7402128e-05 -0.015021202
7.49668e-05 1.4706971e-05 0.003372602 -0.005808247 0.009995394 -0.038532894 -0.0009711581 -0.0017664586
0.016090257 -0.0018364663 0.002517593 0.01766684 -0.004025319 -0.00017574028 -0.012285762 -0.0025597312
-0.00088712596 -0.0014328262 -1.3116304e-05 -0.009293988 -0.002276931 0.0068725995 -0.009369714 -1.28572065e-05
7.632323e-05 -0.041718923 -0.00096575526 -0.0078259455 -0.0043473933 0.00026864026 -0.0067604054 0.009203833
0.015325918 -0.01934254 -0.00026988587 0.020822946 -0.005879067 -0.012916909 -0.0036116012 -0.033688314
0.0052427053 -0.03815959 -0.012811809 0.0028493255 -0.048213884 0.007971206 -0.0010573727 0.012235103
0.0024562152 0.00298215 -0.004358024 -4.49626e-05 -0.016392495 0.025590653 0.017485166 -0.0009955897
-0.0024168342 -3.3224398e-05 -0.001945622 -0.007042584 -0.0356287 -0.051244214 -0.009406682 0.020256083
-0.0041208193 -0.0024539265 0.019299503 -0.004868397 -0.0038025554 -0.05800923 -0.0009142141 -0.0071029896
-0.00526471 0.011268282 -3.8436545e-05 0.036922414 -0.01970252 -0.018576756 -3.6843816e-05 -5.9640184e-05
-0.00021862514 0.023206703 0.0027664904 0.029958667 -0.0042184438 -0.0049606175 0.01064361 0.0032574218
0.0025978065 0.026138676 0.0068961484 -0.013493771 0.0354949 -0.018641641 0.032948073 0.00405422
0.017755138 -1.5197069e-05 -0.0045729177 -0.007709741 -0.0016928855 -0.0133452 -0.0008482145 -1.213505e-05
-1.7149277e-05 -9.027972e-06 -0.0030771827 -0.0041841217 0.016191745 -0.004444602 0.017253958 -0.021672804
0.024596075 -8.475445e-06 -4.970411e-05 0.00025728776 -0.03360952 0.021334607 -0.0068333116 0.0035211763
0.0017891513 0.0068967203 -0.0045979484 0.0074556842 -0.012234013 0.016197002 -0.00019396593 0.011589034
0.00044286164 0.00076740765 -0.0041564205 -0.022304058 0.4044673 0.010827506 0.00032795648 -0.17702064
-0.018477546 0.0014501436 -0.0009937949 -0.12196676 -0.0018429434 9.955753e-06 -0.01645764 -0.008346249
0.0014468463 -0.07717799 -0.00031195174 -0.40442532 0.00025856472 0.0056903153 -0.05344696 3.556007e-05
-0.0499089 -0.009051499 -0.0002006635 0.007331371 -0.06820002 -0.00037355334 -0.012361352 -0.0005064348
-0.030664142 -0.0016110406 -0.07486833 0.54357654 0.00043989805 0.008155536 -0.0016696969 0.021670047
-0.0005235247 -0.0071394756 0.00033973873 0.038272835 -0.05288967 0.017879568 -0.00030846245 -0.052009005
-0.012497195 0.187 -0.012185055 -0.0012943032 -0.0019152826 0.034314755 -0.02541263 0.008490773
-0.080737256 -0.00059023395 -0.023207435 -0.4765565 0.0075545516 -0.013997984 0.027371053 -0.00955183
-0.0075326487 0.0004996403 0.0006180128 0.00021842524 0.0041143997 0.003266095 0.0022645143 -0.00030072994
-0.32689315 0.3924141 -0.0015106982 -0.011468029 0.009833885 -0.0019056723 -0.000482328 -0.00045491854
-0.00048161412 -0.0020982146 -0.008353314 -0.023343934 0.00073133036 -0.36123383 -0.0001462571 -0.0162162
-0.0009626279 0.014952948 -0.008477645 -0.007521687 -0.021449909 -0.0050682267 -0.0168396 0.020312632
-0.012242242 -0.0006704951 0.0007174461 -0.05336357 -0.14824551 0.007411889 -0.00012369228 -0.0004484845
-0.000546092 -0.00011654724 -0.030811911 -0.005000606 -0.0024571195 -0.0020044504 -0.004118684 0.02134361
-0.02850974 -0.0004837434 -0.0004219253 -0.0015025041 0.016958138 -0.011779227 0.0014660424 -0.0012081384
00000000: 42de 55bb b9bf 51bc c547 273b 2366 37bc
00000010: 5c51 a2bc 067b fc3c c9fa 91b7 7d1b 76bc
00000020: 7f37 9d38 f6bd 7637 df06 5d3b 1b53 bebb
00000030: b9c3 233c abd4 1dbd 5195 7eba 8488 e7ba
00000040: b7cf 833c 95b5 f0ba 34fe 243b 0dba 903c
00000050: d3e6 83bb ec46 38b9 384a 49bc 2ac1 27bb
00000060: 048e 68ba abcd bbba 190e 5cb7 d045 18bc
00000070: 9038 15bb 8b33 e13b 6e83 19bc 48b5 57b7
00000080: b90f a038 76e1 2abd bd2a 7dba 6538 00bc
00000090: 9474 8ebb 49d8 8c39 6486 ddbb accb 163c
000000a0: 8f19 7b3c 3f74 9ebc 787f 8db9 e294 aa3c
000000b0: 30a5 c0bb 71a1 53bc 9db0 6cbb c2fc 09bd
000000c0: 00cb ab3b 3b4d 1cbd 9fe8 51bc c0bb 3a3b
000000d0: ec7b 45bd a999 023c 8a97 8aba be75 483c
000000e0: 74f8 203b 2d70 433b c1cd 8ebb 3996 3cb8
000000f0: 8e49 86bc 7da3 d13c 0d3d 8f3c 727e 82ba
00000100: c063 1ebb 6d5a 0bb8 3e04 ffba 7ac5 e6bb
00000110: 66ef 11bd 74e5 51bd 7c1e 1abc 16f0 a53c
00000120: f007 87bb 0ed2 20bb fe19 9e3c 1387 9fbb
00000130: 4b34 79bb 169b 6dbd dfa7 6fba 32c0 e8bb
00000140: 9783 acbb 9a9e 383c ed36 21b8 f53b 173d
00000150: 2e67 a1bc 482e 98bc bf88 1ab8 2926 7ab8
00000160: bd3e 65b9 fc1b be3c 024e 353b e16b f53c
00000170: df3a 8abb ad8c a2bb 8962 2e3c 787a 553b
00000180: f63f 2a3b c720 d63c 16f9 e13b fa14 5dbc
00000190: 1a63 113d 5bb6 98bc 8ff4 063d 43d9 843b
000001a0: 3973 913c eaf6 7eb7 6ad8 95bb ffa1 fcbb
000001b0: d0e3 ddba d3a5 5abc b65a 5eba a597 4bb7
000001c0: cbdb 8fb7 d876 17b7 8faa 49bb f51a 89bb
000001d0: 8da4 843c 06a4 91bb 2c58 8d3c 2a8b b1bc
000001e0: b57d c93c c231 0eb7 6279 50b8 94e4 8639
000001f0: 23aa 09bd eac5 ae3c f9e9 dfbb 89c3 663b
00000200: f581 ea3a e2fd e13b 63aa 96bb d04e f43b
00000210: 2b71 48bc 93af 843c 5563 4bb9 efdf 3d3c
00000220: e22f e839 db2b 493a 9532 88bb 00b7 b6bc
00000230: 5716 cf3e da65 313c 93f1 ab39 e644 35be
00000240: 395e 97bc bf12 be3a 3942 82ba b5c9 f9bd
00000250: eb8e f1ba a207 2737 2cd2 86bc b5be 08bc
00000260: 1ba4 bd3a 7e0f 9ebd 748d a3b9 d610 cfbe
00000270: f88f 8739 d375 ba3b 33eb 5abd 5626 1538
00000280: 466d 4cbd bd4c 14bc 3369 52b9 ff3b f03b
00000290: 74ac 8bbd 7bd9 c3b9 4587 4abc 44c2 04ba
000002a0: 5e33 fbbc 8d29 d3ba 9154 99bd d527 0b3f
000002b0: 1ea2 e639 cc9e 053c bbd9 daba 6285 b13c
000002c0: 263d 09ba 43f2 e9bb f61e b239 fac3 1c3d
000002d0: d7a2 58bd 2c78 923c 21b9 a1b9 6507 55bd
000002e0: 09c1 4cbc ee7c 3f3e d3a3 47bc 9ca5 a9ba
000002f0: 380a fbba a18d 0c3d 262e d0bc e21c 0b3c
00000300: 9359 a5bd eeb9 1aba 851d bebc 37ff f3be
00000310: 2c8c f73b cd57 65bc 4239 e03c 477f 1cbc
00000320: 70d4 f6bb 4bfa 023a 2302 223a 1409 6539
00000330: 16d2 863b fb0b 563b 3f68 143b 4aab 9db9
00000340: 8a5e a7be 80ea c83e 9f02 c6ba 66e4 3bbc
00000350: 4e1e 213c c0c7 f9ba f8e0 fcb9 2282 eeb9
00000360: 2781 fcb9 3382 09bb 57dc 08bc c73b bfbc
00000370: c0b6 3f3a a4f3 b8be 975c 19b9 d6d7 84bc
00000380: dd58 7cba 36fd 743c d2e5 0abc 7c78 f6bb
00000390: b8b7 afbc 5e13 a6bb 33f3 89bc ad66 a63c
000003a0: af93 48bc 2ac4 2fba fe12 3c3a c293 5abd
000003b0: accd 17be 6edf f23b 65b3 01b9 9222 ebb9
000003c0: 9d27 0fba d36a f4b8 4369 fcbc 20dc a3bb
000003d0: a007 21bb 195d 03bb 07f6 86bb cbd8 ae3c
000003e0: 428d e9bc f19e fdb9 db35 ddb9 acef c4ba
000003f0: cbeb 8a3c a9fd 40bc 3828 c03a 665a 9eba

lin.0.bias f4 [32]
0.04016097 0.0635779 0.05252527 -0.028817207 0.015000642 -0.05471231 0.058723226 0.01728052
0.14121115 0.05192239 0.05450787 0.077092625 0.07434386 -0.054051574 -0.05888285 -0.046523266
0.026227845 0.021020014 -0.051515676 0.075638086 -0.054261122 0.04041713 -6.7495384e-06 -0.021361327
0.08224664 0.04558166 0.028467992 -0.020217402 0.03645233 0.04125729 0.05608994 -0.07910426
00000000: d47f 243d 2135 823d bd24 573d 1012 ecbc
00000010: 41c5 753c 041a 60bd c487 703d e18f 8d3c
00000020: a899 103e 92ac 543d a543 5f3d bde2 9d3d
00000030: 9841 983d 2f65 5dbd 252f 71bd 2e8f 3ebd
00000040: c7db d63c 2a32 ac3c 1a02 53bd 24e8 9a3d
00000050: e940 5ebd 6f8c 253d 187a e2b6 f3fd aebc
00000060: ed70 a83d d6b3 3a3d b535 e93c f79e a5bc
00000070: 0a4f 153d 67fd 283d 91be 653d 6a01 a2bd

lin.2.weight f4 [2, 32]
0.0078546535 0.021156128 -0.06475516 -0.015834173 -0.12698154 -0.038795363 0.051403612 -0.02651436
0.08125337 0.17148815 -0.072774656 0.08745951 0.104333125 -0.103828974 0.13936828 0.06450763
-0.12551685 -0.11855159 0.026906777 -0.0015016227 0.13414127 0.031407714 -0.00015539689 0.065565675
-0.010290589 -0.074661836 0.133692 -0.05083992 0.08792329 0.06573013 -0.012727397 0.09380447
0.008544617 0.5500213 0.011850845 0.04817261 0.098567486 0.06151961 -0.41811824 -0.08531826
-0.20143875 0.2751519 -0.2553438 -0.09049782 -0.13575535 -0.11431979 0.0936308 0.035331033
-0.20068528 0.18755932 -0.12813552 -0.41887355 0.00946533 -0.3389255 -7.642592e-06 0.047632966
-0.07563164 0.141843 0.1964089 0.1322518 0.20452267 0.09884816 -0.39297533 -0.14021428
00000000: ceb0 003c 9e4f ad3c 5a9e 84bd abb6 81bc
00000010: 7307 02be e3e7 1ebd 988c 523d a534 d9bc
00000020: 2b68 a63d 979a 2f3e e10a 95bd f91d b33d
00000030: 9bac d53d 49a4 d4bd 8fb6 0e3e 941c 843d
00000040: 7d87 00be 2dcb f2bd 9a6b dc3c 19d2 c4ba
00000050: 545c 093e 60a5 003d 09f2 22b9 4c47 863d
00000060: dc99 28bc 4ee8 98bd 8ee6 083e 853d 50bd
00000070: 2011 b43d 859d 863d 9286 50bc 8f1c c03d
00000080: b9fe 0b3c 32ce 0c3f 0c2a 423c a550 453d
00000090: c0dd c93d fdfb 7b3d 9813 d6be 57bb aebd
000000a0: f645 4ebe b6e0 8c3e 6cbc 82be ec56 b9bd
000000b0: 7303 0bbe 7e20 eabd 81c1 bf3d 46b7 103d
000000c0: 7180 4dbe 8d0f 403e f535 03be 9876 d6be
000000d0: 7914 1b3c a587 adbe af38 00b7 c91a 433d
000000e0: c3e4 9abd 4b3f 113e 6a1f 493e 046d 073e
000000f0: 646e 513e e770 ca3d 1034 c9be 5594 0fbe

lin.2.bias f4 [2]
-0.018741906 0.06869907
00000000: a088 99bc 19b2 8c3d
