Simulator/models/lane_keeper_ahead.onnx (onnx, 124681 bytes, 13 tensors)

conv.0.weight f4 [8, 1, 5, 5]
000000 a6 dd 2d be 2c 28 c9 bd 82 ba 2d 3e 61 6a 4c 3e
       -0.16979083 -0.09822115 0.16965678 0.19962455
000010 60 8e 44 bd 4b a3 6d be c2 b5 34 3c 8e 74 0c 3d
       -0.047987342 -0.23206823 0.011029663 0.034290843
000020 1c c5 ad 3d b5 a1 dc bd d3 d9 93 be ae e5 9a 3d
       0.08484861 -0.10773031 -0.28877124 0.07563339
000030 be 5d 93 3c 80 69 63 3d 7e 13 71 be 92 a2 9d bd
       0.017989036 0.055520535 -0.23542592 -0.076970235
000040 1d 02 b0 3d af 90 bd bc cf fe df 3b ad 7c 80 be
       0.08594153 -0.02314028 0.0068357955 -0.2509512
000050 a3 e1 2f 3d 12 9a 3b 3e 9f 95 2c 3e f5 4c 8e bd
       0.042939793 0.18320492 0.16853951 -0.06948272
000060 92 48 63 be 24 14 fc 3d 36 fc a7 3e 8a 07 41 3e
       -0.22195652 0.12308529 0.3280961 0.18850532
000070 32 c3 61 3d a9 c0 06 3e 4a d7 6e 3e 10 4e a2 3e
       0.055117793 0.13159432 0.23324314 0.31700182
000080 96 9a 0a 3e 92 e3 81 bd cb e4 02 b8 92 a0 0c 3e
       0.13535532 -0.06342234 -3.1207495e-05 0.13733128
000090 18 47 60 3e 41 ce ca 3d ea 74 20 be 53 c0 ff bd
       0.2190212 0.09902621 -0.15669599 -0.12487855
0000a0 59 75 71 3d c9 7a fe 3d 79 08 06 3d ca c0 9d bd
       0.058949802 0.12425763 0.032722924 -0.07702787
0000b0 a6 ae 54 be ab 3a 7c bd 28 71 9c bb c1 75 82 bd
       -0.20769748 -0.061579388 -0.0047742315 -0.06370116
0000c0 70 e6 07 be a3 11 88 be 45 40 3d be ad fd 58 be
       -0.13271499 -0.26575956 -0.18481548 -0.2119052
0000d0 7c b6 7d be 3d 20 1b be 69 1f 51 3e 35 db 30 be
       -0.24776644 -0.15149017 0.20422138 -0.17271121
0000e0 de 1f 98 bd 27 9d 0d 3d 3a 79 69 3e 73 b8 45 3e
       -0.07427953 0.0345737 0.2280015 0.19308643
0000f0 ad a9 cd 3d 84 d9 1f 3e d4 44 4f 3e 45 dc 99 bd
       0.10042129 0.1561032 0.202411 -0.07512716
000100 fb 8b 80 bc 8e 1e 1b 3e eb f6 c9 3d e4 76 bf bd
       -0.015691748 0.15148374 0.09861549 -0.093488485
000110 dd 6d 32 be 64 d8 41 bd 39 3e 29 bb 0f 41 5c be
       -0.17424722 -0.047325507 -0.002582444 -0.21509193
000120 9c 35 39 be 0a c2 0c be 6d 55 11 be 6c c5 2c 3c
       -0.18086857 -0.13745895 -0.14192744 0.010545116
000130 fa ad f2 bd 9d c4 89 37 a5 1f 7c 3e 3b f7 58 3e
       -0.1184959 1.6423228e-05 0.24621446 0.21188061
000140 5e 3e 37 3c df 3f 0a be b5 74 24 be 40 4e 9f 3d
       0.011184303 -0.13500927 -0.16060145 0.07778597
000150 f4 df cb 3d 4c 55 7e bd fb 96 da bc 88 90 b9 be
       0.09954825 -0.062093064 -0.026683321 -0.3624308
000160 2d ee 87 3d 9d 4c 19 3e 85 88 ad bd 4b 60 91 3d
       0.06637225 0.14970632 -0.08473305 0.070984446
000170 cf 39 7b be 50 5c b7 bd 01 c0 5e 3e e9 68 9a bd
       -0.24533771 -0.08953154 0.21752931 -0.07539541
000180 8b 58 2c 3c 4f c0 2f be 06 8d a1 be f7 ca 4c 3e
       0.010519157 -0.17163204 -0.31552905 0.199993
000190 4b 68 64 3c aa b4 c6 3d c9 08 87 be 61 de 42 bd
       0.013940881 0.09702428 -0.2637389 -0.04757536
0001a0 14 f6 8f 3d 3d 9e fd 3d a4 0f 70 bc f5 11 90 be
       0.070293576 0.12383697 -0.0146521665 -0.281387
0001b0 cc 1e 0f 3e 9f 82 c6 b9 59 2a 58 3e a1 ac 73 be
       0.13976592 -0.00037862823 0.21109904 -0.23796321
0001c0 47 ae d9 bd 81 c6 28 3e cc ee 88 bd cd 0a c7 3d
       -0.10628944 0.16481973 -0.06686172 0.09718857
0001d0 f8 82 81 be 78 77 00 3e 47 9b 84 3d 30 d6 1f bd
       -0.25295234 0.12545574 0.06474929 -0.039022624
0001e0 b8 b2 c8 bd d4 0f 2a be d4 c1 ca 3d 53 6c 8b 3b
       -0.09799713 -0.166076 0.09900251 0.0042548566
0001f0 de fe 21 bd fe e2 e2 bd d2 1b 59 be 58 ba 2b bc
       -0.0395497 -0.110784516 -0.21202019 -0.0104814395
000200 77 cd 84 3e bf 26 0a 3e cb e0 55 be cc 68 b9 bc
       0.25938007 0.13491343 -0.20886533 -0.022632979
000210 43 cb 51 3e ad 27 fc bd 32 86 8b 3d 1b 06 3f be
       0.20487694 -0.12312255 0.06812705 -0.18654673
000220 10 7c 93 3e ac d1 4a be e6 3f bb 3d 79 a9 19 be
       0.2880559 -0.19806546 0.09143047 -0.15006055
000230 e5 31 58 3e 7a 75 bb bd 81 14 4a bb fa 42 4d 3d
       0.21112783 -0.09153266 -0.0030834975 0.050112702
000240 31 c6 4e be 01 2f 2b 3e 9e 53 06 3b e8 17 87 3d
       -0.20192792 0.1671715 0.0020496617 0.06596357
000250 8b 3c 6a be 70 b0 af bd 10 e0 f3 3d 30 bb 32 3e
       -0.22874658 -0.08578575 0.11907971 0.17454219
000260 c8 e0 1f 3d 43 2f 3e be b2 40 a3 bd 0a cb 0e 3e
       0.039032727 -0.18572716 -0.07971324 0.13944641
000270 1b 1d fc bd f1 2b 9f be 79 27 6d be c7 e2 ee 3d
       -0.12310239 -0.31088212 -0.23159589 0.11664348
000280 12 8a a8 bd 61 0b 8c be 9a aa 58 be df 4e 27 3d
       -0.0822946 -0.2735243 -0.2115883 0.0408467
000290 db f1 25 3e 65 b4 c7 bd 0d 2b b1 bd 8e d5 fb 3b
       0.16205542 -0.097512044 -0.086507894 0.00768537
0002a0 ae 24 e6 3d db 3f 76 3d 2d 49 33 bc 0c 1e 8c 3c
       0.11237465 0.06011949 -0.010942739 0.017104171
0002b0 e8 fd c8 3d da d8 06 3e 1e d9 b5 3d c3 ea ee bc
       0.09814054 0.1316866 0.088793024 -0.029164677
0002c0 de a8 93 be 2f 2c 69 3d 74 8b 29 3e 48 71 31 3d
       -0.28839773 0.056926902 0.16557103 0.043320924
0002d0 1c 18 1a 3e 19 77 84 be a9 e5 7f be cf f7 40 bd
       0.1504826 -0.25872114 -0.24989952 -0.04711133
0002e0 de 7a a4 3d 5b bb 24 3e 49 af a4 bd 20 01 44 be
       0.080312476 0.16087095 -0.080412455 -0.19141054
0002f0 95 bb e6 bc 0b fa 85 bd 7d 6c 36 3e d6 6e 7c 3d
       -0.028165618 -0.065418325 0.17814822 0.06162914
000300 4f c1 57 be d9 bb 4e bc 1d 86 29 bd 30 f5 52 3d
       -0.21069835 -0.012618029 -0.041387666 0.05150336
000310 db 7f 5e 3e f3 34 23 3b 7d 9a 6c bd 43 83 ea 3c
       0.2172846 0.0024903386 -0.05776452 0.028627044

conv.0.bias f4 [8]
000000 ca 3b 93 be 2c 6f 3c c0 a3 df d9 bf 8b 7a 9d be
       -0.28756553 -2.9442854 -1.7021374 -0.30757555
000010 8f 19 1e bf ee 25 b5 bf c2 7c 0f 3f 1f 8a 64 3d
       -0.6175775 -1.41522 0.5604974 0.055795785

conv.4.weight f4 [8]
000000 dd 26 3d 3f d2 42 31 3f 67 39 48 3f 16 ea 45 3f
       0.73887426 0.69242585 0.7821259 0.7731031
000010 5e 1e 20 3f 03 8a 2a 3f 1b 49 29 3f 07 5e 3c 3f
       0.62546337 0.6661684 0.66127175 0.73580974

conv.4.bias f4 [8]
000000 c4 11 bf bc 33 38 c6 3e 43 97 bd bc a3 75 ad 3d
       -0.023323901 0.38714752 -0.023143416 0.08469703
000010 02 0c 80 bd 9b 27 60 be 86 23 8e 3c 92 b4 82 bc
       -0.0625229 -0.21890108 0.017350923 -0.015955243

conv.4.running_mean f4 [8]
000000 0f ac 52 40 da be cc 42 33 5a 82 40 29 f9 47 41
       3.2917516 102.37276 4.0735106 12.49833
000010 48 e7 a4 40 b5 42 05 41 ce 7e 20 41 6b d9 10 41
       5.1532326 8.328786 10.030958 9.053081

conv.4.running_var f4 [8]
000000 6a 9f 15 43 5f d9 ad 45 db d4 5f 43 dc f3 2e 44
       149.62271 5563.1714 223.83147 699.8103
000010 78 f1 0c 43 6e f7 94 43 40 8c b6 43 da 65 a4 43
       140.94324 297.93304 365.0957 328.79572

conv.6.weight f4 [8, 8, 5, 5]
000000 6e ae 36 bd d9 74 e1 bc e6 f7 99 bc 76 ec 93 bc
       -0.044599943 -0.027521538 -0.018794965 -0.01805709
000010 cf 73 1f 3c a7 7a 47 bd 47 15 26 bd 76 3c 91 bd
       0.009732201 -0.048700955 -0.040547635 -0.0709161
000020 f4 54 d3 3c 5d 3e a9 3d a9 33 a8 bd b7 61 43 bd
       0.025797345 0.08263848 -0.082129784 -0.04770061
000030 2e a8 81 3b e1 e5 f6 bc 5c 45 04 bd f1 d8 d0 bd
       0.003956816 -0.030138912 -0.03229271 -0.10197628
000040 2a 94 3d bd 78 12 5d bc cf 25 9a 3c e4 24 ed bd
       -0.04628388 -0.013493173 0.018816857 -0.11579302
000050 6b 36 66 bd 4b 48 7b 3b 5e 2e 11 bd 39 b9 ed bd
       -0.05620424 0.003834265 -0.03544461 -0.11607594
000060 8d 82 6a bd 9a 06 2d bd 87 7a 32 bc 0e 14 57 bc
       -0.05725341 -0.042242624 -0.010893471 -0.01312734
000070 52 41 ee bc 27 e9 e2 bc 78 66 94 3c fd 0f 4b 3d
       -0.029083882 -0.027699066 0.018115267 0.049575794
000080 79 15 3c 3c 64 79 14 bd a1 99 21 bd 8e 23 89 3d
       0.011479729 -0.03624858 -0.039453153 0.06696235
000090 d0 a7 55 3d ee 0d 85 3c e7 39 e5 bc 1c 7f 27 3c
       0.05216199 0.016241994 -0.027981712 0.010223176
0000a0 2c c6 a8 3d 55 ac 49 3d 81 5a 21 bc 6e d5 da bc
       0.08240923 0.049236614 -0.009848238 -0.0267131
0000b0 2d 08 98 3c 6b a2 0c 3d ce c2 95 3c 74 e1 b1 3c
       0.018558586 0.03433458 0.018281367 0.02171395
0000c0 9f 61 29 3d bd 93 a7 3c da b4 49 3e 6f 30 91 3c
       0.041352864 0.02045619 0.19697896 0.01772329
0000d0 61 94 e4 bc f0 34 c7 bc a7 7a 78 bd 5a 7d 37 3e
       -0.027902784 -0.024317235 -0.060663845 0.17918912
0000e0 3e 93 45 3d ce 75 00 bd bc 22 d0 bd b6 7e 9b bd
       0.048236124 -0.031362347 -0.10162875 -0.075925276
0000f0 38 fa 24 3e 73 25 50 bd 56 44 c7 bb 61 19 75 bd
       0.16111076 -0.050816964 -0.0060811443 -0.059838656
000100 42 bd c9 bd 1c 5a d0 3d 71 60 43 bd 40 56 e7 3b
       -0.09850551 0.10173437 -0.047699396 0.0070598423
000110 bb 0c e3 bc fc d0 db bc c1 c3 0d bc 8b 90 45 bc
       -0.027716031 -0.02683305 -0.008652628 -0.0120583875
000120 af 74 fc bc 5f 98 9a bc da 85 0d 3c ee 11 01 be
       -0.030817358 -0.018871484 0.00863787 -0.12604496
000130 db 4a 49 bd d1 04 de bd f6 e7 4f bd 64 5c b8 bd
       -0.049143653 -0.108407624 -0.050758325 -0.09001997
000140 fa 40 37 be 0c 27 4f bd a9 99 6c bd c3 fc 30 bd
       -0.1789588 -0.050574347 -0.05776373 -0.043209802
000150 6e 4d 68 bd 56 2c 15 be a2 71 62 bc e9 2b 11 3d
       -0.056714468 -0.14567694 -0.0138210375 0.035442267
000160 ad f4 3d bd 58 df 6d bd 2a 1c 05 bd 46 83 ba bc
       -0.04637592 -0.058074325 -0.032497562 -0.022767674
000170 1b 7d c5 3c 5f 71 1e 3d 7e ee d7 ba bf c7 25 3c
       0.024107506 0.038682338 -0.0016474274 0.010118424
000180 48 ac f9 3b 3c df 8f bc 84 4a 7e 3d ff 7d 2d 3d
       0.0076194145 -0.017562501 0.062082782 0.042356487
000190 13 f5 1b bd 63 8f 05 3b fd 23 63 bc 9b 9b 82 3c
       -0.038075518 0.0020379655 -0.013863561 0.01594334
0001a0 69 0a 31 3d 95 52 44 bd 49 69 e2 bc 0b 10 a0 bc
       0.04322282 -0.04793032 -0.027638094 -0.0195389
0001b0 2d a7 8a 3d 8a e2 44 3d 60 7c 8c bd d7 27 8c bd
       0.067701675 0.048067607 -0.0685966 -0.06843536
0001c0 c1 c4 a7 3b 33 f8 de 3c 74 ea 6b 3d 91 69 13 3b
       0.0051198904 0.02721796 0.05759664 0.0022493342
0001d0 93 3a 51 bc d2 f4 65 3d 09 2f 1c bc c8 8c 1c bc
       -0.012770313 0.056141682 -0.009532698 -0.009555049
0001e0 bb 88 ff bc 9d d0 98 3d c9 16 e0 3d 38 4e 91 3d
       -0.031193128 0.07461665 0.10941846 0.07094997
0001f0 9d 07 62 bc 5f dd db 3c c1 11 eb 3c a9 a1 91 3d
       -0.01379576 0.026838956 0.02869499 0.07110912
000200 15 64 6b 3d 7b 44 22 bd 62 24 b0 3d 78 7a 90 3d
       0.057468493 -0.03961609 0.086006895 0.07054609
000210 ef 1f 4e 3c 01 2a 0e 3c bf 03 de 3d 12 90 e3 3d
       0.012580856 0.008677007 0.10840558 0.111114636
000220 2e c3 69 3d 40 fe b3 3c b6 5a 5d 3d c3 45 b1 3d
       0.057070903 0.021971822 0.054041587 0.08655884
000230 85 10 5f 3d 8b d7 75 3c af c6 8d 3d fb 0c 66 3d
       0.054459114 0.015005003 0.069226615 0.056164723
000240 9c 96 4e 3d 9e 88 cb 3c 16 33 0b 3d cb 86 96 3d
       0.0504366 0.024845418 0.033984266 0.073499285
000250 de 49 99 3d ad a1 cf 3d 48 fb 7c 3d 21 15 94 3d
       0.07484792 0.10138259 0.061763078 0.072305925
000260 62 9d 01 3d 39 de 9d 3c f7 ae 48 3a 40 a9 c4 3d
       0.031644233 0.019271003 0.00076554663 0.096025944
000270 2b 14 e4 3c ec 09 93 3c 9e cd da bb 52 71 f8 3c
       0.027841648 0.017949067 -0.0066773435 0.030327473
000280 ea ae 83 3d bd 7d 8b 3c 1e d3 e5 3b 2a 90 55 3b
       0.064298466 0.01702773 0.0070136925 0.003258715
000290 27 99 55 3b 90 f4 07 3e 64 fb 17 3d 25 9b 69 bd
       0.0032592507 0.13276887 0.03710498 -0.057032723
0002a0 7c 56 f6 bc ef 7d b2 bb 8a 9a 71 3d d6 a9 e1 bb
       -0.030070536 -0.0054471414 0.05898527 -0.006886701
0002b0 77 61 fa 3a dc d8 84 bd f9 21 72 bd f7 cb 8a bd
       0.0019102533 -0.06486675 -0.05911443 -0.067771845
0002c0 5f 74 a0 bd 05 94 5d 3c da 5c 5f 3c 88 ef 78 bd
       -0.07834696 0.01352406 0.013632977 -0.06077531
0002d0 42 be ec bd 4e a0 cb bc f4 f9 cb ba 37 34 8e 3d
       -0.11559726 -0.024856713 -0.0015562163 0.06943553
0002e0 43 78 88 3d 93 d5 d7 bd c3 f8 94 3c 83 80 0d 3d
       0.06663563 -0.10538783 0.018185025 0.034546386
0002f0 fd e1 35 3b 16 10 1a 3d b5 dc 84 bd 92 76 00 bd
       0.0027753108 0.037612997 -0.06487409 -0.031363077
000300 ef b7 1c 3d 8f c2 a1 3d ab 2e 07 bd 9b 8b 1d bd
       0.03826135 0.07898437 -0.03300349 -0.038463216
000310 98 2e 5a bc 85 20 70 bd 57 a3 ef 3c 3f a3 e0 3c
       -0.013316773 -0.058624763 0.029252691 0.027421592
000320 cd 71 6a bc 8f e6 fd bb 95 b2 33 3c 7a 86 e8 3c
       -0.014309359 -0.007748432 0.01096787 0.028384436
000330 48 d4 05 3d be ff 0c bd 79 51 84 3c 7c 38 7e bd
       0.03267315 -0.034423582 0.01615213 -0.062065586
000340 eb 75 93 3b 05 b7 5a 3d 1b 5f 0a bd dd 26 f5 3c
       0.004500141 0.053397197 -0.033782106 0.029925758
000350 19 d4 86 bd bb cd 5d bd 48 84 e2 bc a2 8f f6 bc
       -0.06583423 -0.054151278 -0.027650967 -0.030097786
000360 78 05 24 bd 3f a0 c6 bd 48 95 ad bd ac 97 be bc
       -0.040044278 -0.09698533 -0.08475739 -0.023265682
000370 c2 03 f0 bc 0d 76 b4 bd 3e 53 9a bd 83 f1 e4 bd
       -0.029298667 -0.08811579 -0.075354084 -0.11178877
000380 46 90 a1 bd 6b 78 c1 3d 17 bb 4d 3d 9a a8 c4 bd
       -0.07888846 0.09446796 0.05022725 -0.09602471
000390 8b 72 23 be c2 0e 1e be f4 38 b2 3c 4c 24 a9 3d
       -0.15961663 -0.15435317 0.021755673 0.08258876
0003a0 0c 64 3f bd 34 6b d8 bd 33 fc 03 be 6b e3 cf bd
       -0.04672627 -0.105673224 -0.12889175 -0.101507984
0003b0 07 39 41 3d 7d fa 13 3d 5f a8 29 bd 12 71 b1 bd
       0.047173526 0.036127556 -0.041420337 -0.086641446
0003c0 37 57 48 be 3a c3 04 bd c7 91 16 3d 7e 87 96 bb
       -0.1956452 -0.032412745 0.036760118 -0.0045937886
0003d0 f5 79 97 bd 47 f9 4f be f9 b1 29 be 07 e3 2f bd
       -0.07396308 -0.20309936 -0.16571797 -0.04294112
0003e0 ea 3c 8d 3b c9 db c7 bc a2 be e2 bc 81 0d 82 bc
       0.00431024 -0.024396794 -0.027678791 -0.01587558
0003f0 48 1e c0 bd a9 7a 49 bd b4 78 b9 bd 61 4c 84 bd
       -0.09380776 -0.049189243 -0.090562254 -0.064598806

conv.6.bias f4 [8]
000000 3c b0 cd bc b8 bd 99 be 43 36 3a bc 80 2c 8d be
       -0.02510845 -0.30027556 -0.011365476 -0.27573013
000010 c3 31 93 be a4 8c 78 be 8f ee ed be 3b 47 80 be
       -0.28748903 -0.242724 -0.46471068 -0.25054345

conv.11.weight f4 [64, 8, 5, 5]
000000 9f aa cb bd 01 40 e3 3a 73 15 24 be 87 c2 d5 3b
       -0.09944653 0.00173378 -0.16023807 0.0065234336
000010 b6 aa b8 3d b9 10 3c 3c 41 e7 96 3b a4 65 8f bc
       0.090169355 0.011478596 0.0046052043 -0.01750452
000020 05 38 b4 bd f9 5b 67 bc 42 ad 0b 3d 30 c1 d5 3d
       -0.087997474 -0.014121049 0.03410078 0.10437238
000030 1d 1a 4f bb 40 2a d4 bd 35 55 6a bd b2 4c 8c bc
       -0.0031601258 -0.10359621 -0.057210166 -0.017126415
000040 21 86 ce 3d e5 09 50 bd 6b d9 af 3c 5e d7 14 bd
       0.10084177 -0.050790686 0.021465978 -0.036338203
000050 73 5f 44 be e1 ae b4 bd 40 b1 f0 bd 75 d7 93 bd
       -0.19177036 -0.08822418 -0.11752558 -0.072188295
000060 82 d6 0e 3e bb 09 b4 bd 4e 80 53 bc 13 b1 f0 bd
       0.13949016 -0.087909184 -0.012909008 -0.11752524
000070 45 fa b4 bd 05 27 41 bd 7b 01 d3 bc 33 e0 8e bd
       -0.088367976 -0.047156353 -0.025757542 -0.06976356
000080 bd c1 02 be a0 30 9c bd 57 ff 73 bd 33 e4 af bc
       -0.12769218 -0.07626462 -0.059569683 -0.021471119
000090 c9 9a 97 bd ec ea b1 3d 18 18 09 bd d2 da 2c bc
       -0.0740257 0.08687386 -0.033470243 -0.010550218
0000a0 68 11 48 3d b7 cb 07 bd 45 4f f0 bd 0e 2a 6a 3d
       0.048844725 -0.033153262 -0.117338695 0.057169013
0000b0 3e 54 17 bd b6 a4 14 3e 41 01 00 3e 20 16 fe bc
       -0.036945574 0.14515957 0.12500478 -0.03101641
0000c0 14 07 2c 3b 12 a4 69 3c 0a 96 27 3c 33 6f 87 3d
       0.0026249336 0.014260309 0.010228643 0.066130064
0000d0 3b e9 18 be 25 17 39 bc 6e 5f 53 be 7b 10 ef 3d
       -0.1493272 -0.011297022 -0.20641872 0.11673065
0000e0 94 44 4d be 24 82 6c bd 60 c4 df bd 91 4d 0a be
       -0.20045692 -0.0577413 -0.109261274 -0.13506152
0000f0 30 5a 1d be f7 a1 f1 bb e2 cf 10 bd 04 9b 89 3c
       -0.15366435 -0.007374044 -0.035354502 0.01679755
000100 9a 98 f3 bd 2d a0 07 be 2d 0a 91 bd 45 ef 17 bd
       -0.11894341 -0.13244696 -0.07082019 -0.03709342
000110 9f c1 87 bd 27 52 b3 bd 53 23 1d be 23 27 bb bd
       -0.06628727 -0.08755904 -0.15345506 -0.09138324
000120 cb 43 42 bd 06 69 99 bd 2a c7 07 bc 2f 8b 88 bc
       -0.047427934 -0.07490735 -0.0082872305 -0.01666793
000130 c8 6a cd bd 4d fe 54 bd 5e f1 5d bd 59 1e 61 bd
       -0.100301325 -0.052000333 -0.054185264 -0.054960582
000140 0a a6 29 bd d7 59 5b bd d1 c4 ce bc df a4 03 bd
       -0.041418113 -0.053552475 -0.025240334 -0.032139655
000150 0b d2 81 bd 4a 67 7f bc 3b 54 9c bd 3d 7a e4 bd
       -0.06338891 -0.015588591 -0.07633253 -0.111561276
000160 8f a5 09 bc f3 6b 04 be be f5 08 be 18 3b b9 bd
       -0.008401289 -0.12931804 -0.13374993 -0.09044474
000170 bb 45 b6 bc 21 82 35 3c d3 70 8a bd 76 b2 1b bd
       -0.022250047 0.011078388 -0.06759801 -0.03801199
000180 37 6c ec bd 27 6b 28 bc 9b 1b f5 3c 2f af 2c bd
       -0.11544078 -0.010279453 0.02992039 -0.042159256
000190 dc 07 30 3c a3 82 1f be d6 81 e8 bb 2e fc 27 be
       0.010744061 -0.15577178 -0.007095556 -0.16404793
0001a0 50 4d a6 bc d8 23 c6 bc 89 18 d0 bd fc 5f 2f be
       -0.020300537 -0.024187014 -0.1016093 -0.17126459
0001b0 5a 3d 97 bd 21 76 55 3d b9 c4 9e bb 79 1f 90 bc
       -0.07384749 0.05211461 -0.0048452285 -0.017593132
0001c0 2b 96 86 bd fb c9 9c bd 77 7a 0e bd 96 b2 ac bd
       -0.06571611 -0.07655712 -0.03478476 -0.084325
0001d0 2c 68 8a bc 35 01 93 bd c9 5a 30 bd 18 3a ac bc
       -0.016895376 -0.071779646 -0.04305533 -0.021023795
0001e0 75 d7 26 3d 1e 6f 72 bd 76 bd a0 bd 08 e9 e9 bd
       0.04073282 -0.059188 -0.07848637 -0.114214
0001f0 c5 dd 0c be f6 fa 3d 3a de 82 2c bb b2 0e 87 3c
       -0.13756473 0.0007247174 -0.002632312 0.0164865
000200 e9 75 a7 bc b3 1d 87 bd c6 b5 1d 3c 06 d8 71 bd
       -0.020441966 -0.065974616 0.009625858 -0.059043907
000210 5b fb 90 bd 87 3c cf 3c 9b cc 0b bb 65 41 18 bd
       -0.07079192 0.025297416 -0.002133167 -0.03717174
000220 8d 24 f8 bb 3c 39 69 bd 99 18 b1 bd 10 18 79 bd
       -0.0075727166 -0.05693935 -0.0864727 -0.060813963
000230 8a e2 04 be c5 f2 0c bd 5c 85 1e 3d 83 6b 4d 3c
       -0.12977043 -0.03441121 0.0387014 0.01253784
000240 ae c7 95 3c 89 e8 39 3c 0a c4 60 bd 63 e4 d2 3b
       0.018283691 0.011346945 -0.054874457 0.006435917
000250 cd 97 9e bc e9 9a 57 bd d2 30 9b bc b1 b7 78 bd
       -0.019359494 -0.05263797 -0.018944178 -0.060722057
000260 6f 8e cc bd 56 f5 a6 bd 4c dc 03 be 7a f1 bf 3d
       -0.099881046 -0.08152263 -0.12877005 0.0937223
000270 bf c9 43 3c 61 a1 20 3d 3a ec 2b bb af 97 d3 bd
       0.0119499555 0.039216403 -0.0026233331 -0.10331666
000280 a6 75 8c be 97 57 b5 bc 98 5e 26 bd 82 9a 1f be
       -0.2743351 -0.022136493 -0.040617555 -0.15586284
000290 2d aa 06 be 68 71 be 3d 51 35 b6 3c 97 7b fd bd
       -0.13150854 0.09298974 0.02224222 -0.123770885
0002a0 41 3c 91 3c b4 46 94 bc ff 55 37 bc e3 c5 b7 bd
       0.017728927 -0.01810012 -0.011189937 -0.08973291
0002b0 81 36 10 bc 9b c8 7c bd 79 18 bd b7 fd 14 22 bd
       -0.008802057 -0.06171475 -2.2541952e-05 -0.039570797
0002c0 42 87 81 bd 8a 72 2d be a5 96 f8 bd ec 85 27 be
       -0.063246265 -0.16938224 -0.12138108 -0.16359681
0002d0 44 06 30 bc 0e 6d d3 3c 8a 65 00 bd fc 0f be bc
       -0.010743681 0.025808837 -0.031346835 -0.023200981
0002e0 bb 25 a7 bd 16 62 3c be 60 f6 cf bc fc e2 de bc
       -0.081614934 -0.18396792 -0.025386035 -0.027207844
0002f0 96 64 2c bd ae d2 14 3d 7f 2f d8 bd 1e 37 a5 3c
       -0.042088114 0.036333732 -0.10555934 0.020167883
000300 e4 66 87 ba 30 1f fa 3c 1e 20 88 bd 7c 68 04 3e
       -0.0010330346 0.03053245 -0.06646751 0.12930483
000310 fa 5f 89 bd 09 ae 3b bd 79 40 09 bd 62 4e 9c bd
       -0.06707759 -0.04582027 -0.03350875 -0.07632138
000320 18 25 71 3d 4a b6 f9 bc 68 65 12 3d 6a 00 df 3d
       0.058873266 -0.03048243 0.03574124 0.10888751
000330 4f 32 8b 3d 2c 9c 95 3d 91 9c f6 3d 82 15 6f 3d
       0.06796705 0.07305178 0.120415814 0.05837012
000340 dc 66 28 3d fd 8d 4f bb 34 3f 01 3e 62 61 d9 3d
       0.04111372 -0.0031670325 0.12621766 0.106142774
000350 47 61 b0 3d 1d 27 b7 3d 54 d1 48 bc aa f0 40 3e
       0.08612304 0.08943007 -0.012256939 0.18841806
000360 47 38 58 3d e2 d8 b4 3d 12 57 6e 3b f8 b0 dc bc
       0.052788045 0.088304296 0.0036367816 -0.026939854
000370 00 b5 43 3e 80 66 05 3e 15 39 9b 3d a2 22 b0 3d
       0.19112015 0.13027382 0.07579247 0.08600356
000380 cf e2 71 3d 81 cd 60 3d 04 e4 dd 3d 50 e8 21 39
       0.059054192 0.054883484 0.10834506 0.000154407
000390 00 a5 3c bb 8e 5a 26 bd 59 cd e2 bc 19 64 ff 3d
       -0.002878487 -0.040613703 -0.027685808 0.12470264
0003a0 3c ce 87 3d f9 86 2f 3b 86 23 db bc ab a5 df ba
       0.06631133 0.002678333 -0.026750337 -0.0017062923
0003b0 87 d8 07 3d 31 ad 06 3c 54 7c e3 bc 65 a9 b4 3c
       0.03316548 0.008220003 -0.027769245 0.02205343
0003c0 1c 02 d8 bd cf 18 22 3d 4c e2 68 3c 8b 2c 10 3d
       -0.10547277 0.03957444 0.01421411 0.03519873
0003d0 9f fd e4 3c 60 42 94 bd 61 39 c0 bc 94 d2 80 3c
       0.027952967 -0.072392225 -0.02346486 0.015725411
0003e0 2b 51 8a 3c 6a ce 3c 3d 91 01 d0 bd 92 79 5b bd
       0.016884407 0.04609529 -0.10156549 -0.053582735
0003f0 6f 32 52 3d fd 3d 5b 3b 2a cd 20 bc 38 b2 32 bd
       0.05131763 0.0033453696 -0.00981454 -0.043626994

conv.11.bias f4 [64]
000000 73 59 36 3b d2 58 c8 3e 3f 63 1d be 55 1d fa 3d
       0.0027824312 0.39130265 -0.1536989 0.12212626
000010 e5 85 15 3e d0 ea 5f bd cb 4e f7 bc d0 73 52 bc
       0.14601858 -0.054667294 -0.030188939 -0.012844995
000020 4f 69 f1 be be 1a 00 3e 10 ab 29 bd 44 d0 c4 be
       -0.47150657 0.12510201 -0.041422904 -0.38440144
000030 e8 ac ec bd d4 29 3c 3e e0 59 01 be be fb 54 be
       -0.11556417 0.18375331 -0.12631941 -0.20799157
000040 0f df ed bd 15 70 7f be c2 ad 50 3d db a9 5d 3e
       -0.11614811 -0.249451 0.05094696 0.21646826
000050 83 24 21 3f 92 13 53 be fe fb 9b bd 68 44 0c 3d
       0.6294634 -0.20612934 -0.07616423 0.034244925
000060 d1 7c 28 3e c4 a5 8a be a8 92 af 3c b8 cf 0e be
       0.16453864 -0.27079594 0.021432236 -0.13946426
000070 da 29 d2 bd 60 36 79 bc 90 c9 af 3e 28 47 a4 3d
       -0.10261889 -0.015210718 0.34333467 0.080213845
000080 fc 8a 0e 3c bc 4e a3 bd 00 9f 48 3e 3f 5e dc 3e
       0.008700129 -0.07974002 0.19591904 0.43040654
000090 51 d5 94 bd 99 94 9e 3e 0e 4f f4 3d 0f 42 e6 3e
       -0.072672494 0.30972746 0.11929141 0.44972274
0000a0 80 80 68 bd 16 c7 6a 3e be a9 1f be 0a a5 92 3d
       -0.056763172 0.22927508 -0.15592095 0.07160385
0000b0 4a 78 8b bd a4 08 c9 bd 07 91 25 be e4 b2 31 bd
       -0.06810053 -0.09816101 -0.16168605 -0.043383494
0000c0 12 88 22 be 3b 09 8c 3d f0 d5 d8 bd 5e 00 2c be
       -0.15872219 0.06837698 -0.1058768 -0.16797015
0000d0 90 a8 73 3e 03 49 09 3f 55 a8 5c 3e a6 e5 1c bd
       0.2379477 0.5362703 0.21548589 -0.038304947
0000e0 19 03 0c 3d 6a da d7 3d fb 50 67 bf 25 34 ef 3d
       0.03418264 0.10539706 -0.9035794 0.11679868
0000f0 9f b7 bc be ac 02 4f 3d 9d b7 54 3f 97 95 cb bd
       -0.36858842 0.050539657 0.8309267 -0.099406414

lin.0.weight f4 [32, 64]
000000 32 ce 3b 3d ea 35 6a bd 53 e9 1a be 44 f2 b3 bb
       0.04585094 -0.057180323 -0.15128069 -0.005491527
000010 b7 1a 15 3e 85 d1 5b be 20 9a 4e bc 13 8a 8b bc
       0.14560972 -0.21466644 -0.012609988 -0.017033612
000020 26 b3 60 bc b5 66 1c bc bc 5f d5 bd 4e 11 54 3d
       -0.013714587 -0.009545972 -0.104186505 0.051774316
000030 60 61 88 3d cc 91 4d 3d 58 ad ce 3d ca d5 23 3d
       0.06659198 0.05018787 0.100916564 0.039998807
000040 53 97 43 3e 77 c6 3e be a2 64 53 be 91 bf 08 be
       0.19100694 -0.18630396 -0.20643857 -0.13354327
000050 ce 6e 0e 3e 63 aa 8f 3e 99 5c 37 bd ef 18 cf 3d
       0.13909456 0.28059682 -0.044766042 0.101121776
000060 60 d1 68 bd 45 5b 87 bd 65 ce 56 3d 9f 16 45 bb
       -0.0568403 -0.06609205 0.052442927 -0.0030073298
000070 20 c7 d6 bd 88 fd 83 bd fd 2e 5d 3b 15 6a 10 be
       -0.10487199 -0.064448416 0.003374993 -0.14102967
000080 fc 04 ce bc 51 89 1b 3d 79 53 37 3c af 10 7c bb
       -0.025148861 0.037972752 0.011189335 -0.0038462093
000090 46 3d 10 3e 50 62 3d bd 78 e8 0e bd 93 74 16 be
       0.14085874 -0.046236336 -0.03488967 -0.14692907
0000a0 65 67 97 bd 5e fd 71 be 7c 3a 4d 3d 6a 41 a9 3d
       -0.07392768 -0.23631808 0.050104603 0.0826443
0000b0 0d bd 37 bd ed e5 88 bd 65 fb d7 bd 9e 08 c4 3c
       -0.044858027 -0.0668448 -0.105459966 0.02392989
0000c0 a0 8b 02 be a8 a8 4f 3d db 18 45 bd 81 1f de 3c
       -0.12748575 0.050697953 -0.048119407 0.027114632
0000d0 2f 00 e3 3d 99 04 87 bd d5 6a 19 be c9 27 21 bc
       0.110840194 -0.06592674 -0.1498216 -0.009836146
0000e0 bf b2 ab 3a b0 a1 a2 bc af 7b 9f bc e6 02 be bd
       0.0013099535 -0.01985249 -0.019468157 -0.092778966
0000f0 14 99 8f bd 31 b2 1e be 33 55 41 3d a1 24 e5 bd
       -0.07011619 -0.15497662 0.047200393 -0.11188627
000100 b8 09 d2 bd 2e 9d 69 bd 42 96 10 3d 1c d6 4a bc
       -0.1025576 -0.057034664 0.035299547 -0.012380149
000110 c0 0a c3 3a 2f 7e 82 bd 36 3a 4e 3c 7a 13 8c 3d
       0.0014880523 -0.06371724 0.012587121 0.06839652
000120 d1 df 8a bd 08 6e 9a 3d 53 09 18 3d e3 fd 49 be
       -0.06780971 0.07540518 0.037118267 -0.19725756
000130 99 16 d0 bd 7b a1 bc bc 1c 7c 67 3d 63 a2 1e 3d
       -0.1016056 -0.023026219 0.056514844 0.038729083
000140 61 b6 08 bd bb 4b 28 bd 48 e5 a1 bb c3 8a 74 3c
       -0.033377055 -0.041087847 -0.0049406625 0.0149256615
000150 bb 1d bb bd cd 54 a8 bc 32 cd 0c bc 43 00 f8 bd
       -0.0913653 -0.020548249 -0.008593844 -0.12109425
000160 db bd 96 bd b1 d9 18 be 0c fd 44 bd e6 1b fc bd
       -0.07360431 -0.14926793 -0.048092887 -0.12310009
000170 29 45 f8 bc 77 84 de bd c7 87 a4 3c 50 65 4e bd
       -0.030306416 -0.108651094 0.020084275 -0.050389588
000180 27 78 85 3d 2d cd ff bb 5c d1 c9 bd cc 78 0f bd
       0.06517058 -0.0078064413 -0.09854385 -0.03502731
000190 8e d9 e6 bd 87 90 f0 bd 54 1d e5 bd 07 39 97 bd
       -0.11271964 -0.117463164 -0.111872345 -0.07383924
0001a0 e5 79 9f bd 3d c5 f1 bd bd 1d e1 bd 58 a1 ab ba
       -0.077869214 -0.11805198 -0.10992 -0.0013094349
0001b0 03 23 d7 bc 09 66 e3 bc 4e 4d db bd 25 99 9d 3a
       -0.026261812 -0.027758615 -0.10708104 0.001202379
0001c0 8a 19 38 bd 07 7a e3 3c 51 45 1a 3b 36 97 99 3d
       -0.04494623 0.027768148 0.002353985 0.07499544
0001d0 2f cc e0 bd 4a 5e 1b be f2 45 32 3d f0 f1 1d be
       -0.10976445 -0.15172687 0.043523736 -0.15424323
0001e0 1f 10 f2 bd 9d d8 0c 3d 97 92 bf bd 83 d8 61 bc
       -0.11819481 0.034386266 -0.09354132 -0.013784531
0001f0 af 2d 0d bc 14 a0 5c be 6e 34 12 be b5 26 d5 bd
       -0.008616849 -0.2154544 -0.14277813 -0.104077734
000200 4c 23 5a bd a5 87 d4 bc a0 97 8b bd 84 4f 7a bd
       -0.053256318 -0.025943587 -0.068160295 -0.06111099
000210 fb f9 6d bd 65 24 14 3e ea e2 c7 bd 3e 04 96 bd
       -0.058099728 0.14467008 -0.09760077 -0.07325028
000220 c0 8f 13 bd 28 80 80 3d 87 66 f8 3c c2 8a c4 bd
       -0.036025763 0.06274444 0.030322326 -0.095967785
000230 24 4e f4 bd e8 cd d2 3c 65 13 a1 3c 90 b5 46 be
       -0.11928967 0.02573295 0.019662568 -0.19405198
000240 f2 4c cf bd 09 de eb bd 01 bb 97 3d 1d 24 73 3c
       -0.10122098 -0.11516959 0.07408715 0.014840153
000250 05 1d 1e 3d 9a 38 02 be 07 09 1f bd 8a 5e d0 bd
       0.038601894 -0.12716904 -0.03882697 -0.10174282
000260 d5 6b 0a be 54 4b 8e bd fd 4f 2a 3d f6 e1 a6 bd
       -0.13517697 -0.069479614 0.04158019 -0.081485674
000270 44 b7 77 3d f3 e5 c1 3d b0 da 02 be 82 27 68 3c
       0.06047751 0.094676875 -0.12778735 0.014169576
000280 1f dc bf bc 83 81 0b bd 72 0a 43 be c7 0b 9d bd
       -0.023420392 -0.03405906 -0.19046953 -0.07668262
000290 3b 8a 0f be dc 57 71 3c 8b 8b 41 be 42 81 2f 3d
       -0.14017574 0.01473042 -0.18900888 0.04284788
0002a0 c2 6c 07 be 67 0f fd bd e7 8d 93 bd 21 ca f2 bc
       -0.13225082 -0.123564534 -0.072048 -0.029637398
0002b0 89 69 dc bd ee 59 82 3b b7 88 bd bc f4 d9 db bb
       -0.10762317 0.0039780056 -0.02313648 -0.0067093316
0002c0 c9 11 81 3d 8d ec 4c 3d 6a 87 29 be 10 07 3d bd
       0.063022204 0.05003028 -0.16555563 -0.046149313
0002d0 3f d3 c3 3c 0c b1 4d be 54 b4 d0 bd 2c a1 8a 3a
       0.02390444 -0.2008707 -0.10190645 0.0010576597
0002e0 f8 86 b0 bd fd 9c 17 bd 2e 06 26 3c 07 7e 80 bd
       -0.08619493 -0.03701495 0.010133309 -0.06274038
0002f0 35 ee 5f 3d cb 47 05 be 33 fa ff bd 97 a0 c9 bb
       0.05467053 -0.13015668 -0.124988936 -0.006153177
000300 b4 11 0a be 88 62 39 3a b5 fb 1a bd 6b ef 0f be
       -0.13483316 0.0007071872 -0.037837703 -0.14056174
000310 c2 ee f5 3d 18 f7 a9 3d 81 29 57 3d e4 a3 0d be
       0.1200843 0.082990825 0.052529816 -0.1383205
000320 27 3b 80 3d 68 95 42 be 3b 57 ff bb ac 79 73 be
       0.062612824 -0.19002306 -0.007792381 -0.23776883
000330 04 c2 d8 3b a7 e2 52 be 81 fa f8 3b 6f e3 63 be
       0.0066149253 -0.20594274 0.007598222 -0.22254728
000340 5d 19 cb 3d 8b 22 7d be 57 6a 1d 3e 36 d7 74 be
       0.09916947 -0.24720208 0.15372597 -0.23910221
000350 4b ae 24 be 1a 61 7d bc 11 99 9a bd 66 c4 8e be
       -0.16082112 -0.015465045 -0.07548726 -0.27884215
000360 4c 17 44 bd ad f8 10 3e 94 89 1a be 52 3a d3 3d
       -0.04787378 0.14157362 -0.15091544 0.10313858
000370 20 80 3b 3d 85 39 78 bc bf 03 19 be 7d 05 27 bd
       0.045776486 -0.0151504325 -0.14942835 -0.04077672
000380 1f 36 71 3d 40 fd 0a bb bb 3c 2b bd 62 f0 c8 3d
       0.058889505 -0.0021208078 -0.041805964 0.098114744
000390 b6 31 84 bd ec d5 c2 bd 2b 69 ef bd 82 14 26 be
       -0.06454794 -0.095134586 -0.11689981 -0.1621876
0003a0 07 6c 15 bc 5f a4 07 be c5 1b 0c be 67 c8 e0 bd
       -0.009119994 -0.13246296 -0.13682468 -0.10975724
0003b0 a7 4e c4 bb 7a 40 00 3e 7a 12 2d bc ae 88 98 bd
       -0.0059908214 0.12524596 -0.010563487 -0.074479446
0003c0 f2 f1 58 3d fd 48 ba bd fe 74 96 3c e1 f0 d8 3d
       0.052965112 -0.09095953 0.018366333 0.10592819
0003d0 10 a8 45 be 1f 2e 61 be 1f 48 43 3e ee 9f 58 bd
       -0.19302392 -0.2199025 0.19070481 -0.052886896
0003e0 c4 67 53 bd d3 8b 2c 3d 4b 52 83 bd 47 45 85 bd
       -0.05161263 0.042125534 -0.064121805 -0.06507354
0003f0 ad 4d 48 3d ad 7a 4b be a0 86 90 be 2f 00 51 bc
       0.048902202 -0.19871016 -0.2822771 -0.012756391

lin.0.bias f4 [32]
000000 c5 06 78 3e 87 c7 2e be e4 3d 2c be a9 a1 bd bd
       0.24221332 -0.17068301 -0.16820484 -0.0925935
000010 d4 9b 66 3d 5b 77 2f 3e 96 b9 5c 3d 47 d4 36 3e
       0.056300953 0.17135374 0.053887926 0.17854415
000020 19 00 73 bc 89 14 47 3e 0d 77 eb bd 68 d4 82 3e
       -0.014831566 0.19441427 -0.114973165 0.25552678
000030 da aa 38 be bd 0f fb 3d 90 ec 8d 3d d6 20 ab 3e
       -0.18033925 0.12258861 0.06929886 0.3342349
000040 9d b4 5d 3e e3 a6 60 be 96 a2 3b bf eb 6a 19 bd
       0.2165093 -0.21938662 -0.7329496 -0.03745548
000050 d4 bd b3 be 96 9e ad bd 7c 1a 4a be 7e 67 a2 be
       -0.35105765 -0.084775135 -0.19736665 -0.31719583
000060 f8 ef b2 bd e0 2a 10 bc 2d 1f b4 bd 5b 9b a1 3e
       -0.08737177 -0.008799285 -0.08795009 0.3156384
000070 6a 9d 52 be 79 2b 62 bf ce 05 5e bd 61 c0 2a be
       -0.20567861 -0.88347584 -0.054204755 -0.16674949

lin.2.weight f4 [1, 32]
000000 9e 73 00 3e c2 9b f4 3c 4a 5d 6c 3d 88 2f d7 3c
       0.12544104 0.029859427 0.057706155 0.026267782
000010 87 a6 b2 bc 03 47 eb bd 8a 7f 32 3c 26 c9 ab bd
       -0.021807922 -0.11488154 0.0108946655 -0.083879754
000020 3b 7e 95 bd aa c9 15 bd 73 65 be 3d 23 09 53 bd
       -0.07299467 -0.036569275 0.09296694 -0.051522385
000030 43 82 b0 bd 6e 67 19 3c 09 65 b7 3d 0b 97 35 3e
       -0.086185955 0.009363038 0.08954818 0.177334
000040 60 65 ed 3d af 4f b5 3c f2 b9 04 be a5 1c 60 bb
       0.11591601 0.022132723 -0.12961558 -0.003419676
000050 65 09 b0 3a 02 7d 83 bc d6 af 27 3d 97 6a 8c bd
       0.0013430534 -0.01605082 0.040939175 -0.06856268
000060 14 f9 0f b8 ee 9b cb bd 30 24 9b bb b9 41 0b be
       -3.432583e-05 -0.099418506 -0.0047345385 -0.1359929
000070 b3 cd 12 3d de 5f 3f 3e 80 ea 66 bd 5d 02 5b 3d
       0.0358407 0.18688914 -0.05637598 0.05346905
