Simulator/models/lane_keeper_ahead.pt (torch, 22072 bytes, 13 tensors)

conv.0.weight f4 [4, 1, 5, 5]
000000 80 ce ce 3b cd 79 18 3c 67 b9 c8 3c 65 a5 81 3b
       0.006311238 0.009306383 0.02450247 0.003956484
000010 41 0f 97 bc 02 68 0d 3c d7 a7 2f 3c f4 04 a0 3c
       -0.01843989 0.008630754 0.0107211685 0.019533612
000020 c1 8a 34 bd 17 7a 49 bc 68 45 96 3a 71 2c c3 3c
       -0.04407764 -0.012297175 0.0011464776 0.023824902
000030 ff 32 f9 bc 96 62 40 bd 5c b4 c6 3c c6 f4 63 3c
       -0.030419825 -0.04696902 0.024255924 0.013913339
000040 85 35 1f 3b 0b 7e 73 bd b3 f1 0b 3c aa e8 53 3c
       0.0024293375 -0.059446376 0.008541512 0.012933889
000050 7d 2c 39 3c 67 07 d9 bc 5e b9 0f bc cd d0 e5 3c
       0.011302111 -0.026492788 -0.008772222 0.028053666
000060 05 93 3e 39 48 db a3 bb 03 7e 2d bd 58 84 26 3c
       0.00018174581 -0.0050005056 -0.042356502 0.010163389
000070 89 4e c4 3c f5 83 7f 3c 90 0b e0 3c d9 2b de bc
       0.02396323 0.015595426 0.027349263 -0.027120518
000080 fb 73 77 bd b5 7b 67 3c 53 1b 1f 3c e2 58 d8 3b
       -0.060413342 0.014128615 0.009711104 0.0066023925
000090 09 9f 26 3d 4d 5a 65 bd b6 e9 03 bd cf 68 ae 3c
       0.04067901 -0.05599432 -0.032205306 0.021290211
0000a0 22 95 a4 bb f0 6b 76 3c 0c 7d 7c 3c 2d 1b 86 bd
       -0.005022661 0.015040383 0.015410673 -0.06548152
0000b0 cf 7c cd 3b d7 1c ca 3c 7c 77 62 bc 2f 88 19 3d
       0.006270982 0.024671955 -0.013822433 0.03748339
0000c0 5d bf c4 bb 9c c6 d0 bc f8 60 b3 bc 52 3a e4 bc
       -0.0060042576 -0.02548533 -0.021896824 -0.02785984
0000d0 5a eb d5 bb 1e 1a 21 3c a4 b9 3d 3a f4 d9 0e bc
       -0.0065283002 0.009832887 0.00072374404 -0.008718956
0000e0 2c 60 f6 3c 00 d8 f9 3c d8 f6 71 ba 74 a0 59 bc
       0.030075155 0.030498505 -0.0009230203 -0.013282884
0000f0 a4 ea bd 3c 43 ed 16 3a 46 5b f2 bc 16 27 f7 bc
       0.023183174 0.00057574006 -0.029584538 -0.030170005
000100 05 1c 0d bc 39 26 38 bc f0 0e db bc 0b c2 58 bc
       -0.008612637 -0.011239582 -0.026740521 -0.013229857
000110 56 a1 17 3c 27 24 95 3c 21 23 48 bc 74 bf f4 3b
       0.009254774 0.018205715 -0.012215407 0.007469112
000120 32 89 c1 3c 31 88 0d 3c 6f 02 97 bb 5b af f4 bc
       0.02362499 0.008638428 -0.0046084444 -0.029868772
000130 b0 18 e2 bc 3e 26 cc 3b 2a 88 30 bc 7e 6f 49 3c
       -0.027599663 0.0062301448 -0.010774652 0.012294648
000140 6a 7a 11 bd 4b b0 34 3c 25 77 4c ba c1 2e 85 3b
       -0.035517134 0.01102836 -0.00077997363 0.0040644114
000150 fd 32 bf 3c 15 a2 6f bc 33 25 a1 3c 0c 54 00 bd
       0.023339743 -0.014626046 0.019671058 -0.031330153
000160 cd bb 46 3d fc e7 d8 bc 6f b5 29 3c 05 e5 96 bc
       0.048518945 -0.026477806 0.010358199 -0.018419752
000170 12 f6 e1 3c e3 8f da 3b c8 c1 ff bc dd 1e 51 bc
       0.027583156 0.0066699847 -0.031220332 -0.012763706
000180 7b 3c 69 3c ba ca 9e 3c ac 6c c3 bc fc d4 84 bc
       0.014235611 0.019383777 -0.02385553 -0.01621484

conv.0.bias f4 [4]
000000 09 ee 97 bb b7 13 22 3c 74 0c 50 b9 ea 2d 55 bc
       -0.0046365303 0.009892396 -0.00019841065 -0.013011435

conv.4.weight f4 [4]
000000 47 04 b5 3e 41 71 c5 3e 23 86 b4 3e bc 48 b8 3e
       0.35354826 0.38562968 0.35258588 0.35992992

conv.4.bias f4 [4]
000000 cf 3c bb 3a 89 a3 0c bb ab df e7 3b 09 fa 40 bc
       0.001428509 -0.002145978 0.007076224 -0.011778363

conv.4.running_mean f4 [4]
000000 d6 d0 fd 3f c0 13 c3 3f 0b 5a 17 3f 5d 09 1b 3f
       1.9829357 1.5240402 0.5912177 0.6056116

conv.4.running_var f4 [4]
000000 1e 5b 23 41 34 57 15 41 48 77 26 40 d7 40 4e 40
       10.209745 9.33379 2.6010303 3.2227075

conv.6.weight f4 [4, 4, 5, 5]
000000 5f 05 d9 bc 9e 7b 83 bc 09 8b 3e bc 41 a3 cb bb
       -0.026491819 -0.016050156 -0.011629828 -0.0062145297
000010 5e 7a a1 bb db 23 ac bc b7 64 2f bc d0 ac 76 bc
       -0.0049279174 -0.021013191 -0.010705165 -0.01505585
000020 37 01 83 bc bb 4c dd bc 55 32 7d bc c4 57 31 bc
       -0.01599179 -0.027014127 -0.015453895 -0.010824148
000030 72 49 b2 bc d9 d5 0e bd 00 74 fc bb 9a 14 89 3a
       -0.021763537 -0.03487191 -0.007704258 0.001045841
000040 96 2b 24 bc 45 a0 99 bc 64 98 02 bd be 38 35 bc
       -0.010020157 -0.01875318 -0.031883612 -0.011060892
000050 49 00 b1 ba 8c 5d e5 bb f3 8b e8 bc d0 a1 a6 bb
       -0.0013504113 -0.006999677 -0.028387045 -0.0050852075
000060 00 c1 fe bb 7d 16 83 3d 6d 2d 2f 3d 13 57 66 3d
       -0.0077744722 0.06400774 0.04276793 0.056235384
000070 12 fc 4b 3d 7c 64 9d 3d c6 7e 03 3d 4c c0 11 3d
       0.04980094 0.076851815 0.032103322 0.03558378
000080 7d c3 ef 3c 9c ba 29 3d 36 19 33 3d 47 fd a0 3c
       0.02926802 0.04143773 0.043725215 0.019652022
000090 61 1a 26 3d da bb fe 3c 4b 12 c6 3c be eb 10 3d
       0.0405525 0.031095434 0.024178645 0.03538107
0000a0 46 d5 94 ba 86 8f 0a 3c 88 f4 8e 3c e9 d1 26 3b
       -0.0011355064 0.00845707 0.017450586 0.0025454706
0000b0 bd f1 a4 3c e2 62 39 b9 27 1a 2e bc 0d 23 ed 3c
       0.020134801 -0.00017679812 -0.010626352 0.028947378
0000c0 7c 70 8d 38 1f 36 f1 bb 8d 4f e6 bc 52 0f a1 bc
       6.744356e-05 -0.007361188 -0.028114105 -0.019660626
0000d0 5e 51 0e bc a0 48 33 3a 45 89 b9 3a 17 11 aa bc
       -0.008686392 0.000683913 0.0014155289 -0.020760102
0000e0 17 05 93 bc 4e be 15 bc 16 5c 3b b9 e8 52 ef bb
       -0.017946763 -0.00913961 -0.00017868014 -0.0073035844
0000f0 be dc 56 bc d7 ec 8e bb 88 fc 3d bc 2c a4 2c 3c
       -0.0131141525 -0.0043617296 -0.011595853 0.0105371885
000100 34 cb 3c 3b a6 aa 41 3b c0 ba 29 bc c8 9b 9e 3b
       0.0028807642 0.0029551177 -0.010359466 0.004840348
000110 73 79 d4 3b dc 06 88 bc a7 88 ae bb af e2 3b bb
       0.0064842044 -0.016604833 -0.005326349 -0.002866905
000120 3a 9f 4a bc cf 50 83 3c aa 54 24 3a 6a d2 81 bb
       -0.012367064 0.016029743 0.00062687194 -0.003961851
000130 0d d7 84 ba 30 52 31 3b 84 2a 34 3b b5 61 31 bb
       -0.0010134891 0.0027057044 0.0027491162 -0.0027066295
000140 07 93 09 bb 3a 3d df ba 82 ed 77 bb 64 94 0f b6
       -0.0020992176 -0.0017031797 -0.0037830775 -2.1395035e-06
000150 cb 42 2c bc 15 cc a8 bb 9b a7 df b9 44 77 b7 bb
       -0.010513972 -0.0051512816 -0.0004265875 -0.0055989344
000160 8f 7b 1d 3c 8d 52 52 bc a9 a7 42 3c db 95 67 3c
       0.009611978 -0.012837064 0.011880794 0.014134849
000170 a1 09 43 3b 82 a8 33 3b e4 fb 89 bc f0 d6 60 3d
       0.0029760378 0.002741367 -0.016843744 0.05489248
000180 40 19 1a 3c 41 f1 67 3c 82 aa 1f b9 cd 82 d8 bb
       0.009405434 0.0141566405 -0.00015226941 -0.0066073895
000190 75 36 57 3d 2f 3d 0b 3d e0 a8 41 3d 6f 7c f8 3c
       0.05254217 0.033993896 0.047280192 0.030332772
0001a0 b4 49 82 3c 68 f2 26 3d 39 dd a5 3c 2b 12 02 3d
       0.015904285 0.04075852 0.020247089 0.031755608
0001b0 e1 c5 75 3c 6c 34 23 3c b0 d8 04 3d f9 3a a0 3c
       0.015000791 0.009961229 0.03243321 0.01955937
0001c0 72 8e 07 3d c6 0d 39 3c 59 fc d5 3c 8e 56 db 3c
       0.03309483 0.011294788 0.026121305 0.02677467
0001d0 e4 fe 50 3c 7b 0a 7b 3c b8 c6 61 ba 2c 2c 3e 3c
       0.012756083 0.015322323 -0.000861268 0.011607211
0001e0 01 c2 8c 3c f1 30 63 3c be 53 a1 3c 97 20 d5 3b
       0.017182352 0.013866649 0.019693252 0.006504129
0001f0 56 61 80 3b 93 89 91 ba 3b d1 12 bc fd 6a fc bb
       0.0039178533 -0.0011103622 -0.008961017 -0.0077031837
000200 76 c4 c3 bc 69 55 26 bd 05 1b 64 bc 42 08 48 bc
       -0.02389739 -0.040608797 -0.013922458 -0.012209
000210 1a 9a 21 bc db cf d3 bc 91 45 06 bd f5 95 f5 bc
       -0.009863401 -0.02585595 -0.032781187 -0.029978732
000220 2f d9 71 bc 6d c3 0c bc 6f 93 65 bc 61 82 bc bc
       -0.014761253 -0.008591515 -0.014012202 -0.023011388
000230 29 f3 a0 bc ce 35 42 bc 44 24 91 ba d4 18 ca 3a
       -0.019647198 -0.011853648 -0.001107343 0.0015418776
000240 7f ef b9 bb 42 d1 a6 ba fd 93 2c bc 8c a8 37 3b
       -0.005674302 -0.0012727159 -0.01053333 0.0028024046
000250 16 3f c4 3b 40 fe 71 3c a1 2e 9d bc 68 bf 1b bd
       0.0059889657 0.014770091 -0.019187273 -0.038024336
000260 9e 6b cf bc 08 c5 82 bc e0 fa 2d bb 26 39 0a bd
       -0.02531987 -0.015963092 -0.0026547238 -0.033745907
000270 f0 d3 42 bd c2 33 fa bc 64 3c d2 bc 78 a3 83 bc
       -0.0475654 -0.030542258 -0.025663562 -0.016069159
000280 0a da 21 bd 31 89 39 bd a4 04 de bc 16 c1 59 bc
       -0.03951458 -0.04529685 -0.027101822 -0.013290664
000290 1c ac 0a bc 3a e3 10 bd 3b 30 d4 bc e0 6e ec bb
       -0.008463886 -0.03537295 -0.025901904 -0.007215366
0002a0 7e 62 5b bb c3 a0 7d ba e7 18 de bc e1 08 44 bc
       -0.0033475454 -0.00096751394 -0.027111484 -0.0119650075
0002b0 50 41 5d bb d1 b8 4a bc d7 71 fe 39 d7 30 75 3d
       -0.0033760853 -0.012373165 0.00048531473 0.05986103
0002c0 2c 64 5b 3d 2d 24 06 3d 45 c7 f0 3c a8 5c 6d 3d
       0.05356233 0.032749344 0.029391894 0.057949692
0002d0 8d ce 48 3d 93 1d 39 3d 4e 29 e2 3c cb 8d b6 3c
       0.049025107 0.04519422 0.027607586 0.022284409
0002e0 30 91 2f 3d 4b a7 3b 3d bf 01 eb 3c 00 5e bb 3c
       0.04286307 0.04581384 0.028687356 0.022871971
0002f0 50 39 02 3d 69 75 c7 3c 79 ab d8 3c 70 2e 7e 3c
       0.03179294 0.024347978 0.026448952 0.015514001
000300 27 26 2d bb aa df 8e 3c e6 7d 58 3c b0 a9 05 3c
       -0.0026420446 0.017440636 0.01321361 0.008158132
000310 a5 75 0b 3c 68 ae 43 bb 11 b8 ee 3b 11 48 d4 37
       0.008511935 -0.0029858593 0.007285126 2.5305928e-05
000320 ed 15 85 bb 73 b0 b9 bb f0 b6 83 ba 80 b7 14 bb
       -0.0040614516 -0.0056667863 -0.0010049026 -0.0022692382
000330 c1 6d 02 3d b7 d9 41 bb ac 6b 65 bb 4b 41 53 ba
       0.03184295 -0.002957923 -0.0035006804 -0.00080587406
000340 ef 4c 75 3c f8 ec e3 3c bc e9 ce 3a 69 73 73 bb
       0.014971956 0.027822956 0.0015786211 -0.0037147647
000350 4f 0e 80 3c b7 72 cb 3c 3d 36 f1 3c b8 cb 9e 3b
       0.015631823 0.024834974 0.029444808 0.0048460625
000360 5f 52 45 3b b6 dc b2 3c 0f a4 35 3c cb 3c 25 3c
       0.0030108911 0.021833759 0.011086478 0.010085295
000370 9e 84 95 3c 76 0d 17 3c 74 59 12 3c d1 ec 88 3c
       0.018251713 0.009219518 0.00893246 0.016714485
000380 9b 31 62 3c 47 59 8d bb 4c 39 0d 3b 51 5a 3b bc
       0.013805772 -0.004313621 0.0021549044 -0.011435107
000390 66 af 07 bd 73 1e 6d bd 31 db b6 bb bf 39 15 bc
       -0.033126257 -0.057890367 -0.005580329 -0.009108006
0003a0 8b 5c 52 bc a4 6f 11 bd e5 3e 49 bd 8b 6e 5a bc
       -0.012839447 -0.03550686 -0.049132247 -0.01333202
0003b0 41 11 2c bc 15 ae 8e bc b2 ea f1 bc 0d 9e 06 bd
       -0.0105021605 -0.017416993 -0.029530857 -0.032865573
0003c0 5a 1d a8 bc 90 62 b3 bc ec 9f d7 bc 8a 04 c8 bc
       -0.020521808 -0.021897584 -0.026321374 -0.024416227
0003d0 bc 75 af bc cc e7 aa bc 1c 3f c0 bc 80 65 ae bc
       -0.021418445 -0.020862482 -0.023467593 -0.021288633
0003e0 2d 51 8b bc 7c 3a 53 bc 97 3b 3e 3d a4 75 d0 3c
       -0.017006481 -0.012892362 0.046443548 0.02544672
0003f0 97 80 97 3c da 6e e0 3c ab 46 1c 3d e8 cf 2c 3d
       0.018493934 0.027396608 0.03815333 0.042190462

conv.6.bias f4 [4]
000000 35 68 0f bc db 7a bd ba d7 52 e4 bc 22 8e ab bc
       -0.008752872 -0.001445617 -0.027871532 -0.020941798

conv.11.weight f4 [32, 4, 5, 5]
000000 7c 0b 81 37 3b ef 98 b9 68 9b 27 ba 05 38 d5 39
       1.5383346e-05 -0.0002916994 -0.0006393702 0.00040668264
000010 87 0d 04 38 60 14 ca 38 bc f2 40 39 bf c1 48 b9
       3.148385e-05 9.635906e-05 0.00018400972 -0.00019145662
000020 e5 ca 60 39 6e f2 f8 38 d8 b4 1d 39 41 55 da 37
       0.00021437889 0.000118707176 0.00015040056 2.6027325e-05
000030 a9 cc 2a 38 db f3 3d 3a 7e 16 83 b8 45 ff 01 3a
       4.0721763e-05 0.0007246115 -6.250756e-05 0.00049589976
000040 8a 03 72 b9 91 b7 07 39 62 75 88 39 67 46 0f b9
       -0.00023080237 0.00012942987 0.00026027398 -0.0001366377
000050 2f cb 43 ba c3 ee 57 39 3c b1 90 38 3c 66 76 36
       -0.00074689364 0.00020592943 6.8994676e-05 3.6716365e-06
000060 56 59 de ba 27 0e c9 38 7c f7 26 3a d9 48 a2 37
       -0.001696388 9.587063e-05 0.00063692755 1.9345827e-05
000070 00 ee 78 3a 2c d5 52 3a a7 f2 02 b9 8e 0e 66 39
       0.0009495914 0.00080426293 -0.00012488161 0.00021939931
000080 3b 50 33 b9 bb cd 15 3a 89 ea 23 39 d1 e4 6a 39
       -0.00017100658 0.0005714555 0.00015632263 0.0002240122
000090 99 9f ba b9 70 8e f4 39 c5 df fe 38 e3 06 40 37
       -0.00035595594 0.0004664543 0.00012153344 1.1445695e-05
0000a0 0f 26 1a 3a ce 32 0c b8 49 b4 2c b9 bd c5 22 b9
       0.0005880305 -3.3425917e-05 -0.0001647036 -0.00015523187
0000b0 21 b5 b5 b8 ed 23 80 39 f1 bd 13 b8 ab 73 cb 38
       -8.6644905e-05 0.0002444083 -3.5224428e-05 9.701339e-05
0000c0 5d f8 f6 37 44 f9 8c 39 db 4c 64 3a ec d2 a8 39
       2.9441138e-05 0.00026888598 0.0008708962 0.00032200606
0000d0 be dd 88 3a f2 c4 5f b9 88 cf 31 39 e6 1a b6 39
       0.0010442061 -0.00021340305 0.00016957347 0.00034733786
0000e0 ba e2 ba 39 a9 cc 2c b9 23 78 79 b9 50 c9 40 b9
       0.0003564561 -0.0001647944 -0.00023791245 -0.00018385542
0000f0 28 17 32 38 89 d9 81 b9 b9 06 a3 b7 d2 3d ec 37
       4.2460073e-05 -0.00024766874 -1.9434245e-05 2.816218e-05
000100 cf 8f c8 37 fd 15 14 39 b0 f2 e7 38 ad 0d 0a b9
       2.3908824e-05 0.00014122571 0.000110601424 -0.000131658
000110 3e a3 16 39 f1 fe 48 39 d4 1c 38 3a da af 46 39
       0.00014365927 0.0001916846 0.00070233387 0.00018948261
000120 5f 9d 93 b9 37 e1 e4 38 7f 5a 49 b9 50 e8 c2 39
       -0.00028155276 0.00010913837 -0.00019202566 0.0003717565
000130 bd 03 00 39 a9 e8 10 ba a2 63 fd b8 84 78 e8 38
       0.00012208424 -0.0005527833 -0.00012082538 0.0001108507
000140 9a c8 8f 39 17 f8 89 38 c1 a1 b1 38 ec 7a cb b9
       0.00027424545 6.5788794e-05 8.470147e-05 -0.0003881076
000150 f4 19 bd 38 b2 db 2f 3a 00 2b fd b7 1d 40 d7 b8
       9.0170564e-05 0.00067084574 -3.0179974e-05 -0.00010263941
000160 4c d0 76 b9 2f 13 67 b9 40 a2 5a 38 3b be bc b8
       -0.00023537985 -0.00022037023 5.2126357e-05 -8.999972e-05
000170 86 0c 9b b9 86 80 a7 39 96 fb f2 37 d4 57 83 b8
       -0.00029573234 0.0003194848 2.8965802e-05 -6.262926e-05
000180 06 9e 8e 39 52 6e a3 b9 38 09 8e 39 b2 6b cf 39
       0.00027202087 -0.00031171978 0.0002709122 0.00039562356
000190 6a 0e 9c 38 2c 76 d9 ba bf df 58 ba 3e 67 3b 38
       7.4413445e-05 -0.0016591004 -0.0008273087 4.4680426e-05
0001a0 28 18 c6 b9 45 24 2d bb ec 5d 59 ba 39 f6 7f ba
       -0.000377835 -0.0026419323 -0.00082918885 -0.0009764168
0001b0 34 99 9f ba 9e 40 3b ba c9 e2 43 3a 25 c7 2a bb
       -0.0012176395 -0.00071431126 0.0007472453 -0.002605864
0001c0 fa 87 d2 ba 3a 43 eb ba 38 b5 7b ba fb 31 73 ba
       -0.0016062253 -0.0017949112 -0.0009601894 -0.0009277162
0001d0 21 d7 a5 b9 0a 33 6b 3a d5 18 26 bb 9d ef 74 38
       -0.00031631536 0.0008972144 -0.002534439 5.839729e-05
0001e0 bb d4 85 3a bd 43 5c 3a 8d 03 0b 3b a4 97 df 3a
       0.0010210493 0.0008402428 0.0021211833 0.0017058742
0001f0 bb 3e 8e ba 41 01 af ba 2e 77 ab b9 97 91 5a b9
       -0.0010852435 -0.0013351814 -0.00032704457 -0.00020844337
000200 97 9d 44 b9 de 56 bb b9 fc 4f 01 bb 8e 6e 27 ba
       -0.00018750723 -0.0003573214 -0.0019731512 -0.00063870184
000210 5b 8f 1a ba 90 dc c9 ba 4e 67 31 3a 0f be 1e bb
       -0.00058959954 -0.0015400816 0.0006767408 -0.002422217
000220 42 8b cd ba 37 d6 d0 ba b1 20 0f 37 47 b6 17 3b
       -0.0015681761 -0.0015932982 8.531076e-06 0.0023149417
000230 b4 28 bf ba b7 6c 79 b9 b6 c1 35 3a 7a 7f ad 39
       -0.0014584274 -0.0002378699 0.0006933467 0.0003309211
000240 8e 0f 98 3b 27 a4 91 bb c6 c3 d3 39 b4 34 66 ba
       0.004640526 -0.0044446173 0.0004039092 -0.0008781657
000250 25 1e f6 3a c8 86 08 3c 0c 51 fb b7 f3 c9 2e 39
       0.0018777294 0.008332916 -2.9959272e-05 0.00016669165
000260 1c 5c 3d 3a b1 99 b7 39 73 17 ae 3a 79 57 07 3a
       0.0007223503 0.0003501899 0.0013282135 0.0005162876
000270 75 77 50 39 37 14 c3 b8 4f 4a 79 ba 2a 61 92 37
       0.00019880927 -9.30209e-05 -0.0009509669 1.7449802e-05
000280 f7 88 b5 38 98 23 23 39 23 25 8e 3a 83 1b 9c 39
       8.656264e-05 0.00015558151 0.0010844808 0.00029775136
000290 64 dc 20 3c 84 e8 93 3a 8e 50 91 39 cf d8 d1 b7
       0.00981817 0.0011284505 0.00027716573 -2.50157e-05
0002a0 d5 89 27 3b 8f d7 1f 3c e4 a9 20 3b 4c 12 2b 3b
       0.0025564332 0.009755983 0.0024515325 0.0026103435
0002b0 c7 e9 96 b9 db 23 17 3a 09 5b 2a 3c d4 c5 9d 39
       -0.00028784407 0.0005765536 0.010397681 0.00030092767
0002c0 51 b7 18 bb a6 1e 75 ba 25 d2 49 3a 2c 33 e9 39
       -0.0023302624 -0.0009350575 0.00076988555 0.0004447935
0002d0 ae 87 17 ba 55 23 e1 b9 2d 04 93 39 99 1e 3d bb
       -0.0005780411 -0.0004294167 0.00028041136 -0.002885735
0002e0 e4 47 fe b8 75 c9 cf ba f9 a9 c6 3a 51 98 48 bb
       -0.000121250545 -0.0015852886 0.0015156857 -0.0030608366
0002f0 51 b6 78 ba fa 97 e6 39 6c fb a2 3a 08 7c 14 3a
       -0.00094876165 0.0004398225 0.0012434549 0.0005664234
000300 d9 44 44 3a f7 a5 bf 39 8d 6d 25 3a ab f6 43 3a
       0.0007487066 0.00036554012 0.0006310575 0.0007475416
000310 90 e4 45 39 dc bc 57 39 e9 02 f1 3a 95 32 d5 3a
       0.0001887253 0.00020574353 0.0018387708 0.0016265685
000320 6a 1d 7d bc 7c b1 53 bc df 5a 10 bc 29 32 ed bb
       -0.015448907 -0.012920734 -0.008810728 -0.0072386456
000330 2a 55 c7 bc 64 14 aa bb cd 8a d5 3a c0 35 80 3a
       -0.024332602 -0.005190419 0.0016291976 0.0009781644
000340 d3 de ef b9 f1 78 4e bc d0 f6 33 bb a6 37 e7 39
       -0.0004575165 -0.012602077 -0.0027460344 0.00044101215
000350 86 f8 39 39 fe 2d ce 39 84 29 6c bc 77 d1 eb ba
       0.00017735557 0.0003932565 -0.014414195 -0.0017991503
000360 c2 0f 4a 3b 0a c2 5b bb 47 cb 28 bc fb b7 d6 bc
       0.0030832146 -0.0033532404 -0.010302371 -0.026210776
000370 b2 26 4d bc 73 77 50 ba 80 bf 8f bb 7b 84 70 bb
       -0.012521433 -0.00079523696 -0.0043868423 -0.0036700058
000380 e2 d8 9b bc 3c a9 4e bc 3b 70 57 bc c9 48 a2 bc
       -0.019024316 -0.012613591 -0.013149316 -0.019810097
000390 73 db 45 bb b2 a7 4c 3b 40 f3 7f bc 16 7b a4 bc
       -0.0030190616 0.0031227884 -0.01562196 -0.020078223
0003a0 de 04 97 bc c5 fb 66 bc dd 20 97 3b ae 6f a7 bc
       -0.018434938 -0.0140981125 0.004612072 -0.020438995
0003b0 49 0d a4 bc cd f7 59 bc 4c 4c d1 ba 82 cd 72 3c
       -0.020025866 -0.013303709 -0.0015968173 0.014819505
0003c0 36 11 cc bc c5 f9 56 bc 29 92 ee bb a9 e9 8b 3b
       -0.02491055 -0.013121073 -0.0072806072 0.004269798
0003d0 6a e7 98 3c af c2 12 bd d7 58 e5 bb 62 e7 7f bb
       0.018665034 -0.035830196 -0.006999116 -0.0039047827
0003e0 7b 30 00 3c ff 98 b9 3c b1 45 11 3d 44 00 89 3c
       0.007824059 0.022655962 0.035466854 0.01672376
0003f0 7a 80 31 3b 69 79 ea ba 85 37 1e 3c ab 5e ce 3c
       0.0027084635 -0.0017888966 0.009656792 0.025191626

conv.11.bias f4 [32]
000000 f2 48 d3 39 5c f1 e8 38 78 91 90 3c 75 7b 5a 3c
       0.00040299405 0.00011107579 0.01764749 0.0133350985
000010 c5 29 ee 3c e3 d6 8a 3b 53 be 8c 3c 35 e7 d8 3a
       0.029072652 0.0042370423 0.017180597 0.0016548397
000020 4e f2 99 3b 23 c6 83 3a 2f c9 8c 3c d1 e9 a5 3c
       0.0046980744 0.0010053556 0.017185776 0.020253094
000030 1d 78 18 3c 33 74 b2 3c 9b db a0 3a 66 ab cb 39
       0.009305981 0.021783924 0.0012272479 0.0003884688
000040 27 95 a5 3c 64 91 c4 3c 16 c8 a3 bb 32 8c 05 3d
       0.020212723 0.023995109 -0.0049982173 0.032604404
000050 c8 27 47 3b 31 38 dd 3c 12 0e a2 3c ed 68 27 3c
       0.0030388702 0.027004333 0.0197821 0.010217887
000060 2a 18 12 3b e4 2c ae 3c 30 a9 cd 3c 6d 7e 56 3b
       0.0022292235 0.02126164 0.025105089 0.0032729164
000070 1a e1 ab 3c 8f 93 72 3c 36 df 37 3b a5 92 a8 3b
       0.02098136 0.0148056885 0.0028056628 0.0051444345

lin.0.weight f4 [16, 32]
000000 d9 db b1 bb a6 87 ce 3d 5f 7f 12 3f 46 48 5c be
       -0.005427819 0.10084467 0.572256 -0.21511945
000010 6d 9d 63 3e 0b 0a 9b 3d d8 e0 bd be fc f1 a4 3d
       0.22228022 0.07570275 -0.37085605 0.08053967
000020 2c 99 91 3e b9 c0 4f be b3 34 20 be cf 86 a3 be
       0.28437173 -0.20288362 -0.15645103 -0.31938788
000030 64 2b 53 bd 79 85 c6 be 50 19 fe 3d 4a eb 37 bd
       -0.051555052 -0.38773707 0.12407172 -0.044902124
000040 71 83 08 3f 5d be 12 be 2c 13 59 3e bf ec 53 bc
       0.53325564 -0.1433043 0.2119872 -0.012934863
000050 cf 08 46 be dd 10 ed bd c2 60 ea 3c 71 f9 b9 3e
       -0.19339298 -0.11575482 0.02861059 0.3632312
000060 ef f0 9f 3e 52 3f be 3e 5e 4b 19 3e e9 38 6a 3e
       0.31238505 0.37157685 0.14970157 0.22873272
000070 99 59 8d 3e de cc b4 3d c5 81 85 3e 9d 8c a3 3d
       0.2760742 0.08828138 0.2607557 0.07985804
000080 6b 96 22 3d f2 c6 2b 3c a8 71 bb bb a5 d3 dc 3d
       0.03969423 0.010484444 -0.005720336 0.107825555
000090 8f 2a 28 bc 0f 4f d4 3c f6 61 97 bd f9 dd e6 bd
       -0.010264053 0.025916604 -0.073917314 -0.11272807
0000a0 d9 58 07 bc 5c a6 37 3d 12 35 20 3e 86 fe 12 3c
       -0.008260929 0.044836387 0.15645245 0.008971816
0000b0 fe 43 ac 3b da e5 8b 3c 59 6a 53 bc 40 68 4e bb
       0.0052571287 0.017077375 -0.012903773 -0.0031495243
0000c0 89 79 61 bb 8a 97 f7 3b 67 68 45 bb 82 59 b2 3d
       -0.0034404716 0.0075559067 -0.0030122043 0.087084785
0000d0 33 a8 38 3b c9 cf 3f 3d 3d 5f 88 bc b6 a4 84 3c
       0.0028176426 0.04682902 -0.016646976 0.016191822
0000e0 08 24 08 3d 12 02 36 bb 60 f7 61 3d b0 89 62 bc
       0.033237487 -0.002777223 0.055167556 -0.013826773
0000f0 a8 80 1c bd f1 2d af bb dc 33 2e bc fc bd 10 3e
       -0.038208634 -0.005346053 -0.010632481 0.14134973
000100 8e 06 0a bd f6 e7 a4 3c 52 49 03 39 32 eb d4 bb
       -0.033697657 0.020130139 0.00012520447 -0.006497764
000110 b1 98 48 bc 6c 0e 03 bc a6 8e 59 3d 57 ea 95 bd
       -0.012243436 -0.007999044 0.053114556 -0.073200874
000120 b3 19 84 bb 64 2c b0 3b 70 04 04 3d a9 77 8c 3d
       -0.004031384 0.0053763855 0.032230794 0.06858761
000130 c9 1a a1 bd f9 e9 60 bd a3 26 d2 bc e1 e7 74 ba
       -0.07866437 -0.054910634 -0.025653189 -0.0009342414
000140 56 aa 62 36 fa d3 4d 3b 17 98 42 3c d8 17 8a bc
       3.3775773e-06 0.0031406865 0.011877081 -0.016857073
000150 43 c2 49 ba a6 ad 8a bb 2d e9 b8 3d fb f0 be bc
       -0.0007696489 -0.0042321263 0.0902885 -0.023308268
000160 4d aa ca 3a 84 ab cf 3c 12 fe 87 3c ab 48 1c 3d
       0.001546213 0.02535034 0.016600642 0.03815524
000170 f5 31 3c bd 16 2b 6f ba 47 51 f1 bc b8 60 9e 3c
       -0.04594608 -0.0009123547 -0.029457701 0.019333228
000180 be 45 05 3a 13 9e 13 3d d0 c7 14 3d 10 5d 04 bd
       0.000508394 0.036039423 0.03632337 -0.032315314
000190 bd 0e 92 3e 99 81 2d 3c c6 96 c0 bc d0 46 d5 bc
       0.2852687 0.0105899805 -0.023509394 -0.026034743
0001a0 76 14 21 3d 46 3c 36 3c 2d 1c 00 3c 3d 79 90 bb
       0.039326154 0.011122769 0.007819218 -0.004408984
0001b0 51 f7 8b bc 71 67 0b 3c d1 70 64 3c f9 3a a9 3e
       -0.017085703 0.008508549 0.013942913 0.33052805
0001c0 39 bf 23 3d c2 5e 06 bb 42 0e a9 3c 22 43 11 bc
       0.039977286 -0.0020503257 0.020636681 -0.008866103
0001d0 d5 51 de 3b e6 ed ac ba d6 97 91 3e 83 37 1f 3d
       0.0067846575 -0.0013193458 0.28436154 0.0388713
0001e0 8c 29 1b 3d c1 96 ab 3d 42 4c 4d 3e 97 56 df 3b
       0.03788142 0.083783634 0.20048621 0.0068157422
0001f0 07 f6 3c 3d d9 3d 4c 3e be e8 81 3c d3 eb eb 3b
       0.046133067 0.19945468 0.01585805 0.0071997433
000200 c1 6f 90 3d 7f 09 61 3e 7a 1d fd 3e 03 2e e2 be
       0.07052565 0.21976279 0.4943655 -0.4417573
000210 f9 58 73 3e 6b 66 30 3e f1 7f d9 be 65 9e 15 3e
       0.23764409 0.1722657 -0.42480424 0.14611204
000220 02 b9 9e 3e 66 9b 6c be 85 62 ce be 3f dd 9a be
       0.31000525 -0.23106155 -0.4030954 -0.30246922
000230 c3 aa bf bd 8c f1 e3 be 38 a1 a2 3d a0 ad 50 bd
       -0.09358742 -0.44520223 0.07940906 -0.05094683
000240 c5 06 98 3e 70 08 ad be c2 be a8 3c 90 bf e9 be
       0.29692665 -0.337955 0.020598773 -0.45653963
000250 3d ac 1c be b5 55 82 be b7 3f 7e 3e 09 36 98 3e
       -0.15300079 -0.25456014 0.24828993 0.29728726
000260 9f 61 5d 3e 38 89 88 3e 46 2d 9b 3e f0 c9 30 3e
       0.2161927 0.2666719 0.30307978 0.17264533
000270 be f7 27 3e 9c a2 30 3e 3f eb 9c 3e dc c1 bc be
       0.164031 0.1724953 0.3064823 -0.36866653
000280 6c 8b eb 3d 10 67 00 3e b0 52 e4 3e ec 06 c6 be
       0.11501202 0.12539315 0.44594336 -0.38677156
000290 0d d1 cf 3d 37 85 a9 3d 60 45 b4 bd b7 27 62 3e
       0.10147295 0.08277362 -0.08802295 0.22085463
0002a0 53 b1 92 3e 4d 38 b7 bd f9 60 0c bf 51 4c e8 be
       0.28650913 -0.089462854 -0.5483547 -0.45370725
0002b0 16 2e 89 3d 2f fe 87 be 98 72 b7 3d 37 e4 f1 bd
       0.06698243 -0.26561114 0.08957404 -0.11811107
0002c0 e8 81 e2 3e b5 f5 91 be 16 1a eb 3c ac 63 5b be
       0.44239736 -0.28507772 0.028698962 -0.2142474
0002d0 30 04 51 be a4 e4 d8 be a5 94 c6 3b 0f a7 2f 3e
       -0.20411754 -0.4236194 0.0060602003 0.17153572
0002e0 83 0a 81 3e 81 97 d0 3e 4d 4f 72 3e b1 61 90 3e
       0.25203332 0.40740588 0.23663063 0.28199533
0002f0 2c b6 a7 3e b7 ec af 3d c7 e8 60 3e 44 09 b4 be
       0.32756174 0.08590072 0.21963798 -0.3516332
000300 92 ce b0 3c 95 e3 2c bb cb 12 55 bb 75 19 df 3e
       0.021582875 -0.0026380767 -0.0032512422 0.4357411
000310 e9 64 5f bc 3a 7f ac bb d6 ce b4 bb 64 0d b3 bb
       -0.013634899 -0.00526419 -0.005517821 -0.005464243
000320 95 28 dd bb 90 55 f5 bb 72 94 0e 3f 7a 2f d4 3d
       -0.0067492225 -0.0074870065 0.5569526 0.10360618
000330 22 8c 49 bd ec af 39 3d 5c 05 25 bb 94 c2 f1 3c
       -0.049205907 0.045333788 -0.0025180196 0.029511727
000340 9d 47 cc bb 9f 43 ff 3c 5b f9 45 bb 43 27 d9 3e
       -0.006234123 0.031160174 -0.0030208442 0.42412767
000350 1c db c6 39 a9 b2 36 3e 23 48 9e bc f6 e1 8e bb
       0.00037928752 0.17841591 -0.019321507 -0.0043604327
000360 c4 f1 b0 bb fa 28 c5 bb 51 8a ae bc eb ab 75 bb
       -0.0053999145 -0.0060168477 -0.021306189 -0.0037486504
000370 26 14 00 bc 49 f0 35 bc f2 e1 89 bb b2 52 13 3f
       -0.007817304 -0.011104652 -0.004207843 0.5754806
000380 8f ed 8a bc e7 79 78 be ef 25 03 bf b8 2c 35 3e
       -0.01695898 -0.24265252 -0.5122976 0.1769284
000390 33 0d a2 be 89 2a 31 3d 8a c1 e6 3e 41 77 4a be
       -0.31650695 0.043253455 0.45069534 -0.19772054
0003a0 aa dd ce be 6e ce dd 3d bb d2 15 3e ef a6 ab 3e
       -0.4040349 0.10830389 0.14631169 0.33525798
0003b0 11 13 18 3e a7 aa dc 3e 05 09 6a be 5b 21 e8 bd
       0.14851023 0.43098947 -0.22855003 -0.11334487
0003c0 bf fb d8 be 57 41 74 3e 5f 37 04 be 33 ce 95 3e
       -0.42379567 0.2385305 -0.12911747 0.2925888
0003d0 04 54 66 3e 30 45 a1 3e 18 72 bf be 10 51 ba be
       0.22492987 0.31498098 -0.37391734 -0.3638997
0003e0 a1 52 b5 be 31 8a b4 be d8 c3 d8 be 99 3a 4f be
       -0.35414603 -0.35261682 -0.42336917 -0.20237197
0003f0 69 bb a9 be 9a 99 32 be b7 82 5f be a2 3c 68 3e
       -0.33150795 -0.17441407 -0.21827208 0.2267938

lin.0.bias f4 [16]
000000 86 59 e3 3d 0b 4c ed bc d5 09 2d bd c1 30 8e bd
       0.111010596 -0.028966924 -0.042245705 -0.06942893
000010 1d 05 6d 3e 91 99 30 3e e2 de 01 be 76 83 7c 3e
       0.23146482 0.17246081 -0.1268268 0.24659523
000020 d7 41 4a 3e c9 e7 5d 3e c1 da 1f b9 0e 0e 23 3e
       0.19751678 0.2167045 -0.00015244914 0.1592333
000030 d0 6f 56 3e 56 9e 3e 3e fb 89 97 bd b3 05 1f be
       0.2094109 0.18615088 -0.073993646 -0.15529518

lin.2.weight f4 [1, 16]
000000 30 e1 e0 be f8 c8 3d be 51 b8 ad bd 9b ae bf 3e
       -0.43921804 -0.18533695 -0.08482421 0.374379
000010 e4 e0 9f be 2e 66 bf be 93 94 1e bf 8e 4a db 3e
       -0.31226265 -0.37382644 -0.61945456 0.42830318
000020 e6 47 b5 be 64 5e b7 be 7e f9 c1 38 2e 2b f3 3e
       -0.35406417 -0.35814202 9.249429e-05 0.4749388
000030 b5 eb d0 3e 00 22 dd 3e 1b a2 86 bc f7 84 45 3f
       0.4080483 0.43190002 -0.01643472 0.77156013
