Simulator/models/sign_classifier.onnx (onnx, 106320 bytes, 12 tensors)

conv.0.weight f4 [4, 1, 5, 5]
000000 a4 6b a9 bd ea d4 8c bd 69 fe 6f 3d d7 f8 cf 3d
       -0.08272484 -0.06876548 0.058592234 0.10154884
000010 da 78 c7 3c 18 73 2a 3d 20 53 4e be 8b 51 83 3e
       0.024349619 0.04161367 -0.20148897 0.2564815
000020 c0 9e b3 bd e3 1b 22 bd 34 d3 11 3e 19 86 f4 3d
       -0.087705135 -0.039577376 0.14240724 0.119396396
000030 a3 3e 84 bd 3d 1b d5 bd 75 11 02 be 35 43 4f 3d
       -0.064572595 -0.10405586 -0.12701972 0.050601203
000040 51 ec ac bd a1 6d bc 3d 44 34 86 be a3 66 f6 3d
       -0.08443511 0.092005976 -0.2621175 0.12031295
000050 1d 05 01 be 82 34 e2 bc 6c 15 f9 3b 0f bc 5c 3e
       -0.12599607 -0.027612928 0.0076014306 0.21556114
000060 a9 58 ce 3b 30 40 24 3c d3 a2 a6 3b e8 24 96 3d
       0.00629719 0.010025069 0.005085328 0.07331258
000070 bc a8 92 3d e2 a1 60 3c ef f8 47 3d 01 49 0e 3c
       0.0716109 0.013710471 0.048821386 0.008684398
000080 56 2d 14 3e 75 5e 87 3c 74 41 0f 3c b3 8b 09 be
       0.1447042 0.016524533 0.008743633 -0.13432197
000090 48 3e 22 bd 37 ab 2d 3d 66 9b f0 bd 7c 38 31 be
       -0.039610177 0.04239961 -0.1174839 -0.17306703
0000a0 0c 7c 4c be 91 a7 08 3d 4e 76 9b 3c e3 32 2d bb
       -0.19969195 0.03336293 0.01897731 -0.0026428036
0000b0 73 47 d3 bc 17 c2 04 bc bb fc dc 3d ea b3 7e 3d
       -0.025790906 -0.008102915 0.10790392 0.0621833
0000c0 55 ad df bc b9 22 49 bd b7 78 3f 3c f2 01 8d 3d
       -0.02730433 -0.04910538 0.0116864955 0.06885137
0000d0 f9 0e ac bc ac 1b 5e bd ca c8 52 3d c3 ad e9 3a
       -0.021003233 -0.05422561 0.05146102 0.0017828274
0000e0 85 61 ff bb 73 4f 5c 3c 70 b9 9d bd 5f da 50 3d
       -0.0077936077 0.013446677 -0.07701385 0.050989505
0000f0 ea 1d 07 3d 71 06 39 bc af d9 bc bd 3c 80 28 be
       0.032987513 -0.01129304 -0.09221207 -0.16455168
000100 88 f2 bf 3c bc ac 8e bd 40 5c d2 bd 02 22 de bd
       0.023431078 -0.0696654 -0.102715015 -0.1084633
000110 4f a6 a8 3d d4 0c 74 be 7c 8f b1 3a f5 a7 8e 3d
       0.08234846 -0.23833019 0.001354679 0.06965629
000120 eb c2 57 3e 57 42 f3 3d 57 d8 14 3e 6d 37 49 bc
       0.21070449 0.11877888 0.14535652 -0.012281281
000130 3f 4f 9c 3b 74 58 8a 3d 1f 1e 85 bd 96 03 23 bb
       0.004770189 0.06755152 -0.06499886 -0.0024873964
000140 5d 16 f1 3c f1 df b5 bc ee 59 ac bc bd b3 e3 bc
       0.029429609 -0.02220151 -0.021038976 -0.027795667
000150 d0 07 2a 3d bf 5d 1b 3b 70 7d 14 bb 31 06 24 be
       0.041511357 0.0023707 -0.0022657774 -0.16017987
000160 d0 e2 61 3e ae b7 22 be 7b 21 a9 3c cb f5 49 bd
       0.22059178 -0.1589038 0.020645848 -0.049306672
000170 a9 b5 ff bd 30 bd 9b 3e 70 82 1d be d1 ce cc bc
       -0.12485821 0.30417776 -0.15381789 -0.025000961
000180 cc 9c 74 bd d9 38 10 3d 98 2e 44 3e 26 c5 98 bd
       -0.059719846 0.035210464 0.19158399 -0.07459478

conv.0.bias f4 [4]
000000 1e ee 35 3b 8b 18 9c 3f 1e c9 eb bc 10 53 1a 3e
       0.0027760337 1.219499 -0.028782424 0.15070748

conv.3.weight f4 [4]
000000 8e 03 89 3f f9 3c 94 3f 90 24 9b 3f 76 66 a1 3f
       1.070421 1.1581107 1.2120533 1.2609394

conv.3.bias f4 [4]
000000 fd 47 ba 3e 82 13 98 3e 1b ae d6 3e db 93 da 3e
       0.36383048 0.29702383 0.41929707 0.4269093

conv.3.running_mean f4 [4]
000000 69 f7 04 41 37 74 a2 40 b9 a4 e3 40 a9 b4 03 41
       8.310403 5.0766864 7.1138577 8.2316065

conv.3.running_var f4 [4]
000000 bd af 98 42 db 25 8c 42 07 8a cd 42 47 89 d4 42
       76.34324 70.07394 102.769585 106.26812

conv.5.weight f4 [8, 4, 5, 5]
000000 69 14 3c 3d 32 5a ec 3c 8b 46 a0 bc 28 f4 5f bd
       0.045917902 0.028851602 -0.019564888 -0.054676205
000010 88 42 72 bd 0d 25 a6 3c 7f 81 c0 3a a0 e9 17 bd
       -0.05914548 0.020281339 0.001468703 -0.037088037
000020 e3 17 6d bd e0 2a 33 bd 6b 5e b9 ba 3f ee 9c bc
       -0.05788411 -0.04374206 -0.0014142519 -0.019156573
000030 6f 71 6c bd e2 ad bd bd 27 b5 b4 bd a0 dd dc 3c
       -0.057725366 -0.09261681 -0.088236146 0.026961148
000040 ae 29 7e bb 99 71 3c bd f3 a7 84 bd 80 82 74 bd
       -0.0038782167 -0.046006773 -0.06477346 -0.059694767
000050 58 a5 26 3d 3f b7 0c bd 45 c7 78 bd 29 5c 83 bd
       0.040685028 -0.034354445 -0.060736913 -0.064140625
000060 6a 49 49 bd 3e 41 8b bc 57 13 bd bc 16 1b ce bc
       -0.04914228 -0.016998883 -0.023080511 -0.0251594
000070 28 ee 2c bc ff 79 f1 ba 7b f6 95 bc d8 f6 e4 bc
       -0.010554828 -0.0018423198 -0.018306008 -0.027949736
000080 62 49 ab bc 99 1c 09 bb 2b 29 da 3a 5e 1e 9c bd
       -0.020909015 -0.0020921587 0.0016644349 -0.076229796
000090 3e 55 f8 bd 2f 87 de bd ce 16 b6 bd 86 43 9c bd
       -0.12125634 -0.10865628 -0.088910684 -0.076300666
0000a0 de 32 7b bd e2 4c df bd 5a 08 ef bd 70 be bb bd
       -0.061327808 -0.10903336 -0.11671515 -0.091671824
0000b0 a1 6d 90 bd 68 fa 25 bc 83 f4 36 bd aa 73 62 bd
       -0.0705216 -0.010130502 -0.04466678 -0.055286087
0000c0 1f e8 13 bd 1c 3d 0b bc 81 07 dc 3d 88 f9 02 3e
       -0.03611004 -0.008498456 0.10743619 0.12790501
0000d0 ef 39 2e 3e eb d5 31 3e f2 ba 23 3e 3e 21 da 3c
       0.17014287 0.1736676 0.15989283 0.02662718
0000e0 b8 24 9f 3d 2e 7e d8 3d 94 a3 d8 3d da c3 d2 3d
       0.077706754 0.10570942 0.10578075 0.10291262
0000f0 65 8e 66 bc f0 4a 21 3c ac c5 ee 3c c9 05 47 3d
       -0.014072035 0.009844527 0.029146992 0.0485895
000100 5c 02 6d 3d 51 0a 85 3a 0e 04 50 3c d8 e0 aa 3c
       0.05786358 0.0010150169 0.012696279 0.020859167
000110 13 76 e9 3c 41 19 15 3d 14 d7 4f 3d 5b f5 ff 3c
       0.028498685 0.036401037 0.050742224 0.031244924
000120 56 33 2b 3c 27 d9 59 3c 84 26 97 3c 92 3d 06 3c
       0.010449251 0.013296402 0.018450983 0.00819339
000130 c9 f0 77 3d 6c 9d ce 3d 45 3d a6 3d 19 60 bc bc
       0.060532365 0.100886196 0.08117155 -0.022995042
000140 e6 64 5f 3d 9e 5f a9 3d 2e 04 bb 3d 1b d5 86 3d
       0.054539584 0.08270191 0.091316566 0.065836154
000150 3b ff 46 bc d4 26 76 3d dc 7b 91 3d f6 ce 67 3d
       -0.012145813 0.060095623 0.071037024 0.056593858
000160 f8 c8 f6 3c 0f cd 8e b9 6c 2a 51 3c 2a 8d 8a 3b
       0.030125126 -0.0002723713 0.012766462 0.004228254
000170 3f e2 75 bb 69 7f a5 bb 28 a1 4c bb 60 0e 54 bd
       -0.0037518886 -0.005050589 -0.0031223986 -0.05177152
000180 6f be ab bd b2 9b ba bd f5 8a 6b bd c8 ea 8b bc
       -0.08385932 -0.09111728 -0.057505567 -0.017079726
000190 c5 c6 25 3e 23 02 74 3d cb 87 b3 3b 7c 29 8a 3d
       0.16189106 0.05957235 0.0054788343 0.06746194
0001a0 4c 9c 83 3e 6b c2 f6 3d 30 fb 79 3d cc bb 38 bd
       0.25705183 0.12048801 0.061030567 -0.045100972
0001b0 a7 67 f4 bd f7 32 3d bc 78 c7 a7 3d eb 04 c1 3b
       -0.119338326 -0.0115477955 0.081923425 0.005890479
0001c0 b7 7c b9 bd 28 e6 38 be 0e 39 bc bd 20 1e 02 3e
       -0.090569906 -0.18056548 -0.0919057 0.12706804
0001d0 f0 5a 17 3d 6e 62 5e bd 3b 01 2e bd 6c b1 19 bc
       0.03695196 -0.05429309 -0.042481642 -0.00938068
0001e0 c8 11 3e 3e 3a 6b dc 3d d0 e0 21 3d 4f 9f d6 3d
       0.1856147 0.10762639 0.03952104 0.104796045
0001f0 85 3a a1 3e 89 85 6e bd 25 94 92 bd eb ff d7 bd
       0.3148996 -0.058232818 -0.071571626 -0.10546859
000200 99 8f 21 be 9f da 5c be 01 9e 9f bc 15 bb 0f bd
       -0.15777434 -0.21567772 -0.019484522 -0.035090525
000210 4a 44 2b bd 6e 65 9d bd c2 73 95 bd 4e f6 e0 bc
       -0.041813172 -0.07685362 -0.0729747 -0.027461197
000220 fc 87 26 bc a9 ef a2 3b e1 3c 71 3b e8 11 33 3c
       -0.010164257 0.0049724174 0.0036809968 0.010929562
000230 1d de fa bc 8d 22 33 bc 8e 68 0c 3d db 3b 91 3d
       -0.03062349 -0.0109335305 0.0342794 0.07091495
000240 5f 30 93 3d 7e b6 ba bd 33 78 81 bd a2 3d 76 3d
       0.071869604 -0.09116839 -0.06321754 0.06011737
000250 da 74 cf 3d 4c 92 88 3d d6 cb fd 3c 01 3e 90 bc
       0.101297095 0.06668529 0.030980986 -0.01760769
000260 8f 1d 59 bd ae 8d ee bc 6f 40 89 3b d8 aa 35 3c
       -0.053006705 -0.029120293 0.0041885893 0.011088096
000270 33 5d ee bd df 7a 09 be 05 88 d4 bc 5b 3c 82 3d
       -0.1163887 -0.13425778 -0.025943765 0.06359168
000280 19 83 45 bd f6 8f 31 be 36 1f 24 be 8e 15 89 bd
       -0.048220728 -0.17340073 -0.16027531 -0.06693564
000290 ba f7 21 3d 8e a5 f9 ba 80 18 15 bd ad 50 1d bd
       0.03954289 -0.0019046532 -0.03640032 -0.038407017
0002a0 97 f8 dc bc 7d 2f 88 3c d8 99 da 3c da 3b 87 bc
       -0.026974006 0.016624207 0.026684687 -0.016508032
0002b0 38 ef e6 bc e7 d0 0e bd a7 5d 1e bc e9 7c 07 3e
       -0.02819024 -0.034867194 -0.009665883 0.13231243
0002c0 66 a5 4d 3d 22 17 4e bd 76 ef e0 bd 3d fd 0d bd
       0.050206564 -0.05031503 -0.109831735 -0.034665335
0002d0 83 b6 f4 3c 97 0b 89 bd 12 dd 45 be 7b d6 e0 bd
       0.029872185 -0.06691664 -0.19322613 -0.10978409
0002e0 d4 3d 1b 3d d9 5a e8 bd bf 8f 86 be 61 f3 83 be
       0.03790076 -0.11345453 -0.26281545 -0.2577162
0002f0 0c 5d f6 bd fc 65 58 3d 9b 8d 68 be 6e ab 87 be
       -0.12029466 0.052831635 -0.22710268 -0.26497978
000300 9c 9a 47 be 4b f1 e5 bd 5b 0e 32 3d f7 d8 25 be
       -0.19492573 -0.112276636 0.04347072 -0.16196047
000310 d5 c7 e5 bd 1e f0 83 bd 45 67 80 bd 5e e2 08 3d
       -0.112197556 -0.06442283 -0.06269697 0.033419006
000320 6a c7 6e 3d 60 18 de 3c 83 d0 35 bc a3 d5 a7 bc
       0.058295645 0.027111232 -0.011097076 -0.020487612
000330 78 af 97 bc 95 6c 1d 3d 4a d1 00 3d 95 e8 96 bc
       -0.018516287 0.03843363 0.031449594 -0.01842145
000340 5a 4f 7d bd 4a 26 a9 bd 00 0d 7f bc 75 b6 36 bd
       -0.061843254 -0.08259256 -0.015567064 -0.0446076
000350 8a a8 aa bd 4e fd ed bd 77 1a e1 bd 3e 6e d2 bc
       -0.083329275 -0.1162058 -0.10991376 -0.025687333
000360 b1 e9 3c bd e7 22 80 bd 63 91 a9 bd 8f b6 97 bd
       -0.046121303 -0.06256657 -0.082796834 -0.07407867
000370 ec ec 82 3c 1d c8 d1 3c 38 c2 f8 3c a5 e3 0b 3c
       0.015982114 0.025608117 0.030366048 0.008538161
000380 23 7c 14 3b 7b 97 1d bd e4 ba 9f bc ea 42 63 3b
       0.0022657 -0.03847454 -0.019498296 0.0034677335
000390 3e c6 5a 3c c4 76 05 3b 39 e1 f0 bc 49 7f b8 3b
       0.013352929 0.002036498 -0.02940427 0.005630408
0003a0 33 69 b7 3c ce 12 a6 3c 0b 14 6c 3b 21 fd c6 ba
       0.02238903 0.020272639 0.0036022689 -0.001518164
0003b0 ab 6b 08 3d f2 1b 00 3d 90 0e d6 3b 6a 1d 62 3b
       0.033305805 0.03127665 0.0065324977 0.0034502395
0003c0 a7 f5 c7 bb b0 e2 8c 3c 4e f8 89 3c 0d 67 df bb
       -0.006102282 0.017197937 0.016842034 -0.0068177045
0003d0 c3 ca 05 3b c2 f2 10 bb 46 4e 4f 3c 53 04 b3 3c
       0.0020415045 -0.0022117351 0.012652939 0.021852648
0003e0 31 81 b8 3b 04 78 81 3d d8 6a 10 3e ea a1 c3 3d
       0.005630635 0.06321719 0.14103258 0.09552367
0003f0 92 af ab 3d 13 79 7d 3d fa 14 8b 3d 15 0a f1 3d
       0.08383097 0.061883043 0.0679111 0.11769501

conv.5.bias f4 [8]
000000 53 93 a6 be d7 a5 d4 be 29 03 36 be 9e a2 02 3e
       -0.32534274 -0.41532776 -0.17774643 0.12757346
000010 8c f1 2d bf 7b 32 24 bc 83 e0 44 be 67 83 15 bf
       -0.67946696 -0.010021801 -0.1922627 -0.5840363

conv.10.weight f4 [64, 8, 5, 5]
000000 69 42 55 bb 4d 8a ff ba de cc 3b bb 15 7c 86 3b
       -0.0032540804 -0.0019496173 -0.0028656046 0.004104147
000010 7b d3 b2 3a c6 fb e4 ba a1 64 e3 bb 87 d2 86 bc
       0.0013643348 -0.0017470054 -0.006939486 -0.01645781
000020 8b 54 3a bc ae 42 2e bc a8 c4 e3 bb ab c4 6c bc
       -0.011372696 -0.010636015 -0.0069509335 -0.014451186
000030 98 83 7f bc 9a 52 2c bc 12 49 48 bc 93 62 86 bc
       -0.015595339 -0.010517741 -0.012224453 -0.016404426
000040 c9 d4 05 bc 9e 94 bd bb b2 0d d9 bb 74 83 62 bb
       -0.008168408 -0.005785539 -0.006623947 -0.0034563215
000050 a1 d3 e5 bb 13 1c 4c bc c0 2b 6d bc 31 88 26 bc
       -0.0070137535 -0.012457865 -0.014475763 -0.0101643065
000060 1f 52 da bb 4e ec ba 3b 65 8e a0 ba dc ec e9 bb
       -0.0066626216 0.0057044392 -0.0012249468 -0.0071388315
000070 b0 6e 8e bb ab b7 a6 ba 76 01 ef bb 3f ad cb bb
       -0.004346691 -0.0012719532 -0.0072938753 -0.006215721
000080 c4 18 38 bc 42 91 01 bc 05 0a 83 b5 b4 bb 3a bc
       -0.011236373 -0.007908167 -9.763177e-07 -0.011397291
000090 ab 66 86 bc 66 9e 3e bc 09 1a de bb 69 5a 5c bb
       -0.016406378 -0.011634445 -0.006778006 -0.0033623225
0000a0 d9 2e 88 bb bc fd 49 bb 2f 15 12 bc 01 db ca bb
       -0.0041559753 -0.0030821403 -0.008916183 -0.006190658
0000b0 8d 33 b9 bb 0b a7 ec bb f3 36 29 bc 6e 89 10 bc
       -0.0056518973 -0.0072220615 -0.010328042 -0.008821828
0000c0 f0 cc d8 bb 46 b0 75 bb 06 21 3d 3d 01 10 d3 3c
       -0.0066162273 -0.00374891 0.04617407 0.025764467
0000d0 88 a1 4b 3c ee 8d 86 3c 45 2b c6 3c 76 75 c1 3c
       0.012428649 0.0164251 0.024190554 0.02361558
0000e0 a2 57 52 3b 96 40 52 3b dc 56 71 3c b6 80 bf 3c
       0.003209569 0.0032081953 0.014730182 0.023376804
0000f0 f9 be 53 3c 31 f0 3b 3b 73 54 02 3c 79 69 1f 3c
       0.012923949 0.00286771 0.007954705 0.0097297365
000100 64 7b a5 3c b6 db 27 3c 78 f8 fb 3a 79 cc 12 36
       0.020200439 0.010245254 0.001922383 2.1874714e-06
000110 45 2b dd ba e3 80 1c 3c df 03 1c 3c 74 c4 9d 3b
       -0.0016873857 0.009552213 0.009522407 0.004814679
000120 64 fa 3b bb 66 dc ca ba 04 a9 88 3b 07 6f 1b be
       -0.002868318 -0.0015477061 0.004170539 -0.15179072
000130 d5 4c df bd a3 7a 86 bd ce 3e b7 bd 86 b3 21 be
       -0.109033264 -0.0656636 -0.08947526 -0.15791139
000140 83 37 14 be 3e 8f 81 bd 01 28 40 bd dc 32 85 bd
       -0.14474301 -0.063261494 -0.04691315 -0.06503841
000150 da 31 02 be bf 84 14 be 18 b2 66 bd d8 ed 01 bd
       -0.1271433 -0.14503764 -0.056322187 -0.031720966
000160 54 96 4d bd 4b 7e f7 bd b3 4d f7 bd 2e a4 99 bd
       -0.050192192 -0.12084635 -0.12075367 -0.07502018
000170 69 f7 5b bd 0f 81 79 bd f1 52 f9 bd d5 4d 08 be
       -0.053702746 -0.060914095 -0.12174023 -0.1331094
000180 dd b1 c4 bd dc 18 c5 bd 19 5b cd bd de 69 1c be
       -0.09604237 -0.09623882 -0.10027141 -0.1527476
000190 fc bd ea 3a dc 52 0a 3c f6 99 43 3b fb 36 8a ba
       0.0017909403 0.008442607 0.0029846407 -0.001054495
0001a0 36 cf 31 bc 00 bf 3a bc d7 9a ca 39 1f 60 8b 39
       -0.010852626 -0.011398077 0.00038643807 0.00026583762
0001b0 8c bc fb 3a a8 8b 60 ba 80 d3 9f bc fb 2c 02 bc
       0.0019205972 -0.0008565732 -0.01951003 -0.0079452945
0001c0 ce 6e c7 bb 86 9b f3 bb 42 01 85 bc 93 0a 6a bc
       -0.006086207 -0.0074343113 -0.016235951 -0.014284748
0001d0 11 df a1 3b 14 3e 2e 3c 33 9a b0 ba f2 2e 49 ba
       0.0049399217 0.010634918 -0.0013473689 -0.0007674537
0001e0 14 a2 07 bc 27 d0 ad 3b 34 a9 95 3c 62 4e 25 3b
       -0.0082783885 0.0053043547 0.018269159 0.0025223722
0001f0 77 4f 95 3c de 79 af bb fb a1 e8 3b 9f 13 30 3c
       0.018226368 -0.005355104 0.0070993877 0.0107468655
000200 12 9e a5 3c d5 0f f4 3b 34 99 85 38 cc 1c 9c 3b
       0.020216975 0.0074481764 6.3704705e-05 0.004764175
000210 2f 71 94 3c 14 bf b2 3c 77 31 16 3c b4 ba 24 3a
       0.018120376 0.021819629 0.009167067 0.00062839244
000220 c2 1d 62 3c e1 4a ed 3b 3d 13 5d 3c e4 92 ed 3b
       0.01380104 0.0072415923 0.013493356 0.0072501767
000230 b8 ea a5 ba 7d 59 67 bb cd 3b 68 3c 99 6f 1a ba
       -0.0012658453 -0.0035301142 0.014174414 -0.0005891263
000240 99 e6 10 bb 2d 19 db 39 3d ff 83 3c 92 ed 8f 3c
       -0.0022110103 0.00041789692 0.016112918 0.017569337
000250 52 dc 6c 3c 67 7e d5 3b a0 cc 69 3c 72 06 ef 3b
       0.014456825 0.0065153125 0.014269978 0.0072944695
000260 fb 0d 17 3c 74 53 02 3c 46 b6 88 3c a7 1a 22 3c
       0.009219642 0.007954467 0.016688477 0.00989405
000270 b4 cd 14 3a dd 66 56 3b f8 04 22 bb 9b 7a 68 3c
       0.0005676404 0.003271512 -0.00247222 0.014189388
000280 2e 70 6b 3c 20 a7 d4 3b 49 85 97 ba 7f b5 65 3b
       0.014370007 0.0064896494 -0.0011560108 0.0035050807
000290 c4 d8 b9 3b 3d 74 82 3c 19 87 c7 3b 61 a8 76 bb
       0.0056715924 0.015924567 0.006089103 -0.0037636983
0002a0 75 8d d7 3b 14 2f 81 3c d1 e2 4d 3c 22 4f 9f 3b
       0.0065781423 0.015769519 0.012566284 0.0048617283
0002b0 85 3d 39 ba d1 29 bc 3b 1d 60 c1 3c fc 95 d6 3b
       -0.0007066357 0.0057422896 0.0236054 0.0065486412
0002c0 17 57 fc ba bb 5d 34 3b 87 36 d0 bb c7 91 95 ba
       -0.0019252029 0.0027521688 -0.0063541564 -0.0011411243
0002d0 c6 b7 9d 3b cb 35 8b ba b2 39 24 3b 1a ff 1f ba
       0.0048131673 -0.001062089 0.0025058803 -0.0006103382
0002e0 a2 72 2c ba 5a 3c 3c 3b 00 80 b1 3b 4a 4f b2 3b
       -0.0006578361 0.0028722496 0.00541687 0.005441581
0002f0 d7 cb 07 bb 9c 66 ee 3a ca ab 04 3b d3 be 25 bc
       -0.0020720863 0.0018188539 0.0020243996 -0.010116297
000300 af 73 fb ba 68 58 de 3a 84 a7 92 bb 84 fa fa bb
       -0.0019184257 0.0016963603 -0.004475536 -0.0076592583
000310 86 40 08 bc f6 84 1b bb 76 e6 52 ba 4c f1 4e ba
       -0.008316165 -0.0023730374 -0.00080452056 -0.00078942324
000320 b9 82 b1 bb 76 fe 20 bb f4 1c 20 3b 6c ed 28 39
       -0.0054171947 -0.0024565733 0.002443132 0.00016110175
000330 b4 3a 55 bc d0 ec e6 3b e0 93 c5 b9 20 e2 e4 3b
       -0.013014484 0.007047273 -0.00037684944 0.006984964
000340 1f 42 16 3c d7 23 6d 3b 38 0f f7 3a e3 0e 98 3b
       0.009171038 0.0036184692 0.001884914 0.0046404465
000350 0e da 4b 3b d5 f8 96 3b 5a 90 8b 3c 66 46 6c bc
       0.0031105313 0.0046073 0.017036606 -0.014421081
000360 41 c5 b4 ba 84 5a 91 bb a0 e0 5c ba e9 33 27 3b
       -0.0013791696 -0.004435839 -0.0008425806 0.0025513119
000370 3a 5b e6 bb 2c 34 be 3b 82 10 06 bc 72 df 1f bc
       -0.007029918 0.005804559 -0.008182647 -0.009757863
000380 b5 40 e8 bb 27 49 d5 3c bd f9 50 3b 8c 8c ba 3c
       -0.007087792 0.026035858 0.0031887137 0.022772096
000390 0e 1c df 3c 00 da 89 3c 1c 2f c2 3c 3a cb fc 3c
       0.027235057 0.016827583 0.023704104 0.030858625
0003a0 2e 1e 05 3c f8 31 f1 3a 7f ba 00 3c 6e b6 af 3c
       0.008124871 0.0018401733 0.007856964 0.021449294
0003b0 b1 b3 80 3c cc 4c 5d 3c 36 bd 5a 3c c6 de 07 3d
       0.015710684 0.013507079 0.013350775 0.033171438
0003c0 f2 a8 6a 3c c7 4e 86 3c 11 2f 3d 3c dc 36 4a 3c
       0.014322506 0.016394986 0.011546866 0.012342181
0003d0 75 e8 1f 3d 92 dd 52 3c 17 6a 98 3c 42 d2 e2 3c
       0.039040048 0.012870209 0.018605275 0.02768815
0003e0 e3 9e f0 3c 78 c3 20 3d 3f 39 b4 bd 1b 7e 8d bd
       0.029372638 0.039248914 -0.08799981 -0.06908818
0003f0 87 4d 7a bd 61 d6 a1 bd 36 63 d7 bd 72 24 27 bd
       -0.061109092 -0.07902218 -0.1051697 -0.04080624

conv.10.bias f4 [64]
000000 b7 68 41 3e 71 e4 0d bd 12 58 9d bb b3 56 54 3e
       0.18887602 -0.034641687 -0.0048017586 0.20736198
000010 a0 82 e3 3e fe 1e dd 3e 26 58 a3 3e d9 7c 37 bd
       0.44435596 0.43187708 0.3190319 -0.0447968
000020 9e a4 3a 3e a1 91 51 3d 42 6c e8 bd 5b cd ea 3c
       0.18226859 0.051164273 -0.113487735 0.028662374
000030 92 80 81 3e 67 20 c8 3e be 46 b8 3d 26 cb 6f 3e
       0.25293404 0.3908722 0.08997868 0.23417339
000040 6d a4 47 3d 5e 5c 06 bb d0 75 3a 3e 83 6d f4 bb
       0.048740793 -0.0020501832 0.18209004 -0.007459344
000050 69 e2 a0 3e 17 17 6c 3d ad 90 a8 3e 20 e8 c9 3d
       0.31422737 0.057639208 0.3292288 0.098587275
000060 6f 4a 46 3e aa cc 08 3e bf 05 98 3e b5 a3 bf 3d
       0.19364332 0.13359323 0.29691884 0.093573965
000070 bc 6b 12 b8 2f 60 24 3e 30 16 86 3e d8 44 59 3d
       -3.4909448e-05 0.16052316 0.26188803 0.05304417
000080 a5 75 4b 3d 7c 36 b1 3e c0 47 26 3d d7 03 03 3e
       0.04967274 0.3461188 0.04059577 0.12794434
000090 ba 77 1f bc 01 32 db 3a 47 fb 16 3c f9 00 90 3e
       -0.009733135 0.0016723276 0.009215183 0.28125742
0000a0 e7 91 17 3e 13 e8 e1 3c 98 5a 87 3d 78 f6 27 3e
       0.14801751 0.027576482 0.06609076 0.16402614
0000b0 e9 5b 79 b9 6f 77 12 bb ed 44 aa 3c 3b 7b 82 3e
       -0.0002378073 -0.002234902 0.02078482 0.25484642
0000c0 ab eb 27 3e 18 e5 b5 3d 3e b7 4d 3e 83 7a dd 3e
       0.16398494 0.08881587 0.20089433 0.43257532
0000d0 0f 10 ea bc 81 ce 4b 3c f7 bd 44 bd de 08 af 3d
       -0.02857211 0.012439371 -0.048032727 0.08546613
0000e0 08 f8 1b 3f 94 09 5c 3e 9d bb 9d 3c c2 15 cf 3d
       0.6092534 0.21488029 0.0192545 0.10111572
0000f0 b4 98 49 3a 2e 4d fe 3d 8d 79 35 3e 97 71 0f 3e
       0.0007690296 0.124170646 0.17722149 0.14008175

lin.0.weight f4 [10, 64]
000000 b6 52 2f bf 6b 83 24 bf c5 67 e8 be dc f1 1d 3e
       -0.6848558 -0.6426303 -0.4539167 0.15424293
000010 16 e1 8d be 3d 64 34 3f 5b 31 a8 be ff e9 35 bd
       -0.2771079 0.7046545 -0.32850155 -0.04441261
000020 f8 91 d4 be 50 43 ba be 54 e3 12 bf dc 36 d7 3c
       -0.41517615 -0.3637948 -0.57378125 0.026271276
000030 40 a6 21 3f d7 60 9a 3f c7 60 b8 3d 96 f6 9a 3e
       0.631443 1.2060803 0.09002834 0.30266255
000040 a6 50 c7 be 7f e2 d0 bd ee 81 d7 3e c3 df 1e bf
       -0.38928717 -0.10199451 0.42091316 -0.62060183
000050 88 be e5 be a1 3f 5d bd 4f 10 e2 be 5e e3 c1 bc
       -0.44871926 -0.05401576 -0.44153067 -0.023667987
000060 fe 1c a8 be 76 3f d4 3d 05 8e fb 3e d0 d2 85 3d
       -0.3283462 0.10363667 0.4913179 0.0653435
000070 3f ac 89 be 11 cc e3 be df 0d 09 3f 91 dd 4f be
       -0.26889226 -0.44491628 0.5353679 -0.20299365
000080 bb 14 9b 3e ca 8a ce 3e 96 f4 8c 3e 03 b5 03 bf
       0.30289254 0.40340263 0.27530354 -0.51448077
000090 d1 2f 5e be 9d 58 36 be ba 92 7d 3e c3 ef 95 3e
       -0.21697928 -0.17807241 0.24763003 0.29284486
0000a0 54 88 9f be 86 8e ae be 93 6b 56 3e ac bd 47 be
       -0.31158698 -0.34093112 0.20939474 -0.19505948
0000b0 43 a3 8f 3e 68 9f c9 be e9 90 6f be bc 97 be 3e
       0.28054246 -0.3937943 -0.23395123 0.3722514
0000c0 91 7a ff be fc 47 2d be ad 06 01 bf a3 b8 41 3f
       -0.49898198 -0.16921991 -0.5040081 0.7567236
0000d0 44 91 27 bf 8f 22 0d 3d b6 1a 60 3e b7 03 83 be
       -0.6545603 0.034456786 0.2188519 -0.25588772
0000e0 35 fe ca 3e f5 9b 57 be 8b c1 0c bb 7e a3 47 3e
       0.3964707 -0.21055587 -0.0021477665 0.19495961
0000f0 48 d3 1f be a0 2b a4 be a7 71 ab 3e 6b c0 4b be
       -0.15607941 -0.32064533 0.33485147 -0.1989762
000100 7c 99 e3 bd c2 e2 2b bf 61 16 17 3f 0b d8 3f 3e
       -0.11113259 -0.6714288 0.5901852 0.18734758
000110 aa 4b 34 be 2f b7 8f be 59 85 4d 3e 1f d8 20 bf
       -0.17606989 -0.28069445 0.200704 -0.62829775
000120 d3 7b 8b 3e 15 03 10 bf 10 a2 02 bf 03 d9 81 3e
       0.27242908 -0.562547 -0.5102854 0.2536088
000130 f3 e3 23 3d 37 3f f5 be 50 78 13 bd fe c3 0e bf
       0.04001231 -0.47899792 -0.03600341 -0.5576781
000140 b3 a5 31 be 3a 0a 02 bf f0 f1 14 bf 87 b2 e9 3e
       -0.17348365 -0.50796854 -0.5818167 0.45644018
000150 44 04 1b bf d1 c9 cd 3e d6 63 9d be 4e e8 03 bf
       -0.60553384 0.40193036 -0.3074023 -0.51526344
000160 6a a2 c6 be e9 a1 34 bf d8 93 4f be be 8a 22 3f
       -0.38795787 -0.70559555 -0.20271242 0.63492954
000170 02 46 56 3e 90 df 88 be 17 b5 cc 3e fb 31 89 be
       0.20925143 -0.26733065 0.3998191 -0.26795945
000180 48 ee 04 be 9e 71 4a bf fc eb 0b bf 71 5b 2d 3e
       -0.12981522 -0.79079616 -0.5465696 0.16929413
000190 3a bd c6 3e 64 8e 85 be f6 3c fd be 1e 1e d8 3e
       0.38816243 -0.26085198 -0.49460572 0.42210478
0001a0 f5 5c 84 3e d6 b3 82 bd 53 ad fc 3e 93 a0 aa be
       0.2585217 -0.06381957 0.49350986 -0.33325633
0001b0 c7 b8 56 bf 05 fc 23 bf 90 cb bb be 97 39 10 3f
       -0.838757 -0.64056426 -0.36678743 0.56337875
0001c0 7a a8 09 3e 0c 63 93 3e 05 30 3f be fc 56 f0 be
       0.13443175 0.28786504 -0.18670662 -0.46941364
0001d0 d3 a9 05 3d 18 8b 2e bf 83 ce 27 bf d0 cd 74 3e
       0.03263266 -0.6818099 -0.65549487 0.23906636
0001e0 df b3 a8 3e a9 5b a5 3e bf d3 6f 3f 8c 4d 03 bf
       0.3294973 0.32296494 0.93682474 -0.512902
0001f0 f3 cb 38 3f 70 1d bd be 2d 56 39 bf 6f 7c 45 bf
       0.721862 -0.36936522 -0.7239712 -0.77142996
000200 e2 bc 41 bf 60 be 12 3e b2 95 fa be 8d 1e fc be
       -0.7567884 0.14330435 -0.48942333 -0.49242058
000210 ad 08 12 bf 85 30 0b bf 44 13 d8 be f4 e1 a4 3e
       -0.5704449 -0.5437091 -0.42202199 0.3220364
000220 fd 8e 94 be c4 6e 4e 3e 63 2f 60 3e 2e 2a 92 be
       -0.2901534 0.20159441 0.21893077 -0.28547806
000230 17 61 93 be 94 22 9f be 2e ec 2a bd 87 44 9a 3e
       -0.2878501 -0.3108107 -0.041729145 0.30130407
000240 3a fc 92 be ed fa 83 3e bb 4b 92 3e 68 3d f8 3e
       -0.2870806 0.2577738 0.28573403 0.4848435
000250 c0 19 0c bf 9a 7c a8 be 8b f3 91 3e ba 2e bc 3e
       -0.5472679 -0.32907563 0.2850612 0.367544
000260 af 26 0d bf 2b a2 83 3e 1c c4 17 bf c1 12 81 be
       -0.5513715 0.25709662 -0.59283614 -0.2520962
000270 48 73 7a be fb f8 61 3d 01 30 bc be 23 ff db 3d
       -0.24458039 0.055169087 -0.36755374 0.10742023
000280 54 a0 c3 be 9c 06 06 3e a1 16 23 3d ac 3e 45 be
       -0.38208258 0.13088459 0.039816502 -0.19262189
000290 be e3 83 3d 10 9b b8 bd b6 4a 79 3e 49 77 ec be
       0.06439923 -0.09013951 0.24344906 -0.46184757
0002a0 77 db b7 be e7 5e cc bd de 96 87 be fc 22 f8 be
       -0.35909626 -0.09979039 -0.2648229 -0.4846419
0002b0 d5 79 22 be 0d 93 06 3e 1c e3 49 bd 19 f4 a1 be
       -0.15866788 0.13142033 -0.049288854 -0.31631544
0002c0 91 82 d3 bd 1f 67 e8 3e b2 92 92 3e 0e 7a ab be
       -0.10327638 0.45391175 0.28627545 -0.33491558
0002d0 36 ee 00 be 08 0b a5 3d b4 87 37 be 61 75 35 be
       -0.1259087 0.08058745 -0.1792286 -0.17720558
0002e0 b9 e8 f2 be 40 a7 c7 be 89 40 e7 3e 62 a7 5a 3e
       -0.47443178 -0.3899479 0.45166424 0.21352914
0002f0 39 95 05 3f 38 8c 78 3e 89 7e ba 3e 67 86 3b 3e
       0.5218082 0.24272239 0.36424664 0.18312989
000300 4c aa 13 bf 38 9c 15 3e e1 59 78 be b5 df b1 be
       -0.5768173 0.14610374 -0.24253036 -0.34740987
000310 72 21 10 bf 65 56 1b bf dd ff be be 10 07 db 3e
       -0.56301033 -0.606787 -0.37304583 0.42778826
000320 4d 26 a6 be 78 c1 62 3e 10 c8 9e 3e 6a c1 5a be
       -0.32451096 0.22144115 0.3101201 -0.21362844
000330 df f1 e0 be 21 c2 c1 be 5f 89 1c bf f5 56 b6 3e
       -0.43934533 -0.3784342 -0.6114711 0.35613218
000340 4e 01 b3 be ae e3 6a 3e d0 1d 04 3f 71 c9 58 be
       -0.34961933 0.22938415 0.5160799 -0.21170594
000350 6f 11 03 bf 41 e3 78 3e 68 bd 40 be 7c 75 e2 3e
       -0.51198477 0.2430544 -0.18822253 0.44230258
000360 64 64 ec be ae 35 86 3e 65 23 e0 be f5 e8 2a bf
       -0.46170342 0.2621283 -0.43777004 -0.66761714
000370 3d f6 be bd 89 a2 47 be 4e 17 e9 be 9a e3 ac be
       -0.0932431 -0.19495596 -0.45525593 -0.33767396
000380 63 3b 62 3e 2e f2 9c 3e 2a be cf 3d da 90 95 be
       0.22092967 0.30653518 0.10143693 -0.29212075
000390 97 e7 44 bd f2 7f 07 be 8a bf e9 3e 1b 23 28 bf
       -0.048072424 -0.13232401 0.45653945 -0.65678567
0003a0 7c a5 04 be e1 1e e2 3d 90 ae 49 be 78 d2 88 be
       -0.12953752 0.11041046 -0.19695497 -0.26723075
0003b0 5b 1c c4 3e de 5f 12 3e 49 c6 bd bd 70 6a f3 be
       0.38302884 0.14294383 -0.092663355 -0.47542143
0003c0 45 05 dc be 40 00 cc 3e 57 b2 62 be 57 de a8 be
       -0.4297277 0.3984394 -0.22138344 -0.32982132
0003d0 e8 cc 20 be 0b 79 41 3e 6b 24 98 be 23 cd 1c 3e
       -0.15703166 0.1889383 -0.29715285 0.15312628
0003e0 a0 08 30 bf f4 3b 7a 3d 64 83 dc 3e b9 2f 9e 3e
       -0.6876316 0.061092332 0.43068993 0.30895784
0003f0 89 70 ef 3e 60 31 b6 bd 12 14 db 3e 6b 35 01 3a
       0.46765545 -0.08896136 0.4278875 0.00049289194

lin.0.bias f4 [10]
000000 f4 b4 59 3d 15 81 46 bd ba 9e 16 be 87 1a d3 be
       0.053151086 -0.048462946 -0.14708987 -0.41231176
000010 6d 86 71 3e 4f 7a a5 3e ff a2 2c bf 00 cb 2a bc
       0.23586436 0.32319877 -0.6743621 -0.0104243755
000020 75 80 02 3e 21 2b 9b 3e
       0.12744315 0.30306342
