Simulator/models/stop_line_estimator_advanced.pt (torch, 68728 bytes, 14 tensors)

conv.0.weight f4 [4, 1, 5, 5]
0	0x3ce5a9e0	0.028035104
1	0xbc66ed41	-0.014094652
2	0xbbe61bad	-0.007022342
3	0x3c9eb632	0.019373987
4	0x3cd1840b	0.025575658
5	0x3cc1d8d5	0.023662964
6	0x3dd0996f	0.10185515
7	0x3d9a4a5a	0.07533713
8	0x3af00fda	0.0018315271
9	0xbc2abe93	-0.010421413
10	0xbdf5fd32	-0.12011184
11	0xbdc2bc5c	-0.09508583
12	0x3771b71a	1.4407351e-05
13	0x3d452fdf	0.048141357
14	0x3c3b7b40	0.011442959
15	0xbe451b78	-0.1924876
16	0xbe7fd48a	-0.24983421
17	0xbeb2e94a	-0.3494361
18	0xbe9eb025	-0.30993763
19	0xbe3e655d	-0.18593355
20	0x3dc92196	0.09820859
21	0x3e4f921b	0.20270579
22	0x3e75a4bd	0.23988624
23	0x3e1acca6	0.1511713
24	0x3cd3b509	0.02584316
25	0x3e055f42	0.13024619
26	0x3e3c0270	0.18360305
27	0x3e2de2a1	0.16980983
28	0x3dafab5c	0.08577606
29	0x3b9c4198	0.0047685616
30	0x3e632bb1	0.22184636
31	0x3d9ab0ac	0.07553229
32	0xbdba0c8c	-0.090844244
33	0xbe0f85e8	-0.14015925
34	0xbdf100b0	-0.11767709
35	0x3c0c084e	0.008546902
36	0xbbf58893	-0.0074930876
37	0xbdd3b15b	-0.10336562
38	0xbdd61aae	-0.104543075
39	0xbdb82370	-0.08991134
40	0x3d5870d9	0.052841995
41	0xbd9a9433	-0.07547798
42	0xbdc2b7b0	-0.09507692
43	0xbdd2170d	-0.10258303
44	0xbd03aa78	-0.032144994
45	0xbe00cc69	-0.12577976
46	0xbe6ec2fc	-0.23316568
47	0xbe10b301	-0.14130785
48	0xbc1c3fd1	-0.009536699
49	0x3c24e210	0.010063663
50	0xbd51f455	-0.051258404
51	0xbd2f0056	-0.04272493
52	0x3d907ae8	0.070546925
53	0xbd973843	-0.07383778
54	0xbc80db4f	-0.015729574
55	0x3d5508d9	0.05201039
56	0xbb3846e5	-0.0028118428
57	0xbe4eda16	-0.2020038
58	0x3d517bcc	0.051143453
59	0xbcde62db	-0.027146747
60	0x3e068a97	0.13138805
61	0x3e17be12	0.148186
62	0xbeac0a30	-0.33601522
63	0xbd177da3	-0.03698505
64	0x3dc4687f	0.095902435
65	0x3d71d901	0.05904484
66	0x3e3bf0fc	0.18353647
67	0xbe73b5d5	-0.23799832
68	0xbdf7a07f	-0.12091159
69	0x3e19b5eb	0.15010802
70	0x3ac1c5f2	0.0014783724
71	0x3b77a785	0.0037789058
72	0x3d058491	0.03259713
73	0xbe364990	-0.178015
74	0x3d7628f2	0.060097642
75	0xbde2471e	-0.11048721
76	0xbd3e995e	-0.04653298
77	0xbca4a966	-0.020100307
78	0xbb428299	-0.0029679893
79	0xbda14ed0	-0.078763604
80	0xbe1c1c01	-0.15245058
81	0xbd968f62	-0.07351567
82	0xbab8c6b0	-0.00140973
83	0xbbb5f43a	-0.0055527957
84	0xbd92b0c3	-0.07162621
85	0x3c1ae057	0.009452901
86	0x3d8b489f	0.06800961
87	0x3dd5480f	0.10414135
88	0x3cc616ca	0.024180789
89	0xbd684a01	-0.0567112
90	0x3e844eb6	0.25841302
91	0x3e7ae440	0.24501133
92	0x3e2e1f5f	0.17004155
93	0xbc6e3b13	-0.014540452
94	0xbb28b9f3	-0.00257456
95	0x3e454f71	0.19268586
96	0x3de86ace	0.113484964
97	0x3d863fe2	0.065551534
98	0xbc4d79f7	-0.012541286
99	0x3c10d171	0.008838997

conv.0.bias f4 [4]
0	0xbf0d902f	-0.5529813
1	0xbdd9ceab	-0.10635122
2	0xbda64465	-0.08118514
3	0xbdc4159a	-0.09574433

conv.4.weight f4 [4]
0	0x3f51910f	0.81861967
1	0x3f73b236	0.95193803
2	0x3f55465c	0.83310485
3	0x3f68ce1c	0.909395

conv.4.bias f4 [4]
0	0x3d984cb0	0.07436502
1	0x3df717ba	0.12065072
2	0xbdc51090	-0.096223
3	0x3e2a279c	0.16616672

conv.4.running_mean f4 [4]
0	0x404bac7e	3.182403
1	0x40bcacfe	5.896117
2	0x40a8c828	5.274433
3	0x4251956d	52.395924

conv.4.running_var f4 [4]
0	0x42a59ac2	82.80226
1	0x43820f78	260.12085
2	0x42f0674a	120.20174
3	0x44b7d9f4	1470.811

conv.6.weight f4 [8, 4, 5, 5]
0	0x3b1a3221	0.0023528414
1	0xbc294a0d	-0.0103325965
2	0xbc72647c	-0.014794465
3	0xbd0bdf96	-0.034148775
4	0xbd78f81e	-0.060783498
5	0x3c8e70f2	0.01738784
6	0x3b917b9c	0.004439784
7	0xbb1c6c3a	-0.002386822
8	0xbca22271	-0.019791814
9	0xbd123510	-0.035695136
10	0xbb431a8c	-0.0029770462
11	0xbb33025f	-0.0027314646
12	0xbad7a067	-0.0016451002
13	0xbd1fc9b7	-0.03901073
14	0xbd3a614a	-0.04550294
15	0xbba8edb7	-0.005155291
16	0xbc098d95	-0.008395572
17	0xbbaef947	-0.005339775
18	0xbcdd47e2	-0.027011815
19	0xbd98f2bf	-0.07468175
20	0xbd5e816f	-0.054322656
21	0xbd59ee65	-0.053205866
22	0xbd6e4c4c	-0.05817823
23	0xbd9ec814	-0.077530056
24	0xbdd8de44	-0.10589269
25	0xbdc7a3ef	-0.09748065
26	0xbcb07c77	-0.021543724
27	0xbc19dc37	-0.009390882
28	0x3bb3e252	0.005489626
29	0xbd2966f3	-0.041357946
30	0xbd474326	-0.048648022
31	0xbd3d049b	-0.04614697
32	0xbcc92667	-0.024554444
33	0x3c3bf36d	0.011471611
34	0xbcd0df6c	-0.02549716
35	0xbc9b67b9	-0.018970357
36	0xbbc04522	-0.0058676163
37	0x3ba1e5ea	0.004940738
38	0x3cfa469c	0.030551247
39	0x3c1a8024	0.009429965
40	0xbc0abe36	-0.008468201
41	0x3d22cc9e	0.03974592
42	0x3d4ca720	0.04996407
43	0x3e1af25f	0.1513152
44	0x3d2e2c4f	0.042522725
45	0xbcf784ed	-0.030214751
46	0xbbed1944	-0.007235678
47	0x3caf6282	0.021409277
48	0x3cf51285	0.029916057
49	0x3d5d260d	0.053991366
50	0xbcd0a3ef	-0.025468795
51	0x3ac0a4c0	0.0014697537
52	0x3b80cc3a	0.0039305957
53	0xbcf9e499	-0.030504512
54	0x3cb10a88	0.021611467
55	0x3e060ed6	0.13091597
56	0x3dafaff2	0.08578481
57	0x3d8c5e31	0.06853903
58	0x3d1fded8	0.03903088
59	0x3cdcb2db	0.026940754
60	0x3e0fc177	0.14038645
61	0x3e3cd138	0.18439186
62	0x3df4225e	0.119206175
63	0x3dd2c12d	0.102907516
64	0x3dca551f	0.09879517
65	0x3b26ceea	0.002545292
66	0xbc5d02eb	-0.013489465
67	0xbd35dbd2	-0.04439909
68	0x3cfa6cab	0.030569395
69	0x3d1a5b9d	0.037685025
70	0xba4d6c22	-0.00078362424
71	0xbcbc1c43	-0.022962695
72	0xbc26a2e3	-0.010170671
73	0xbd04026d	-0.032228876
74	0xbcb3117a	-0.02185892
75	0x3d1c2c42	0.038128145
76	0x3d9b6b3d	0.075888135
77	0x3d8c56dd	0.06852505
78	0x3ce52306	0.027970802
79	0xbc72725a	-0.014797771
80	0x3d383e45	0.04498126
81	0x3e0a61d5	0.13513882
82	0x3dc68a80	0.096943855
83	0x3d1e39dd	0.0386294
84	0x3e156524	0.14589363
85	0x3d5b7fb6	0.05358859
86	0x3d7ca55c	0.061681136
87	0x3d7afdbc	0.061277136
88	0x3df2df20	0.11858964
89	0x3db1ef37	0.08688205
90	0x3ba492c3	0.005022378
91	0x3dacab9b	0.08431169
92	0x3d302e92	0.043013163
93	0xbc844a50	-0.016148716
94	0x3d6324a7	0.055454876
95	0xbd5f5ad3	-0.054529976
96	0xbd0e6cc8	-0.03477171
97	0x3c47b52f	0.012189194
98	0x3cc6ad0d	0.024252439
99	0xbd3911cd	-0.04518299
100	0xbc9f7a74	-0.01946757
101	0x3cc7437d	0.024324173
102	0x391259c7	0.0001395709
103	0x3c3a2f8f	0.011363878
104	0x3c1f510f	0.009723916
105	0x3b9cbcfe	0.004783272
106	0xbc89c92e	-0.016819563
107	0x3c785266	0.015156364
108	0xbc6e8afe	-0.0145595055
109	0xbd11ac97	-0.035564985
110	0x3d2fd0d1	0.042923752
111	0xba75a06b	-0.00093699124
112	0xbd73130b	-0.059344333
113	0xbd3d12ff	-0.046160694
114	0x3c940e3c	0.018073194
115	0xbd667610	-0.056264937
116	0xbceea248	-0.029130116
117	0x3d04f7fe	0.032463066
118	0xbd02abab	-0.031901997
119	0xbe03fb44	-0.12888819
120	0xbd77cca5	-0.0604979
121	0xbc8cf7d2	-0.017208014
122	0x3d1156d6	0.035483204
123	0xbc894990	-0.01675871
124	0xbd761f52	-0.060088463
125	0xbdbfc945	-0.09364561
126	0xbd104f9e	-0.03523218
127	0x3b68bfb5	0.0035514657
128	0x3d023a1b	0.031793695
129	0x3d6766a4	0.05649437
130	0xbd9b1c78	-0.07573789
131	0x3c19dbd1	0.009390787
132	0x3ce72eab	0.028220495
133	0x3d5cf005	0.053939838
134	0x3d98d979	0.074633546
135	0xbda045e2	-0.07825829
136	0xbc7fb979	-0.015608185
137	0x3c68d3fd	0.014210698
138	0x3c8818bd	0.016613359
139	0x3dd31182	0.10306074
140	0xbdd6dbf8	-0.104911745
141	0xbdde3b6e	-0.10851179
142	0xbd6026c5	-0.054724474
143	0x3b557ff8	0.0032577496
144	0xbd7c808c	-0.06164603
145	0xbdb85d77	-0.09002202
146	0xbe0d1b9c	-0.13780063
147	0xbe1c5176	-0.1526545
148	0xbdc96634	-0.09833947
149	0x3d47f678	0.048819035
150	0x3e4e4686	0.2014409
151	0x3e4d596b	0.20053641
152	0x3e2db9fc	0.16965479
153	0x3df101ba	0.117679074
154	0x3d5f4026	0.054504536
155	0x3b748bc9	0.0037314764
156	0x3c764100	0.015030146
157	0x3d33f83f	0.043937918
158	0x3d8d8886	0.069108054
159	0x3daac7aa	0.08338864
160	0x3db1902a	0.08670075
161	0x3d1752df	0.036944266
162	0xbd695e0a	-0.05697445
163	0xbc917e0a	-0.017760295
164	0xbd2a33e0	-0.041553378
165	0x3e143a67	0.14475404
166	0x3e2e0f57	0.16998039
167	0x3dc517fe	0.09623717
168	0xbde7e383	-0.11322691
169	0xbd7eb6b0	-0.062185943
170	0x3e70a3d5	0.23499997
171	0x3dd9d3d0	0.10636103
172	0x3dbdc000	0.09265137
173	0x3e23d00a	0.1599733
174	0x3c95f61e	0.018305834
175	0xbde8b0e1	-0.11361862
176	0xbc73c679	-0.014878863
177	0x3d81a3cf	0.06330072
178	0x3d2cdb5a	0.042201377
179	0x3c90699a	0.01762848
180	0xbe07e79e	-0.13271949
181	0xbe10250f	-0.14076637
182	0xbd3f9388	-0.046771556
183	0xbca07555	-0.019587198
184	0x3c4685cb	0.01211686
185	0xbc750ced	-0.014956695
186	0xbd4e2cd4	-0.05033572
187	0xbdf3af65	-0.11898688
188	0xbdc96828	-0.09834319
189	0xbad26dc1	-0.0016054438
190	0xbdaf6593	-0.085642956
191	0xbdb6489b	-0.08900567
192	0xbdf52c87	-0.119713835
193	0xbc4151b9	-0.011799269
194	0x3b0922b5	0.0020925228
195	0xbe42fcd1	-0.19041754
196	0xbe01df07	-0.12682734
197	0x3d380751	0.044928852
198	0x3da5aed0	0.080899835
199	0xbce32269	-0.027726369
200	0xbc7e6eef	-0.015529378
201	0xbd35bf0a	-0.044371642
202	0xbd62f421	-0.0554086
203	0xbd7558a1	-0.059898976
204	0xbd455fa2	-0.048186906
205	0x3b8e43b1	0.0043415655
206	0xbd0cdcd0	-0.03439027
207	0xbd74a357	-0.059726086
208	0xbd71c188	-0.059022456
209	0xbd8bf2a6	-0.06833391
210	0x3c664d5e	0.014056532
211	0xbd3bdd8f	-0.04586559
212	0xbd82533d	-0.06363533
213	0xbd7a729d	-0.06114446
214	0xbd7075a7	-0.058705952
215	0x3cdfd23a	0.027321924
216	0x3a2e4556	0.0006647905
217	0xbd277540	-0.040883303
218	0xbd9c4dc9	-0.07632024
219	0xbcabfa7e	-0.020993467
220	0xbde7c3e9	-0.11316664
221	0xbd62169d	-0.055197347
222	0x3c963b2d	0.018338764
223	0xbba3da20	-0.0050003678
224	0xbe06ab29	-0.1315123
225	0xbcae8887	-0.021305336
226	0x3ccb3eb1	0.024810167
227	0x392794c8	0.00015981786
228	0x3c9b0712	0.01892427
229	0x3bc4e4da	0.0060087265
230	0xbccf1439	-0.025278198
231	0x3d06bf48	0.032897264
232	0xbcb00768	-0.021487907
233	0x3d57370c	0.05254273
234	0x3db2cccd	0.08730469
235	0x3be5c3eb	0.0070118806
236	0x3cf6efec	0.0301437
237	0x3d84603d	0.064636685
238	0x3d2b8060	0.041870475
239	0x3d6232dc	0.055224285
240	0x3b663778	0.0035128277
241	0x3d8ca47e	0.06867312
242	0x3d657633	0.056020927
243	0x3d9e573a	0.07731481
244	0x3da0c502	0.07850076
245	0xbc8c5e97	-0.017134948
246	0x3cab51dd	0.020913059
247	0x3cca61ea	0.024704892
248	0xbdc5ccac	-0.09658179
249	0x3d84b5c2	0.0647998
250	0x3cfe64b7	0.031053884
251	0xbae24e51	-0.0017265772
252	0x3c497068	0.012294866
253	0x3c508fa5	0.01272956
254	0xbd145e70	-0.036222875
255	0x3d0f1e82	0.034941204

conv.6.bias f4 [8]
0	0xbe8c9851	-0.27459958
1	0xbd6843ef	-0.05670541
2	0xbd7b9db3	-0.06142969
3	0xbcce8afe	-0.025212761
4	0xbe8449ae	-0.25837463
5	0x3cb19c4b	0.021680972
6	0x3e81b736	0.2533509
7	0xbe74d285	-0.23908432

conv.11.weight f4 [64, 8, 5, 5]
0	0x3d4520a1	0.04812682
1	0x3d41de75	0.047331292
2	0x3cfdd20f	0.030983953
3	0xbd22ad01	-0.03971577
4	0xbb71be82	-0.0036887233
5	0xbc99dd89	-0.018782394
6	0x3d324389	0.043521438
7	0x3c6a2e2c	0.014293235
8	0x3d7b9163	0.06141795
9	0xbc395cb0	-0.011313602
10	0x3df5914b	0.11990603
11	0x3d1803d9	0.037113044
12	0x3d14c6d1	0.03632242
13	0x3c8f05bb	0.017458787
14	0xbcbfc9ab	-0.023411592
15	0x3da62e52	0.08114304
16	0x3d8fb1c8	0.07016331
17	0x3d228de1	0.039686088
18	0xbc842324	-0.016130038
19	0x3d040d4c	0.032239243
20	0x3d778578	0.06043002
21	0x3b83e43f	0.004025012
22	0x3c388b35	0.011263658
23	0x3d4517f3	0.048118543
24	0x3d6dd707	0.058066394
25	0x3e0ea235	0.13929065
26	0x3d3db510	0.046315253
27	0x3da13d30	0.07872999
28	0x3deee8dc	0.11665508
29	0x3dfe2153	0.124087
30	0xbd0f4557	-0.034978237
31	0x3b034110	0.0020027794
32	0xbab1aaaa	-0.001355489
33	0xbc0601b2	-0.008179115
34	0xbc29e2b7	-0.010368994
35	0xbcd55287	-0.026040329
36	0x3cf4b122	0.02986962
37	0xbc996684	-0.018725641
38	0x3b8305e5	0.0039985054
39	0xbd71763f	-0.05895066
40	0xbb7f7aef	-0.0038983186
41	0x3d6617e1	0.056175116
42	0x3d0ec463	0.034855258
43	0x3c7be597	0.015374563
44	0xbbdcbbc6	-0.0067362515
45	0xbd302b6e	-0.043010168
46	0xbd085262	-0.03328169
47	0xba28b5df	-0.00064357923
48	0xbc5a9a1f	-0.013342409
49	0x3c25baa6	0.010115301
50	0xbcf32d60	-0.029684722
51	0x3cbd31d8	0.023095056
52	0x3be3c82e	0.0069513535
53	0x3d675d1b	0.056485277
54	0xbbfabd26	-0.007651943
55	0x3c5a4891	0.013322965
56	0x3d343488	0.04399541
57	0x3d1c97b9	0.03823063
58	0x3d06430b	0.03277878
59	0x3d35439b	0.044253927
60	0x3c5dd135	0.013538648
61	0xbbae0750	-0.0053109303
62	0x3b657f30	0.0035018437
63	0x3c892566	0.016741466
64	0x3d297345	0.041369695
65	0xbc882d37	-0.016623123
66	0xbc8bcd36	-0.017065626
67	0xbc53ebce	-0.012934638
68	0xbd3c6683	-0.0459962
69	0x3bca6ade	0.0061772903
70	0xbcdef957	-0.027218504
71	0xbc958be5	-0.018255183
72	0x3b0e9608	0.0021756906
73	0xbc4172c3	-0.0118071465
74	0xbdccf6a0	-0.100079775
75	0xbeb8feba	-0.3613184
76	0xbe8a28c2	-0.2698422
77	0xbe6d2cd4	-0.23161632
78	0xbe205be3	-0.15660052
79	0xbd773517	-0.060353365
80	0x3cc46913	0.023975885
81	0x3d3e9dd6	0.046537243
82	0xbb6c8c52	-0.003609438
83	0x3c0f222f	0.008736177
84	0x3b49891f	0.0030751897
85	0x3d1fe63f	0.03903794
86	0x3c3caf10	0.0115163475
87	0x3c6b4d69	0.014361718
88	0x3bc0a714	0.0058792923
89	0x3d0a462b	0.033758324
90	0xb9a91454	-0.00032249338
91	0x3d0a6a6a	0.03379289
92	0x3d22abb1	0.03971452
93	0x3c5ba0f6	0.013405075
94	0xbc33934c	-0.010960411
95	0x3cb3fb43	0.021970397
96	0x3c771081	0.015079618
97	0x3cf1553a	0.029459585
98	0xbcbaf095	-0.022819797
99	0xbc07b06c	-0.008281808
100	0xbe175519	-0.14778556
101	0xbd94ce03	-0.07265856
102	0xbc6db0c5	-0.014507477
103	0x3ca1aace	0.019734766
104	0x3de95445	0.11393026
105	0xbc95de89	-0.01829459
106	0x3c1db41a	0.009625459
107	0x3d1dceb1	0.038527194
108	0x3cd92ca1	0.026510539
109	0x3d9c487b	0.07631012
110	0xbd536e34	-0.05161877
111	0xbce7e4a2	-0.028307263
112	0x3b0a561f	0.002110846
113	0xbc1e2f37	-0.009654812
114	0x3cf24cc9	0.02957763
115	0xbdaa70ce	-0.08322297
116	0x3bd2b82c	0.0064306464
117	0xbc949b9f	-0.018140612
118	0x3d079da2	0.033109315
119	0xbc5eeb0e	-0.013605846
120	0xbd70bfc1	-0.05877662
121	0xbd0971ed	-0.033555914
122	0x3d34ba58	0.044123024
123	0xbbbfb2c0	-0.005850166
124	0x3c82648d	0.015917087
125	0xbe5fc8b4	-0.21853906
126	0xbdf3b1ad	-0.11899123
127	0xbce8d552	-0.028422032
128	0xbcbfdbd0	-0.023420244
129	0xbd614bbd	-0.05500387
130	0xbe0d14bd	-0.13777442
131	0xbd95890e	-0.07301532
132	0xbd165a39	-0.036707137
133	0x3bd44c60	0.006478831
134	0xbba88277	-0.0051425057
135	0xbda7df1b	-0.08196851
136	0xbcea640b	-0.028612157
137	0xbcfba7ee	-0.030719724
138	0xbc4a37b1	-0.012342379
139	0xbbb3b999	-0.0054847714
140	0xbdbe37d5	-0.09287993
141	0xbd60725c	-0.05479656
142	0xbbec8d47	-0.00721899
143	0x3c7e5471	0.015523062
144	0x3cfa118b	0.030525943
145	0xbd63a8c4	-0.05558087
146	0xbc2ac261	-0.01042232
147	0x3ccef275	0.025262097
148	0x3c8ff98a	0.017575044
149	0x3d651d72	0.055936284
150	0xbe921afb	-0.2853621
151	0xbe55530b	-0.2083246
152	0xbe05fa40	-0.13083744
153	0xbe11c884	-0.14236647
154	0xbe03b459	-0.12861766
155	0xbd0dc797	-0.03461417
156	0x3cee0254	0.029053845
157	0xba912914	-0.0011074864
158	0xbd10d3b9	-0.035358164
159	0xbd168de7	-0.036756422
160	0xbd7dfeb9	-0.0620105
161	0xbd0402db	-0.032229286
162	0xbd03892f	-0.03211325
163	0xbbf697b6	-0.0075254096
164	0x3c39da5b	0.011343564
165	0xbdc25a66	-0.094898984
166	0xbd5c4f5b	-0.053786617
167	0xbc486976	-0.012232175
168	0xbd419da9	-0.047269497
169	0xbd3669a0	-0.044534326
170	0xbdadcc7a	-0.084862664
171	0xbd125909	-0.03572944
172	0x3c5baa60	0.01340732
173	0xbd35412e	-0.044251613
174	0xbd075201	-0.03303719
175	0xbddd3727	-0.10801535
176	0xbd9c10a4	-0.076203614
177	0xbddb778e	-0.107161626
178	0xbdd92c36	-0.10604136
179	0xbd52a27b	-0.051424485
180	0xbd8bce8b	-0.06826504
181	0xbd5a6bc1	-0.05332542
182	0xbca183b3	-0.01971612
183	0x3cfd184d	0.030895377
184	0x3d2c57f9	0.042076085
185	0xbbf056ec	-0.0073345806
186	0xbcd3e99d	-0.025868231
187	0xbd468d30	-0.04847449
188	0xbc7a87c8	-0.015291162
189	0x3bda41ad	0.006660661
190	0x3dc9a3fc	0.09845731
191	0x3d1c92ea	0.038226046
192	0xbd0bf485	-0.03416874
193	0xbc3fb7be	-0.011701522
194	0xbd1c758e	-0.038198046
195	0x3dae372e	0.085066184
196	0xbd4adf89	-0.049529586
197	0xbd0314d9	-0.032002304
198	0x3b8ff4ac	0.004393181
199	0x3ada73b8	0.0016666567
200	0x3d1b61dc	0.037935123
201	0x3c908116	0.017639678
202	0xbcc5b049	-0.02413191
203	0xbd70e8d4	-0.058815792
204	0xbd3f71bc	-0.046739325
205	0x3d6e1a44	0.058130518
206	0x3c7a68b4	0.015283752
207	0xbbecf9f6	-0.007231946
208	0x3b251e71	0.0025195146
209	0xbc82b673	-0.01595614
210	0xbc935b36	-0.017987829
211	0xbd811f46	-0.06304793
212	0xbd8fb4bd	-0.07016895
213	0xbd88a7cd	-0.066726305
214	0xbce2fa95	-0.027707377
215	0xbd58511c	-0.052811727
216	0xbcd036af	-0.0254167
217	0xbc6665a2	-0.014062317
218	0x3b756882	0.0037446325
219	0xbd5c5d88	-0.053800136
220	0xbd185917	-0.037194338
221	0xbb7301f2	-0.0037080017
222	0x3cf731a8	0.030175045
223	0xbb92b541	-0.0044771736
224	0xbd464604	-0.048406616
225	0xbd82d4ae	-0.06388222
226	0xbb834b12	-0.004006752
227	0xbcc8a2c6	-0.024491679
228	0x3c95593b	0.018231025
229	0xba50c368	-0.0007963688
230	0xbcfc9866	-0.030834388
231	0xbd0becae	-0.034161262
232	0xbbaf49d9	-0.0053493795
233	0xbd16f860	-0.036857963
234	0xbdb31606	-0.08744435
235	0x3c7f108a	0.015567908
236	0x3d560558	0.05225119
237	0x3cc02243	0.023453837
238	0x3cf6e9cb	0.030140778
239	0xbace9377	-0.0015760501
240	0xbc6fce8e	-0.014636649
241	0xbd36a9f3	-0.04459567
242	0x3cb3aa05	0.021931658
243	0x3d830da5	0.06399087
244	0x3c5d3675	0.013501753
245	0xbc7f4aff	-0.015581845
246	0x3c9d7147	0.019219054
247	0x3c3f1b2c	0.011664193
248	0x3d446378	0.047946423
249	0xbd8a7f5a	-0.06762572
250	0xbc9a436d	-0.01883098
251	0x3c5ae43d	0.01336008
252	0x3d10a36c	0.0353121
253	0x3d67e2c5	0.05661275
254	0x3d05a916	0.032631956
255	0x3cfae2f0	0.03062579

conv.11.bias f4 [64]
0	0x3e4d69d2	0.20059898
1	0xba605dfa	-0.00085589255
2	0x3d638915	0.055550653
3	0xbb92ac9e	-0.004476144
4	0x3a7459c2	0.0009321236
5	0xbd960979	-0.073260255
6	0x3e7cba91	0.24680544
7	0xb4f74031	-4.605404e-07
8	0xb38c1aeb	-6.5241544e-08
9	0xbb9389a6	-0.004502493
10	0xbd64ff6c	-0.05590765
11	0x3e49f47d	0.19722171
12	0xbeb50e2b	-0.35362372
13	0xbed8c38d	-0.42336693
14	0x3b490de2	0.003067844
15	0x3e506425	0.20350702
16	0x3e82ca8e	0.25545162
17	0xbbc5e016	-0.006038676
18	0x3dec37e8	0.11534101
19	0x3df26c68	0.11837083
20	0x3d9b7d84	0.075922996
21	0xbb1f68fb	-0.0024324048
22	0x3d91a93a	0.071123555
23	0x3e6140f1	0.2199743
24	0xb28159a6	-1.5058344e-08
25	0x3e004a4c	0.12528342
26	0xbc070e09	-0.008243092
27	0xbd233f9e	-0.039855592
28	0x3e3abef3	0.18236904
29	0xbb389ecc	-0.0028170822
30	0xbc3ec745	-0.011644189
31	0xb7d93c85	-2.5896597e-05
32	0x3e3b2542	0.18275931
33	0x3bd63057	0.0065365243
34	0x3eacf93c	0.337839
35	0xb186e2c9	-3.9256958e-09
36	0xbc074294	-0.00825562
37	0xbd892578	-0.066966
38	0x3eabf4d8	0.33585238
39	0x3d2878a3	0.041130673
40	0xb7b24013	-2.124909e-05
41	0xbcb7dafd	-0.022443289
42	0x3e6a7ed5	0.22899945
43	0x3d2a4c7e	0.041576855
44	0xb8812b3b	-6.159252e-05
45	0x3e915c8f	0.2839093
46	0xbb7fa6e1	-0.003900938
47	0xb882fc7a	-6.2459105e-05
48	0x3d2fb376	0.042895757
49	0x3d12cf2e	0.035842113
50	0x3ef7c86c	0.48395097
51	0x3db707db	0.08937045
52	0xbdf196a9	-0.11796314
53	0x3dffd4bc	0.12491748
54	0xbc8ceee7	-0.017203761
55	0x3de654b9	0.11246628
56	0xb994bab0	-0.00028367853
57	0xbc0a7a88	-0.008452065
58	0xb656fc36	-3.203529e-06
59	0xbbe9d2a0	-0.007135704
60	0xbd488ce3	-0.048962485
61	0xb6fba51c	-7.499604e-06
62	0xb6b32eda	-5.34007e-06
63	0xae461755	-4.504071e-11

lin.0.weight f4 [32, 64]
0	0x3e02bbfa	0.1276702
1	0xbc9e7068	-0.019340709
2	0xbba152e6	-0.0049232123
3	0x3a8aaa55	0.0010579327
4	0x3abbd0c2	0.0014329182
5	0xbb347992	-0.0027538282
6	0x3d222b7e	0.03959226
7	0x2c7603c5	3.4960795e-12
8	0x3880a583	6.1343446e-05
9	0x3b2a6272	0.002599862
10	0xbd0b39ae	-0.033990555
11	0x3dd2882d	0.1027988
12	0xbd7f4e75	-0.06233068
13	0x3df25809	0.118331976
14	0x3da97bc0	0.082755566
15	0x3c595b98	0.013266467
16	0xbc182b17	-0.009287617
17	0x3b166451	0.0022947977
18	0x3dacc8b1	0.08436716
19	0x3da3d6be	0.07999943
20	0xbd0aa801	-0.033851627
21	0xb92bdb74	-0.00016389583
22	0xbd58d6b3	-0.052939128
23	0xbcfaf28f	-0.03063324
24	0xb1a65f21	-4.8420508e-09
25	0x3df1de06	0.11809926
26	0x3a4cb856	0.00078094506
27	0x3d5b3cbd	0.05352472
28	0x3cd93af2	0.026517365
29	0xbb8d5b36	-0.0043138517
30	0x3dbdfc34	0.092766196
31	0x3644bf76	2.931772e-06
32	0x3ddca842	0.1077428
33	0x3dbd7cb7	0.09252303
34	0x3c884453	0.016634142
35	0xb8148092	-3.540569e-05
36	0x3e475318	0.19465292
37	0xbd0997e4	-0.03359212
38	0xbb1e53db	-0.0024158868
39	0x3d3515fb	0.044210415
40	0x3ac7d535	0.0015246036
41	0xbb62fc8f	-0.00346354
42	0x3ddc42ae	0.10754906
43	0x3dc28ef4	0.094999224
44	0xb8b5b571	-8.664549e-05
45	0xbd864e4f	-0.06557905
46	0x3c946ba2	0.01811773
47	0xbc0a5a88	-0.008444436
48	0x3d97d46c	0.07413563
49	0x3d336158	0.043794006
50	0xbd88d3a1	-0.0668099
51	0xbd8d510b	-0.06900223
52	0x3d3d0a5f	0.04615247
53	0xbc7a74b5	-0.015286614
54	0xbb1a1667	-0.0023511888
55	0x3db3404c	0.08752498
56	0xae5d4c65	-5.0317434e-11
57	0x3d1cbc9f	0.03826582
58	0xb49a90c6	-2.8790072e-07
59	0xbb628b88	-0.003456803
60	0xbdc227f0	-0.09480274
61	0x36a6f5c5	4.975797e-06
62	0x37b8c2e1	2.2025257e-05
63	0xaaa9e91c	-3.0182183e-13
64	0x382956ff	4.037376e-05
65	0xa1b16435	-1.2020511e-18
66	0xb47dd5f8	-2.3640303e-07
67	0x24453876	4.276539e-17
68	0xae95a0f0	-6.804324e-11
69	0xb86d87f1	-5.663181e-05
70	0xaa146d67	-1.3182997e-13
71	0x09f0be78	5.7957014e-33
72	0x2c364fd8	2.5908078e-12
73	0x94c2485e	-1.9617538e-26
74	0xa87e0d85	-1.4102764e-14
75	0xa4961410	-6.508612e-17
76	0xb70abd90	-8.269577e-06
77	0xb8049fd2	-3.1620097e-05
78	0xb60eb7be	-2.12666e-06
79	0xb6a39a65	-4.8757524e-06
80	0x2f3351b4	1.6308982e-10
81	0x22cfe460	5.6349264e-18
82	0xa84da279	-1.1415017e-14
83	0xb685f4ba	-3.992199e-06
84	0x29147060	3.296007e-14
85	0x9ac58abe	-8.170144e-23
86	0xb6767674	-3.6725805e-06
87	0xb63a3a94	-2.7750257e-06
88	0x8000bcbe	-6.7708e-41
89	0xb5d2a091	-1.569295e-06
90	0xa43cba8a	-4.0924006e-17
91	0xb2792b83	-1.4503601e-08
92	0xb4287fd6	-1.5692726e-07
93	0x260eb20f	4.950746e-16
94	0x2f6f6392	2.1772298e-10
95	0x0be5d4ba	8.8527667e-32
96	0x2f73ab82	2.2161653e-10
97	0x36e227b8	6.7399487e-06
98	0xaa8f4a38	-2.5453402e-13
99	0x800041a1	-2.3543e-41
100	0x37dadfd7	2.6091859e-05
101	0xb7e999b8	-2.7847345e-05
102	0x331d8b64	3.6681186e-08
103	0xb7a5cfc0	-1.9766274e-05
104	0xb2082c1f	-7.926274e-09
105	0xb5f618e7	-1.8335676e-06
106	0xb6594d5b	-3.2380547e-06
107	0xb36cc7c0	-5.5129703e-08
108	0xa11ee9c8	-5.384189e-19
109	0xb118073a	-2.212302e-09
110	0xb3c02dfa	-8.94906e-08
111	0xb79b8089	-1.8537294e-05
112	0xb8de4aa8	-0.00010599691
113	0x2925072a	3.6643574e-14
114	0xa9961199	-6.664391e-14
115	0xb48c16d0	-2.609363e-07
116	0xb75e4a74	-1.3249566e-05
117	0x28ac4bee	1.9128765e-14
118	0xac20d0af	-2.285321e-12
119	0xb025d55f	-6.032987e-10
120	0x1095194b	5.880911e-29
121	0x316d12e3	3.4498775e-09
122	0x8d4d2ad3	-6.322205e-31
123	0xa3743f8c	-1.3240723e-17
124	0x29bea23f	8.46584e-14
125	0xa980d407	-5.721123e-14
126	0x1e62664c	1.1985495e-20
127	0x00001173	6.26e-42
128	0x3b6a00f0	0.0035706125
129	0x379a8053	1.8417986e-05
130	0x386fb934	5.7154524e-05
131	0xb29fec9f	-1.8617639e-08
132	0xb2c66d1e	-2.3099854e-08
133	0xb9514f84	-0.00019961415
134	0xb7607484	-1.3378569e-05
135	0x0b8b2183	5.3591275e-32
136	0x31a18a71	4.7014557e-09
137	0xb6ce55ee	-6.149282e-06
138	0xb874bc70	-5.834963e-05
139	0x378d785c	1.6864557e-05
140	0xb9e37fde	-0.00043392082
141	0xbac73a9b	-0.0015199961
142	0xb9c7f9cf	-0.0003814236
143	0x38005194	3.0593554e-05
144	0x39108db3	0.00013785697
145	0xb08e11a9	-1.0336879e-09
146	0x350ab5f2	5.167377e-07
147	0x3854e059	5.075368e-05
148	0xb7271774	-9.959436e-06
149	0x2627bdf7	5.8197214e-16
150	0xb9a7c330	-0.00031998148
151	0xb92319e1	-0.00015554532
152	0xa94c0a7f	-4.5306203e-14
153	0x380c7844	3.3490607e-05
154	0xb4415b42	-1.8007725e-07
155	0x38511140	4.984555e-05
156	0x37b9e970	2.2162421e-05
157	0x80002383	-1.2739e-41
158	0xb6dc0334	-6.556884e-06
159	0x8c931552	-2.2661768e-31
160	0xb8c48539	-9.370823e-05
161	0x37faac19	2.9882462e-05
162	0x39856914	0.00025446026
163	0x31fa8a67	7.291692e-09
164	0xb729a72d	-1.0112109e-05
165	0xb9b36a56	-0.00034220767
166	0xb851ada8	-4.9991213e-05
167	0xba5762b8	-0.00082163094
168	0xa811343b	-8.060443e-15
169	0xb75eeaf9	-1.328694e-05
170	0xb8a313b1	-7.7761135e-05
171	0x39a59e46	0.00031589175
172	0x322bda7c	1.0003188e-08
173	0x389dbc29	7.521391e-05
174	0xb94de410	-0.00019635283
175	0xb92a67a8	-0.00016251078
176	0xba2a68a3	-0.00065005774
177	0x387d90f2	6.045489e-05
178	0xb8d63725	-0.00010214587
179	0x3706e7e3	8.041013e-06
180	0xb9deb22a	-0.00042475882
181	0xb869e3ef	-5.576381e-05
182	0xb4de74d6	-4.1435732e-07
183	0xb86954b9	-5.5630433e-05
184	0x07cee2ee	3.1128812e-34
185	0x37fd1bce	3.0172898e-05
186	0x80001765	-8.392e-42
187	0xb5d02b59	-1.5509823e-06
188	0x38431604	4.6512127e-05
189	0x27234aa5	2.266126e-15
190	0x21936286	9.987186e-19
191	0x00008a83	4.9689e-41
192	0x3a105a53	0.00055066234
193	0x2f9cb9b0	2.8508174e-10
194	0xb6f8fe91	-7.4206114e-06
195	0x34d8b97e	4.0368099e-07
196	0xb8b27cc5	-8.5109416e-05
197	0xbae475c9	-0.0017430122
198	0x349c1693	2.907369e-07
199	0x8a203b17	-7.714833e-33
200	0x3258a4b9	1.2610308e-08
201	0x37d0f93c	2.4911591e-05
202	0xb88db0cf	-6.756337e-05
203	0xb4148084	-1.3830328e-07
204	0xb9563d6f	-0.00020431516
205	0x38665d50	5.4923177e-05
206	0xb8bd1a47	-9.017117e-05
207	0xb621364f	-2.4022481e-06
208	0xb4dcee7f	-4.1151722e-07
209	0x36084a14	2.0308698e-06
210	0x26fd8b5c	1.7593175e-15
211	0xb80856a9	-3.2505635e-05
212	0x32027244	7.592977e-09
213	0xae5b6714	-4.9886387e-11
214	0xb88c7ad7	-6.698601e-05
215	0x37bb0cf5	2.229817e-05
216	0x00003f5a	2.2726e-41
217	0xb694f825	-4.4396315e-06
218	0xb3f953b2	-1.161019e-07
219	0x38d89264	0.0001032695
220	0xb288ba57	-1.5917221e-08
221	0x1cb4da12	1.1967771e-21
222	0xb5d293f6	-1.5689282e-06
223	0x8fc2bfbb	-1.9203729e-29
224	0xb38e7802	-6.6342196e-08
225	0xb5bb91bb	-1.3974999e-06
226	0x31bc1e8f	5.4749942e-09
227	0x3186e684	3.92612e-09
228	0xb70e436a	-8.479556e-06
229	0xb810cc4b	-3.4522538e-05
230	0x379ca503	1.8673489e-05
231	0x39b47a69	0.00034423478
232	0x3542b723	7.253713e-07
233	0xb9785a88	-0.00023684849
234	0xb7e151bb	-2.6860149e-05
235	0x366c78c6	3.523704e-06
236	0x2f5f39f3	2.030232e-10
237	0xb637b3d4	-2.7373799e-06
238	0xb89ff83a	-7.6279466e-05
239	0x3abd8d04	0.0014461582
240	0xba15a884	-0.000570901
241	0xacffed99	-7.2739145e-12
242	0xa64bb6fa	-7.067775e-16
243	0xb90d97ce	-0.0001350336
244	0xb7920020	-1.7404614e-05
245	0xae486c30	-4.5570825e-11
246	0x38f67f41	0.00011753897
247	0xb81e94b4	-3.7808626e-05
248	0x0940a6f0	2.3189653e-33
249	0xafc2d799	-3.5441586e-10
250	0xa394fccc	-1.6153256e-17
251	0x37ac77ac	2.0559724e-05
252	0xae529cb4	-4.7887652e-11
253	0x2bdef479	1.5841904e-12
254	0x2b438943	6.9468406e-13
255	0x8d91698d	-8.961725e-31

lin.0.bias f4 [32]
0	0x3e9bad68	0.30405736
1	0xb7f28bb0	-2.8913695e-05
2	0xbad1de2e	-0.0016011649
3	0xbbb67e90	-0.0055692866
4	0xbc7faed8	-0.015605651
5	0x3e1dcb0e	0.1540949
6	0x3e30d80d	0.17269917
7	0xbd0a4ca9	-0.033764515
8	0x3a733321	0.0009277333
9	0xbd8ff9cf	-0.07030069
10	0x3d7189be	0.05896925
11	0xbe0420a1	-0.12903072
12	0x3ec543c7	0.38528273
13	0x3dce1019	0.10061664
14	0xbef7f4a0	-0.48428822
15	0xbdcf98bd	-0.101365544
16	0xbcb041a9	-0.021515684
17	0xbee49356	-0.44643658
18	0x3e59d534	0.21272737
19	0x3cc7dbc0	0.024396777
20	0xbed489eb	-0.41511473
21	0x3da10afe	0.07863425
22	0xbea55765	-0.3229324
23	0x3ed20e26	0.4102642
24	0x3de0893b	0.10963675
25	0x3e9abcd7	0.30222198
26	0xbd96eb2b	-0.073690735
27	0x3e691e79	0.2276553
28	0x3e576524	0.21034676
29	0xbceb6cc0	-0.02873838
30	0x3e7a74dc	0.24458641
31	0x3e016ba4	0.12638718

lin.2.weight f4 [3, 32]
0	0x3e122851	0.14273192
1	0x378064c6	1.5305715e-05
2	0x3b0b4a51	0.0021254013
3	0x3b1f2e5c	0.0024289107
4	0x3d3c8129	0.046021614
5	0x3e50f3ff	0.20405577
6	0xbec73cac	-0.38913476
7	0xbe462416	-0.19349703
8	0x3ab83b5c	0.0014055776
9	0xbdaa708a	-0.083222464
10	0xbda849dd	-0.08217213
11	0xbe6b6b8d	-0.22990246
12	0x3e88aafe	0.26692957
13	0x3efe22cb	0.4963592
14	0xbea1d778	-0.31609702
15	0x3e469687	0.19393359
16	0xbcfd6191	-0.030930312
17	0xbe91442b	-0.2837232
18	0x3e2e9e67	0.17052613
19	0x3c642922	0.013925822
20	0xbeb4401c	-0.35205162
21	0x3d99251b	0.074777804
22	0xbe8eaeda	-0.27867776
23	0xbf03e90a	-0.51527464
24	0x3ec7910e	0.38977855
25	0xbee70752	-0.45122772
26	0x3ef7f53c	0.48429286
27	0x3e3deb72	0.18546847
28	0x3e33d9fa	0.1756362
29	0xbd0f190d	-0.034936
30	0x3ddcc420	0.107795954
31	0x3ed7f9b6	0.42182702
32	0x8000cf21	-7.4304e-41
33	0x80002b80	-1.5605e-41
34	0x8000f44e	-8.764e-41
35	0x800313f2	-2.82662e-40
36	0x8001433f	-1.15959e-40
37	0x8000aa82	-6.1167e-41
38	0x800487a4	-4.16e-40
39	0x0004928f	4.19917e-40
40	0x00008d8a	5.0775e-41
41	0x000188e5	1.40944e-40
42	0x80015eea	-1.25884e-40
43	0x00001857	8.731e-42
44	0x80008ce8	-5.0548e-41
45	0x80010a19	-9.5458e-41
46	0x00056e3d	4.98724e-40
47	0x00012f84	1.08881e-40
48	0x00019f6c	1.49025e-40
49	0x8000f992	-8.9529e-41
50	0x8005d82e	-5.36728e-40
51	0x80022296	-1.96078e-40
52	0x000127fe	1.06182e-40
53	0x80008ae8	-4.983e-41
54	0x80019a83	-1.47264e-40
55	0x000066a1	3.6816e-41
56	0x0000a9bf	6.0893e-41
57	0x800206bc	-1.86087e-40
58	0x8001e9a8	-1.75656e-40
59	0x00013bd1	1.13294e-40
60	0x00031724	2.83808e-40
61	0x00002260	1.2331e-41
62	0x0006abc6	6.12634e-40
63	0x0001084f	9.4816e-41
64	0x000340c1	2.98736e-40
65	0x80027f8c	-2.29426e-40
66	0x8001cca1	-1.65243e-40
67	0x00048472	4.14854e-40
68	0x8002bb69	-2.50901e-40
69	0x80009a83	-5.5428e-41
70	0x000307ec	2.78348e-40
71	0x00029f2a	2.40768e-40
72	0x00064ee2	5.79311e-40
73	0x8002606d	-2.18262e-40
74	0x8000fef1	-9.1456e-41
75	0x00011a48	1.01263e-40
76	0x00026436	2.1962e-40
77	0x00037a28	3.19328e-40
78	0x800127f1	-1.06164e-40
79	0x000164c5	1.27985e-40
80	0x8001b9ca	-1.58484e-40
81	0x00068548	5.98825e-40
82	0x800352c9	-3.05204e-40
83	0x800230dc	-2.01198e-40
84	0x0001cac4	1.64574e-40
85	0x8005741e	-5.00832e-40
86	0x00012fc0	1.08965e-40
87	0x0000cea7	7.4133e-41
88	0x80030d99	-2.80384e-40
89	0x80007726	-4.2742e-41
90	0x00006814	3.7336e-41
91	0x800195d1	-1.4558e-40
92	0x00020acd	1.87546e-40
93	0x0001a4f4	1.5101e-40
94	0x8001919e	-1.44073e-40
95	0x8002cbfe	-2.5685e-40

lin.2.bias f4 [3]
0	0x3d49bfa6	0.049255036
1	0x800aa5fe	-9.77902e-40
2	0x80057744	-5.01962e-40
