Simulator/models/stop_line_estimator_advanced.onnx (onnx, 121213 bytes, 14 tensors)

conv.0.weight f4 [4, 1, 5, 5]
0.042732008 0.053882662 0.064814985 0.079783544 0.046705466 0.026635751 0.0024320406 -0.010953283
-0.04115271 0.009649175 0.006739493 -0.028502788 -0.015702896 -0.00043511877 0.0037095125 -0.02387042
-0.023377934 -0.035618663 -0.028498443 -0.0063892496 -0.01983035 -0.00043624782 -0.0012352201 -0.007000834
-0.016035076 -0.0046862834 -0.030974377 -0.0160697 -0.013583187 0.048668444 0.023886906 0.003825592
0.059776645 -0.01964664 -0.03820615 -0.0125284735 -0.10569652 -0.02718154 0.0841274 0.018884035
0.06125297 0.011103248 -0.13305287 -0.017636055 -0.0068782973 -0.036839027 0.0844242 -0.015774488
-0.035827067 0.009462358 0.0016632511 0.0017323276 -0.0015435062 0.0035041354 0.01209347 -0.022613585
-0.020298483 -0.0085102925 -3.1973046e-05 -0.0050061066 -0.0051240027 -0.0391661 -0.08161536 -0.07975731
-0.05277198 0.025168935 0.062555015 0.10456063 0.08729264 0.05386128 0.0132126855 -0.031129768
-0.052660536 -0.04466381 -0.013015036 -0.0588892 -0.022031242 0.02857203 0.013045825 -0.0026364163
-0.05932917 0.054103613 -0.0036896889 0.042219397 -0.045667943 0.0030861981 -0.012883765 0.039026037
-0.0039656935 -0.043780018 0.008743103 0.0048799682 0.07345235 -0.10496615 0.012588259 -0.00433785
0.057053912 -0.025660018 -0.07804597 0.039064273
00000000: c207 2f3d 11b4 5c3d b8bd 843d 8e65 a33d
00000010: 3b4e 3f3d 3833 da3c df62 1f3b 6675 33bc
00000020: be8f 28bd 9317 1e3c f7d6 dc3b ae7e e9bc
00000030: 5ca3 80bc a720 e4b9 4b1b 733b e68b c3bc
00000040: 1583 bfbc e0e4 11bd 9175 e9bc e95c d1bb
00000050: 4273 a2bc 31b8 e4b9 1ce7 a1ba 4167 e5bb
00000060: fe5b 83bc 658f 99bb fabd fdbc 9aa4 83bc
00000070: 048c 5ebc 9058 473d 79ae c33c c9b6 7a3b
00000080: 5bd8 743d fef1 a0bc 0d7e 1cbd 3a44 4dbc
00000090: 6b77 d8bd d2ab debc fc4a ac3d b1b2 9a3c
000000a0: 65e4 7a3d 66ea 353c 033f 08be 7d79 90bc
000000b0: 5763 e1bb 85e4 16bd 98e6 ac3d 8039 81bc
000000c0: 67bf 12bd 0208 1b3c 7201 da3a 450f e33a
000000d0: 794f caba a3a5 653b b123 463c 2040 b9bc
000000e0: 0149 a6bc c16e 0bbc cc1a 06b8 440a a4bb
000000f0: 40e7 a7bb a26c 20bd f425 a7bd cd57 a3bd
00000100: 6f27 58bd 152f ce3c d81c 803d e223 d63d
00000110: 7cc6 b23d a59d 5c3d 057a 583c db03 ffbc
00000120: 93b2 57bd 66f1 36bd 043d 55bc cd35 71bd
00000130: dd7a b4bc e40f ea3c 28be 553c bac7 2cbb
00000140: 2503 73bd c09b 5d3d b5ce 71bb 3fee 2c3d
00000150: 4f0e 3bbd d041 4a3b 6d16 53bc c4d9 1f3d
00000160: a6f2 81bb ad52 33bd 3b3f 0f3c 24e8 9f3b
00000170: 306e 963d 7ef8 d6bd fc3e 4e3c 8624 8ebb
00000180: 5db1 693d f534 d2bc 91d6 9fbd dc01 203d

conv.0.bias f4 [4]
0.00067039154 0.0005037623 0.0007740433 0.00016808778
00000000: 37bd 2f3a ea0e 043a 2be9 4a3a b840 3039

conv.4.weight f4 [4]
0.5112479 0.43136325 0.42635047 0.50819695
00000000: 24e1 023f a5db dc3e 9c4a da3e 3219 023f

conv.4.bias f4 [4]
0.08054941 -0.02999737 -0.120969646 0.014502651
00000000: 17f7 a43d 0bbd f5bc efbe f7bd 879c 6d3c

conv.4.running_mean f4 [4]
11.595783 1.8669155 1.0575507 1.956071
00000000: 5488 3941 16f7 ee3f d25d 873f 8960 fa3f

conv.4.running_var f4 [4]
82.04175 12.087807 9.20609 15.986339
00000000: 6015 a442 a867 4141 254c 1341 0bc8 7f41

conv.6.weight f4 [8, 4, 5, 5]
-0.1093458 -0.0474812 0.022743119 0.056670923 0.049034253 -0.015364788 0.061675746 0.053689707
-2.5042196e-05 -0.008129745 0.102603756 0.0036228164 -0.009904632 -0.024968145 -0.010641002 0.09105201
-0.019526422 -0.017008757 -0.0059099486 -0.01675051 0.016246844 -0.009120432 0.0051181093 0.007155561
0.0025300507 -0.07054614 -0.066595316 -0.0584865 -0.018722141 -0.017659346 -0.04368414 -0.04937658
-0.016952053 0.0039562252 0.0043063206 -0.0065529663 0.0023138958 0.0018409218 -0.004027274 0.004235873
0.00166422 0.023054501 -0.002121536 -0.004713008 -0.022970935 0.0014964705 0.015185036 0.014462505
0.019317096 0.010858836 -0.0015314209 -0.0029638635 -0.010784156 -0.000310355 0.0038009142 -0.025236212
-0.013739953 0.001532013 0.0066425223 0.002934408 -0.044671014 -0.0037423368 0.0058419337 -0.0003264288
-0.002748849 -0.0178927 -0.005413583 -0.003285968 -0.0025922856 0.0016363251 6.0182185e-05 0.00075425993
0.0027317745 -0.0018895863 -0.006791087 -0.022937914 0.022665784 0.040293552 0.010471139 -0.033822887
0.04653411 0.035838634 -0.02245385 -0.025380196 -0.0017250528 0.011790389 -0.03257939 -0.02212594
-0.0062671453 -0.004205891 -0.052941177 -0.033881985 -0.0072697364 -0.0017908919 -0.0091717355 -0.041169405
-0.02373315 -0.013925046 -0.0074412157 -0.011936687 -0.013159122 0.004576364 -0.015203889 -0.0063719247
-0.015358025 -0.0071674376 -0.0088442275 -0.0045767957 -0.00075422187 0.012830511 0.016848214 0.008905517
0.006061257 0.0064773983 0.020239342 0.025154114 0.014252797 0.014420341 0.023058876 0.0093643395
0.015951803 0.0056254845 -0.015037163 0.011285444 0.02373923 -0.00035544793 -0.0043133465 0.0057963743
0.006109346 -0.007754398 -0.003945065 0.0011400713 -0.012841613 -0.008096732 -0.026765611 0.00035532648
0.0025008344 -0.017112326 -0.035210207 -0.03066248 -0.037133407 -0.00042025634 0.0056146267 0.010037652
0.014075405 -0.023755707 -0.02669985 -0.02815267 0.015764065 0.01755003 -0.0013821459 0.0070994296
0.004958773 0.008455042 -0.0007041994 0.046860576 0.024834823 0.03129138 0.028155359 0.03220322
0.08209857 0.01666787 0.11017416 0.021984175 0.07087178 0.07342885 0.054274883 0.10838976
0.049223218 0.05692992 0.14354242 0.023189304 0.076706626 0.008889378 0.091221645 -0.0010402245
0.0029336265 0.008690277 0.026970686 0.009405396 -0.031452086 -0.019480046 -0.016208258 0.0018434351
0.0016636704 -0.04493119 -0.0817802 -0.0679167 -0.0408519 -0.032326058 -0.042451575 -0.07770284
-0.11102763 -0.054798782 -0.016097462 -0.040776804 -0.07248916 -0.044253927 -0.02652251 -0.026364872
-0.15561073 -0.10898461 -0.034973588 -0.010887173 0.0015047184 0.09718341 0.040271495 0.0067598573
-0.027778829 -0.06847933 0.073899195 0.023711018 0.020879444 0.023830948 0.04773109 -0.04372395
-0.047606666 -0.022633923 0.0016811831 0.023832114 -0.08015642 -0.04320666 -0.031533036 -0.0052254987
-0.0058119167 -0.039392803 -0.021370344 -0.021744417 -0.006954252 -0.0014785907 -0.007691005 0.0043316362
-0.0060545327 -0.020577114 -0.020042537 -0.0018510832 0.025927603 0.030863196 0.02127123 0.0049412865
0.001294722 -0.011390406 0.00022483733 0.0007180533 0.031177226 0.02572036 -0.00017138776 0.0032821982
0.004430256 0.0027662597 0.02860515 0.025062256 0.034878764 0.036180675 0.02475838 -0.022010991
00000000: b1f0 dfbd a67b 42bd c74f ba3c c51f 683d
00000010: 24d8 483d 97bc 7bbc b59f 7c3d bde9 5b3d
00000020: b511 d2b7 9f32 05bc eb21 d23d c66c 6d3b
00000030: 0a47 22bc ff89 ccbc 9957 2ebc 7a79 ba3d
00000040: e0f5 9fbc f355 8bbc 3ea8 c1bb 5e38 89bc
00000050: 1a18 853c dd6d 15bc d0b5 a73b 3279 ea3b
00000060: 35cf 253b 7f7a 90bd 2063 88bd 8a8f 6fbd
00000070: 2d5f 99bc 55aa 90bc 24ee 32bd 193f 4abd
00000080: 08df 8abc 39a3 813b 091c 8d3b 44ba d6bb
00000090: bba4 173b 164b f13a 39f7 83bb 14cd 8a3b
000000a0: f521 da3a cbdc bc3c 7809 0bbb 946f 9abb
000000b0: 8b2d bcbc 3825 c43a a8ca 783c 24f4 6c3c
000000c0: e33e 9e3c 42e9 313c f5b9 c8ba 613d 42bb
000000d0: 07b0 30bc 25b7 a2b9 c218 793b 2cbc cebc
000000e0: 8a1d 61bc d3cd c83a 84a9 d93b 324f 403b
000000f0: f4f8 36bd fe41 75bb b16d bf3b 8824 abb9
00000100: 0926 34bb b693 92bc 6d64 b1bb 6559 57bb
00000110: 56e3 29bb f679 d63a 216c 7c38 87b9 453a
00000120: 9207 333b ffab f7ba c487 debb 4be8 bbbc
00000130: 98ad b93c da0a 253d 248f 2b3c de89 0abd
00000140: 8d9a 3e3d 88cb 123d 23f1 b7bc 21ea cfbc
00000150: 2b1b e2ba 7a2c 413c f771 05bd 7641 b5bc
00000160: a05c cdbb 92d1 89bb d9d8 58bd d6c7 0abd
00000170: f836 eebb 5cbc eaba 0c45 16bc 40a1 28bd
00000180: 066c c2bc e025 64bc 71d5 f3bb 1892 43bc
00000190: 5c99 57bc 53f5 953b bc19 79bc 94cb d0bb
000001a0: 3aa0 7bbc d3dc eabb 61e7 10bc f2f8 95bb
000001b0: f9b6 45ba 1037 523c 4405 8a3c 72e8 113c
000001c0: 829d c63b 5b40 d43b facc a53c 0010 ce3c
000001d0: 9084 693c 4b43 6c3c f8e5 bc3c e36c 193c
000001e0: 5bad 823c fc55 b83b 6f5e 76bc 95e6 383c
000001f0: c678 c23c 6a5b bab9 f956 8dbb 83ef bd3b
00000200: e930 c83b 9b18 febb 9b45 81bb 726e 953a
00000210: a165 52bc 28a8 04bc 8e43 dbbc 1d4b ba39
00000220: 0ae5 233b 262f 8cbc 9438 10bd e22f fbbc
00000230: 3319 18bd da55 dcb9 e7fa b73b f774 243c
00000240: 879c 663c 549b c2bc a5b9 dabc 6ea0 e6bc
00000250: a423 813c 15c5 8f3c 1f29 b5ba 55a2 e83b
00000260: 347d a23b 0487 0a3c 069a 38ba e0f0 3f3d
00000270: 6672 cb3c 642b 003d 11a6 e63c 86e7 033d
00000280: 4c23 a83d 0f8b 883c fda2 e13d 2818 b43c
00000290: 3925 913d dd61 963d 574f 5e3d 73fb dd3d
000002a0: 499e 493d 592f 693d c9fc 123e 7ff7 bd3c
000002b0: 5d18 9d3d c1a4 113c 6ad2 ba3d 2458 88ba
000002c0: 1642 403b aa61 0e3c a1f1 dc3c 1719 1a3c
000002d0: e7d3 00bd 9e94 9fbc 2ec7 84bc 6b9f f13a
000002e0: 840f da3a c409 38bd 617c a7bd e917 8bbd
000002f0: 5254 27bd 5468 04bd b4e1 2dbd ab22 9fbd
00000300: 7462 e3bd b074 60bd d3de 83bc 9405 27bd
00000310: 3275 94bd 9b43 35bd bc45 d9bc 25fb d7bc
00000320: 6b58 1fbe 5333 dfbd 7740 0fbd 1d60 32bc
00000330: f939 c53a 1808 c73d b9f3 243d cb81 dd3b
00000340: 6d90 e3bc e43e 8cbd 7658 973d 9c3d c23c
00000350: 5e0b ab3c 1f39 c33c ad81 433d e217 33bd
00000360: 35ff 42bd c76a b9bc 255b dc3a 913b c33c
00000370: 0d29 a4bd 77f9 30bd c928 01bd a93a abbb
00000380: e471 bebb 595a 21bd dc10 afbc 5921 b2bc
00000390: 7ee0 e3bb 45cd c1ba d304 fcbb 66f0 8d3b
000003a0: 1a65 c6bb 5691 a8bc 3f30 a4bc 0ca0 f2ba
000003b0: 2066 d43c d0d4 fc3c 0141 ae3c 84ea a13b
000003c0: a9b3 a93a d39e 3abc 50c2 6b39 be3b 3c3a
000003d0: 6267 ff3c 81b3 d23c 8db6 33b9 261a 573b
000003e0: ae2b 913b 234a 353b 5955 ea3c 5c4f cd3c
000003f0: 09dd 0e3d 3032 143d 16d2 ca3c 6550 b4bc

conv.6.bias f4 [8]
-0.19212392 -0.12544928 -0.25940123 -0.04597661 -0.2014422 -0.162497 -0.045936674 -0.13978676
00000000: 22bc 44be c775 00be 3dd0 84be f851 3cbd
00000010: dd46 4ebe 9d65 26be 1828 3cbd 4324 0fbe

conv.11.weight f4 [64, 8, 5, 5]
-0.0004891306 -0.00023875597 -0.00035943004 -0.0006558384 0.0001422718 0.00015877323 -0.00018491878 -0.00026445714
-0.00041136122 -0.0010768995 5.4445107e-05 -0.00039833915 -0.00017233407 -0.0004727007 0.00011520127 6.606511e-05
0.00013383105 -0.00025484563 -0.00041371072 -0.0012039079 2.1298869e-05 -0.0004176527 -0.0004991086 -0.00043817976
0.00061596866 0.00022602071 0.00027867628 -0.0003919282 -0.000798803 0.0006421663 -0.00050628604 0.00033291394
-0.0004379643 -0.00015125451 -0.00044520982 0.0003196285 7.404254e-05 -0.00040540306 -5.3569325e-05 -0.00047578104
0.0006081795 -3.5785262e-05 6.324107e-05 -0.00023595887 -4.269734e-05 0.00055350084 3.723048e-05 -0.0006780538
2.4597788e-05 0.0005839492 -0.00011747264 -6.720624e-05 -0.0001984022 0.00010337633 -0.0002931671 -0.0005729763
0.00016772874 0.00024096997 0.00032899063 -0.0005422887 -0.00027285764 0.00042807715 0.00078952016 -0.00014968314
-0.00021592279 -0.00027654215 -0.0008551147 -0.00032062884 -0.00059607974 -0.00023032671 0.0005590817 1.4950396e-05
0.0003496407 -0.0009247641 0.00024687496 7.64435e-06 -0.0009894405 0.0014765763 -0.00013438266 0.00071812654
-1.9243183e-05 2.6260604e-05 0.00027404644 0.00022268119 0.00040324582 -0.0005982626 0.00087689084 -0.0013039423
-0.00038100933 -0.00029850905 -0.0006015411 -0.00034182722 -0.00050572306 0.0005665969 -0.00049621443 0.0001736677
-0.0009966523 -0.0006240682 0.00028152997 9.696833e-06 -0.000794873 -5.4216925e-05 0.00029647426 6.0603884e-06
0.000597572 -0.00042283675 0.0002503549 0.00016984683 0.00025492438 0.00077644526 -1.19726255e-05 0.0002525633
-0.0006584656 -0.0004211386 0.00040239393 0.00040457578 0.00023758625 -0.00021188971 0.0009329526 -2.1027057e-05
-0.00011015506 -0.0003588662 4.056807e-05 -0.00024179312 -0.0010017597 -0.00095306523 -0.00014757487 -3.7457714e-05
0.0001513312 5.042286e-06 -0.0005842696 0.0004943748 1.9789284e-06 0.00020175488 -0.0002733338 -0.00044662494
0.00050785573 0.00038158637 -0.00012073034 -0.00032329827 0.00020953864 0.00012587676 -8.1318685e-05 -0.0003629436
-0.00024601902 0.00031449404 -0.000441149 -0.00021884889 0.0002902911 -0.0003944665 -0.00023295677 -0.00045278322
0.00027145233 0.0007105793 0.00041794393 0.00024457704 0.00020350442 -0.000420568 0.00066583004 0.00028662756
-0.0005236819 -0.0004562748 -6.964758e-05 -7.590718e-05 0.0003996838 -0.000995723 -0.00027397336 0.000776251
0.0005982265 0.00030875954 -0.00034690113 -9.052286e-05 -0.0002783132 0.00024796615 0.00021436629 0.00014008964
0.00022725645 -0.00021106162 0.0001379783 0.00040951397 3.600596e-05 -0.0009332302 -0.00020384534 -6.554523e-05
0.00033082126 -0.00010149696 -6.2787103e-06 0.00038239456 -0.00034085795 0.0005278288 -2.0294585e-06 0.00014087146
-9.951347e-05 -0.0003260888 -0.00037588732 0.00027967273 0.00015659603 -0.00028191006 0.00045592678 -0.00029601323
-0.0006208405 6.234412e-05 -0.00014392694 0.00012983383 -0.0004553265 0.00034712773 0.0006567251 -0.00022995895
0.00015317352 6.6702094e-05 0.00015207143 -2.9145005e-05 0.00047671743 8.023725e-05 0.00040422124 0.00036961434
0.00020592127 2.5106897e-06 2.1146288e-05 7.2412713e-06 0.0002827809 6.226763e-05 -5.5816286e-05 6.9049194e-05
-0.00022257194 0.00025387356 0.0003006957 -8.813418e-06 0.00010743107 0.000103432445 -0.00045011492 0.0003487153
0.00021389926 0.00029887332 0.0002773286 3.5717287e-05 1.2673718e-05 -0.00024304661 -0.00045307082 0.00035140515
0.00050179486 -3.7365437e-05 -0.0007247353 -0.00044890176 7.6875964e-05 0.0005148596 -0.0006821379 -0.00016033079
-0.00022795647 -0.00042902603 -0.0008012773 0.00037847823 -8.148224e-05 0.00015294955 -0.00073564285 0.0002112091
00000000: 0039 00ba 915a 7ab9 e271 bcb9 92ec 2bba
00000010: cc2e 1539 5d7c 2639 c2e6 41b9 d6a6 8ab9
00000020: f8ab d7b9 c026 8dba fd5b 6438 2dd8 d0b9
00000030: 93b4 34b9 d0d4 f7b9 3698 f138 708c 8a38
00000040: 0055 0c39 cd9c 85b9 50e7 d8b9 72cc 9dba
00000050: f9aa b237 66f8 dab9 9cd6 02ba 7ebb e5b9
00000060: f578 213a f9ff 6c39 4c1b 9239 b67b cdb9
00000070: c366 51ba 0d57 283a 48b8 04ba f48a ae39
00000080: 939e e5b9 139a 1eb9 0d6b e9b9 d093 a739
00000090: 4947 9b38 478c d4b9 a0af 60b8 4072 f9b9
000000a0: 3c6e 1f3a 2218 16b8 4aa0 8438 ba6b 77b9
000000b0: eb15 33b8 d018 113a ec27 1c38 6cbf 31ba
000000c0: 5957 ce37 2b14 193a a55b f6b8 13f1 8cb8
000000d0: 2f0a 50b9 bfcb d838 39b4 99b9 ca33 16ba
000000e0: 57e0 2f39 e2ac 7c39 607c ac39 6128 0eba
000000f0: 550e 8fb9 8b6f e039 cdf7 4e3a 43f4 1cb9
00000100: 5569 62b9 dcfc 90b9 c729 60ba 131a a8b9
00000110: 3c42 1cba db83 71b9 568f 123a 76d3 7a37
00000120: fb4f b739 de6b 72ba ff6e 8139 3c40 0037
00000130: 1db0 81ba ae89 c13a 12e9 0cb9 a840 3c3a
00000140: 6c6c a1b7 384a dc37 e4ad 8f39 877f 6939
00000150: bd6a d339 b9d4 1cba 26df 653a 0be9 aaba
00000160: 35c2 c7b9 3581 9cb9 bdb0 1dba 4637 b3b9
00000170: 8092 04ba ad87 143a 6314 02ba 911a 3639
00000180: 1aa2 82ba 8298 23ba 509a 9339 95af 2237
00000190: 065f 50ba fb66 63b8 1a70 9b39 575a cb36
000001a0: 61a6 1c3a 30b0 ddb9 1142 8339 e918 3239
000001b0: 5fa7 8539 5c8a 4b3a 09de 48b7 796a 8439
000001c0: e19c 2cba 44cc dcb9 66f8 d239 3e1d d439
000001d0: 9320 7939 b62e 5eb9 6491 743a 4363 b0b7
000001e0: 0c03 e7b8 3526 bcb9 a227 2a38 d989 7db9
000001f0: 7a4d 83ba 20d7 79ba 54be 1ab9 ea1b 1db8
00000200: a9ae 1e39 e830 a936 ab29 19ba ee98 013a
00000210: bbcd 0436 2a8e 5339 3e4e 8fb9 fc28 eab9
00000220: 9f21 053a a80f c839 9c30 fdb8 5c80 a9b9
00000230: 9ab7 5b39 c9fd 0339 a389 aab8 7749 beb9
00000240: 1dfc 80b9 ade2 a439 044a e7b9 cd7a 65b9
00000250: 3632 9839 66d0 ceb9 db45 74b9 8963 edb9
00000260: b751 8e39 2b46 3a3a 7c1f db39 933a 8039
00000270: cd63 5539 ae7f dcb9 198b 2e3a 8046 9639
00000280: b347 09ba 2b38 efb9 c30f 92b8 5b30 9fb8
00000290: a78c d139 eb82 82ba 15a4 8fb9 537d 4b3a
000002a0: 4dd2 1c3a 01e1 a139 48e0 b5b9 17d7 bdb8
000002b0: 91ea 91b9 7401 8239 83c7 6039 07e5 1239
000002c0: b04b 6e39 6c50 5db9 45ae 1039 09b4 d639
000002d0: 1b05 1738 05a4 74ba 51bf 55b9 5475 89b8
000002e0: 1472 ad39 c4da d4b8 b6ad d2b6 217c c839
000002f0: 2eb5 b2b9 fe5d 0a3a d531 08b6 e5b6 1339
00000300: e3b1 d0b8 e6f6 aab9 be12 c5b9 0aa1 9239
00000310: ed33 2439 54cd 93b9 7509 ef39 3932 9bb9
00000320: e7bf 22ba bfbe 8238 18eb 16b9 0124 0839
00000330: e3b8 eeb9 b2fe b539 1328 2c3a 2321 71b9
00000340: 349d 2039 6ae2 8b38 5d75 1f39 6c7c f4b7
00000350: eeef f939 0c45 a838 a8ed d339 ccc8 c139
00000360: 92ec 5739 527d 2836 4f63 b137 0cfa f236
00000370: 3642 9439 ae95 8238 481c 6ab8 81ce 9038
00000380: 3362 69b9 551a 8539 b2a6 9d39 58dd 13b7
00000390: 9e4c e138 dfe9 d838 67fd ebb9 c6d3 b639
000003a0: 254a 6039 19b2 9c39 6a66 9139 25cf 1538
000003b0: 34a1 5437 54da 7eb9 238a edb9 cd3c b839
000003c0: e28a 033a d5b8 1cb8 2afc 3dba 935a ebb9
000003d0: 7838 a138 a5f7 063a 80d1 32ba 781e 28b9
000003e0: 9907 6fb9 e6ee e0b9 cf0c 52ba 7d6e c639
000003f0: 72e1 aab8 1561 2039 28d8 40ba 0378 5d39

conv.11.bias f4 [64]
0.00031219094 -0.00083076936 -0.0015419992 -0.00065664644 -0.0003538861 2.9200388e-05 -0.0008155612 0.06069864
-0.0012847201 -0.0031825851 0.00084848935 0.030373622 -0.08354211 0.00018837216 -0.002974268 -0.0010560359
1.2024929e-05 -0.019988788 0.0017925028 0.00041040208 0.10177822 -0.0016246616 0.0801592 0.0049943905
-0.0031196224 5.2655676e-05 0.091202006 -2.703193e-05 0.00050577545 -0.0018896832 -0.00077069626 0.02060287
0.0005775603 -0.0008345975 -0.035608992 -0.00266838 0.07127794 -0.00037622591 -0.050617836 -0.00095007406
-0.00014227936 0.071577944 -0.023498582 -0.0006201185 0.00029862276 2.155159e-05 -0.001984211 -0.0016076836
6.554716e-05 0.0011327859 -0.0019785133 -0.0030912552 -0.0017560124 7.6786375e-05 -0.00057829794 -0.0018291979
-0.06885792 -0.001128605 0.046919134 0.0009146956 -0.0005426091 -0.001536572 -7.42254e-05 -0.023540387
00000000: 8fad a339 fdc7 59ba e81c caba cc22 2cba
00000010: ca89 b9b9 5bf3 f437 63cb 55ba 239f 783d
00000020: 0e64 a8ba eb92 50bb 286d 5e3a 1ad2 f83c
00000030: 2018 abbd c485 4539 f0eb 42bb af6a 8aba
00000040: adbe 4937 87bf a3bc 6af2 ea3a 3c2b d739
00000050: 1971 d03d 99f2 d4ba 822a a43d fca7 a33b
00000060: 9472 4cbb 9ada 5c38 1ec8 ba3d a1c2 e2b7
00000070: 0496 043a 3faf f7ba 8d08 4aba 5ac7 a83c
00000080: 6a67 173a e4c8 5aba bcda 11bd fddf 2ebb
00000090: 2bfa 913d 3040 c5b9 a654 4fbd 640e 79ba
000000a0: d330 15b9 7597 923d 1980 c0bc 738f 22ba
000000b0: 7890 9c39 b0c9 b437 8909 02bb e9b8 d2ba
000000c0: 5d76 8938 fd79 943a f2a9 01bb a896 4abb
000000d0: 002a e6ba 5f08 a138 eb98 17ba b2c1 efba
000000e0: 6205 8dbd b3ed 93ba 472e 403d 2fc8 6f3a
000000f0: e13d 0eba cd66 c9ba 75a9 9bb8 c5d7 c0bc

lin.0.weight f4 [32, 64]
0.0027920287 0.00077253813 -0.04876674 0.0009769021 -0.066235505 -0.0019765631 -0.0020776272 -0.19808201
-0.0021229042 -0.000293907 -0.009286619 -0.052396975 0.39815858 -0.012721036 -0.006839472 -0.000921687
-0.029607832 0.04725652 0.06474123 -0.032531817 -0.13099654 0.00067994406 -0.03182537 -0.14402732
0.00015944526 0.005382711 -0.05808714 0.028757196 -0.013903619 -0.0023277907 9.769461e-05 -0.09300915
-0.0031672434 0.010920358 0.047410917 -0.032894406 0.016988916 -0.0017969955 0.38047925 0.017956708
0.0053268 -0.14398523 -0.1143056 0.02676109 -0.0032095246 -0.0012219956 0.014276835 -0.0012451928
0.015478839 -0.018333916 0.0036703823 8.003868e-05 -0.083839305 0.032311995 -0.029759629 0.050478186
0.12408743 0.07142191 0.102337815 0.034091 0.0034422867 -0.020117568 -0.0050554923 0.01495673
1.2895764e-10 5.193966e-07 5.6258e-41 -3.4604516e-18 -6.736973e-11 -1.8712045e-09 -1.5780713e-06 -1.147887e-22
-6.14039e-40 1.067571e-39 -9.206927e-12 -4.03454e-18 -7.3043e-41 1.557523e-05 9.2810835e-05 6.9064e-41
-3.4611054e-05 -4.2214168e-10 -3.5944107e-14 -1.1937213e-12 -7.047e-41 2.1836388e-06 3.0326475e-38 -2.4233329e-15
3.5480476e-28 2.9317036e-07 7.768763e-06 -7.281346e-10 -5.7022877e-05 4.142e-42 6.4420897e-06 -1.9137983e-06
7.1469e-41 -1.207844e-10 8.2098966e-05 -5.194992e-08 -4.820259e-12 8.092453e-15 1.7798362e-08 -3.004057e-33
4.1382524e-20 -6.3099714e-07 1.7031943e-13 0.00627509 -4.978133e-15 -1.9967e-41 -3.0632713e-21 -1.607359e-11
3.9916e-41 5.93026e-09 -3.3227574e-13 8.306336e-06 -8.0699523e-19 4.8079e-41 2.01591e-15 -0.00074689725
-2.3119e-41 -6.60014e-13 -7.2088994e-08 -4.9993e-41 8.770683e-08 -2.788053e-05 1.2058e-41 -2.0503302e-12
-8.748251e-05 0.0008143068 0.012035285 0.0006996222 0.04588492 0.00044420006 -0.005039053 -0.07731553
0.001578535 -0.0001006286 -0.018023832 0.12787576 0.38577473 -0.024031498 -0.012698806 0.03250037
-0.015273811 0.1761591 -0.010826629 0.014158458 0.21505727 -0.0028181595 0.043165542 0.29253522
0.002904994 -0.0027846138 0.08134969 0.010100294 0.029893242 -0.0031062497 -9.2050694e-05 0.1338876
-0.0008947776 0.010356566 0.11376763 -0.00045630964 0.09187965 -5.9785438e-05 0.27221447 -0.027600486
0.030285697 0.026469253 0.12737268 0.033735562 0.00061840226 -0.0011915513 -0.042687297 -0.0033635679
-0.0017983394 0.017290007 0.0058842786 -0.00859625 -0.023616288 -0.02364674 0.015680164 -0.012551653
0.11599469 0.02365959 0.18447861 0.015386782 0.0041308384 0.047767635 -0.0013594643 0.028748412
0.00029035012 0.0039803027 0.0093979845 -0.0037637712 0.031217903 0.0020448428 -0.0006115296 -0.5401302
-0.007808455 -0.010721788 0.0065886886 0.2628825 -0.09450773 0.0017821295 0.004941898 0.000978034
-0.00089965534 0.1388026 0.07436576 -0.0030010822 -0.28795552 0.0051856353 -0.81968945 -0.20387469
0.00076958624 0.0034819015 0.10576273 0.0010219893 0.009402959 0.00094942574 0.00075660454 -0.6060213
1.719776e-05 0.005956441 -0.26812902 -0.028920911 -0.05516314 0.00086622697 0.07189244 0.013173789
0.005908919 -0.68259364 -0.28960449 0.0022651441 -0.008626023 0.0034328396 0.018511001 0.0043597654
0.0037837827 0.002387569 -0.005302218 0.0035580161 0.0043590306 0.003747532 0.012436288 -0.000692955
0.30337358 0.015773583 -0.2538258 -0.007682571 0.003304217 0.000304748 -0.007279573 0.07678452
00000000: 78fa 363b 2884 4a3a a2bf 47bd 650b 803a
00000010: 7ba6 87bd 3a89 01bb cd28 08bb 03d6 4abe
00000020: 6c20 0bbb 8817 9ab9 e726 18bc 369e 56bd
00000030: 71db cb3e e46b 50bc a61d e0bb 5e9d 71ba
00000040: 208c f2bc 0d90 413d 0d97 843d 1540 05bd
00000050: f523 06be 463e 323a 525b 02bd e67b 13be
00000060: c330 2739 7461 b03b c8ec 6dbd 3694 eb3c
00000070: 01cc 63bc d98d 18bb 65e1 cc38 957b bebd
00000080: 8791 4fbb 4deb 323c f331 423d 49bc 06bd
00000090: 572c 8b3c 2a89 ebba 2dce c23e f219 933c
000000a0: 708c ae3b dd70 13be 0e19 eabd 133a db3c
000000b0: e356 52bb 5e2b a0ba 63e9 693c bd35 a3ba
000000c0: f59a 7d3c 0231 96bc cc8a 703b 70da a738
000000d0: f1b3 abbd 9559 043d 77ca f3bc 37c2 4e3d
000000e0: 8d21 fe3d a645 923d 7d96 d13d 01a3 0b3d
000000f0: fd97 613b 99cd a4bc 8ba8 a5bb 130d 753c
00000100: 59ca 0d2f aa6c 0b35 d39c 0000 1556 7fa2
00000110: c925 94ae 9496 00b1 1ece d3b5 62c5 0a9b
00000120: b1af 0680 f49f 0b00 50f8 21ad 27d9 94a2
00000130: 9dcb 0080 8da7 8237 70a3 c238 86c0 0000
00000140: 562b 11b8 2913 e8af bce0 21a9 5800 a8ab
00000150: 71c4 0080 a18a 1236 f01c 2501 9a9e 2ea7
00000160: 5de2 e011 0765 9d34 9556 0237 eb25 48b0
00000170: d92b 6fb8 8c0b 0000 2129 d836 ce6e 00b6
00000180: 3ac7 0000 c9cd 04af 8c2c ac38 8b1f 5fb3
00000190: 0999 a9ac dac7 1128 03e3 9832 3a91 7989
000001a0: 676c 431f cb61 29b5 3cc3 3f2a 459f cd3b
000001b0: 2c5b b3a7 a937 0080 4974 679d 8262 8dad
000001c0: 456f 0000 1ec3 cb31 fb0d bbaa 715b 0b37
000001d0: d62e 6ea1 0686 0000 fa42 1127 6dcb 43ba
000001e0: 7240 0080 05c7 39ab 58cf 9ab3 5c8b 0080
000001f0: 5759 bc33 fbe0 e9b7 9d21 0000 7747 10ac
00000200: d176 b7b8 3477 553a a52f 453c da66 373a
00000210: d3f1 3b3d 86e3 e839 a41e a5bb 9b57 9ebd
00000220: d8e6 ce3a 9108 d3b8 b7a6 93bc ddf1 023e
00000230: 4484 c53e b4dd c4bc a70e 50bc 1c1f 053d
00000240: 023f 7abc 0d63 343e 2c62 31bc e1f8 673c
00000250: f937 5c3e dfb0 38bb 5ace 303d 2dc7 953e
00000260: b661 3e3b 117e 36bb ab9a a63d b47b 253c
00000270: ace2 f43c 3992 4bbb 570b c1b8 d519 093e
00000280: 828f 6aba 96ae 293c 01ff e83d d83c efb9
00000290: 662b bc3d 20c2 7ab8 b25f 8b3e 6a1a e2bc
000002a0: b619 f83c 0cd6 d83c fc6d 023e 4d2e 0a3d
000002b0: 461c 223a d42d 9cba e0d8 2ebd 4e6f 5cbb
000002c0: 42b6 ebba c6a3 8d3c e8d0 c03b 49d7 0cbc
000002d0: f276 c1bc cfb6 c1bc b073 803c 73a5 4dbc
000002e0: a08e ed3d c2d1 c13c f6e7 3c3e d718 7c3c
000002f0: fc5b 873b ffa7 433d 0d30 b2ba ca81 eb3c
00000300: 223a 9839 336d 823b 01fa 193c 9aa9 76bb
00000310: b0bc ff3c c502 063b 0f4f 20ba f945 0abf
00000320: 11de ffbb 70aa 2fbc ede5 d73b 8998 863e
00000330: 458d c1bd 5896 e93a a5ef a13b 6031 803a
00000340: d9d6 6bba 4522 0e3e 134d 983d cead 44bb
00000350: e86e 93be 43ec a93b 2bd7 51bf 87c4 50be
00000360: 0fbe 493a 9d30 643b 219a d83d 45f4 853a
00000370: de0e 1a3c e2e2 783a df56 463a 3624 1bbf
00000380: e943 9037 402e c33b 3548 89be 8ceb ecbc
00000390: bff2 61bd 8213 633a 583c 933d e0d6 573c
000003a0: 9b9f c13b 75be 2ebf 0a47 94be d072 143b
000003b0: 2a54 0dbc 7ef9 603b 62a4 973c 5ddc 8e3b
000003c0: 57f9 773b c378 1c3b 3abe adbb 9b2d 693b
000003d0: 33d6 8e3b 2799 753b 93c1 4b3c 6ca7 35ba
000003e0: c853 9b3e 9a37 813c 75f5 81be 14be fbbb
000003f0: 908b 583b 96c6 9f39 7c89 eebb 3441 9d3d

lin.0.bias f4 [32]
0.03263327 -0.005095584 0.29409245 0.14589185 0.15765929 -0.058733296 0.1365312 -0.07895602
-0.04395002 -0.117260024 0.021152593 0.26500374 0.2910373 -0.035009913 0.16827726 0.033704218
-1.1150846e-09 -0.019729495 0.1370381 -0.010719937 0.10411535 -0.0052638664 0.10293595 0.07112774
0.072128154 -0.08098207 -0.035057697 0.2058904 -0.022202346 -0.020837443 0.2563314 0.20967878
00000000: 77aa 053d dbf8 a6bb 4993 963e ac64 153e
00000010: 7071 213e 5392 70bd d6ce 0b3e b2b3 a1bd
00000020: f004 34bd 0626 f0bd 3448 ad3c 92ae 873e
00000030: d702 953e 8e66 0fbd e050 2c3e 6f0d 0a3d
00000040: 8d41 99b0 c09f a1bc b753 0c3e ada2 2fbc
00000050: 6e3a d53d 837c acbb 15d0 d23d 6cab 913d
00000060: edb7 933d edd9 a5bd a998 0fbd efd4 523e
00000070: b2e1 b5bc 49b3 aabc df3d 833e 09b6 563e

lin.2.weight f4 [3, 32]
-0.019062985 -9.156764e-05 0.2659852 -1.2924554 -0.63369775 0.22636832 -1.113586 -0.95841616
0.071362734 -0.0006874455 0.27639803 0.29723716 0.35427728 0.020153511 0.2738881 -0.7404207
-7.950352e-09 -0.08839167 0.3421435 0.05123643 0.19574243 0.00027711096 0.08304092 -0.29338968
-0.48126465 -1.1393137 -0.031751957 0.5343789 0.14914937 -0.017417742 0.33793983 0.2596591
2.06067e-40 -5.05008e-40 -2.03576e-40 -4.6156e-41 -1.29338e-40 1.36072e-40 -1.7938e-40 1.18534e-40
-1.5583e-40 5.23168e-40 9.1449e-41 -4.16812e-40 -8.2983e-41 -8.4095e-41 -9.0423e-41 4.6649e-40
-1.60009e-40 1.17116e-40 1.41283e-40 -3.6317e-40 8.21e-42 2.1436e-41 6.2028e-41 -2.3067e-41
6.4496e-40 -3.55131e-40 8.946e-42 -1.66477e-40 -3.30238e-40 -1.7149e-41 7.90395e-40 1.6921e-40
0.3775693 1.7413546e-16 0.30123106 0.23235716 -0.8154774 -0.7763699 -0.677226 -0.59693825
-0.07809725 -0.47147703 -0.16522698 0.09961096 -0.016761538 0.110102534 0.044035494 -2.0429845
-4.8689586e-10 -0.23828039 -0.25194904 -0.029104158 0.14163655 -0.00022339248 0.36747417 0.61488086
-0.56404525 0.58999455 -7.47305e-05 -0.78371704 -0.1806293 0.029935926 0.059505563 0.3385247
00000000: fa29 9cbc 0108 c0b8 362f 883e 2e6f a5bf
00000010: 043a 22bf 19cd 673e fc89 8ebf c35a 75bf
00000020: a026 923d b035 34ba 0b84 8d3e 782f 983e
00000030: d563 b53e fa18 a53c 103b 8c3e 368c 3dbf
00000040: 0596 08b2 b106 b5bd 6f2d af3e 4add 513d
00000050: b470 483e 3449 9139 5c11 aa3d 2c37 96be
00000060: 5268 f6be 08d5 91bf 570e 02bd 0ecd 083f
00000070: 9dba 183e a7af 8ebc 7306 ad3e 0af2 843e
00000080: 6e3e 0200 c27f 0580 7d37 0280 aa80 0080
00000090: 8b68 0180 507b 0100 0af4 0180 6d4a 0100
000000a0: 64b2 0180 61b2 0500 ecfe 0000 e789 0480
000000b0: 53e7 0080 6cea 0080 10fc 0080 6214 0500
000000c0: 0abe 0180 7946 0100 d789 0100 5ff4 0380
000000d0: e316 0000 c13b 0000 e9ac 0000 4d40 0080
000000e0: e305 0700 f6dd 0380 f018 0000 12d0 0180
000000f0: 9298 0380 ce2f 0080 4d9b 0800 b0d7 0100
00000100: c350 c13e b7c3 4825 f53a 9a3e 09ef 6d3e
00000110: 20c3 50bf 2ec0 46bf af5e 2dbf f2d0 18bf
00000120: 73f1 9fbd 7065 f1be 4331 29be d500 cc3d
00000130: 7e4f 89bc 707d e13d 905e 343d 42c0 02c0
00000140: 40d6 05b0 c6ff 73be 77ff 80be d86b eebc
00000150: 2c09 113e 763e 6ab9 9325 bc3e d568 1d3f
00000160: 4565 10bf e209 173f a2b8 9cb8 aea1 48bf
00000170: e3f6 38be 303c f53c 1bbc 733d 1c53 ad3e

lin.2.bias f4 [3]
0.012843656 4.8036e-40 -0.055372223
00000000: 336e 523c 0c3b 0500 fccd 62bd
