Simulator/models/stop_line_estimator.onnx (onnx, 66085 bytes, 13 tensors)

conv.0.weight f4 [4, 1, 5, 5]
-0.02125354 -0.018548759 -0.011267188 -0.001676545 -0.004315513 0.030293085 0.030603856 0.019781223
0.013749943 0.00042753914 -0.021762164 -0.036185727 -0.014915863 -0.007028354 -0.004630458 0.008854874
0.029656166 0.03164269 0.011121201 3.4128618e-05 -0.019145958 -0.023511881 -0.031157926 -0.0013560054
-0.0028106526 -0.01564263 0.0030308391 0.0063869986 -0.015036802 -0.010341737 -0.00041316487 -0.030471237
0.020516148 -0.010866715 -0.028127342 0.003452843 -0.02681995 0.045648783 -0.025040599 -0.009998171
-0.0056777257 -0.000519985 0.0069990857 0.014158431 -0.048278112 -0.0087818345 -0.0027368246 -0.010220929
-0.029571319 0.06515932 0.00046722332 0.00046774826 -0.0010036407 -0.0011088308 0.00038235847 -0.005724361
0.020095669 0.00066405523 0.00010739565 0.0003444321 -0.00012905338 -0.02577545 -9.074484e-05 -0.013370926
-0.00040248083 0.00014788593 -0.0039599356 -0.00025952896 -0.0025016163 0.034890875 -0.0013419675 0.00048333826
0.00069767906 0.0024633773 -0.008836443 0.0011377844 0.022173285 0.020407612 0.012211352 0.04073923
0.0048456336 -0.030735658 -0.024358222 0.012249961 -0.022663897 -0.055001605 0.00433605 -0.10885852
-0.12055288 -0.10374015 0.007552509 -0.00031224627 0.044915155 0.007496103 0.041499186 0.0040394478
0.0022767847 0.011675299 0.03294409 0.0093048345
00000000: e71b aebc 91f3 97bc 039a 38bc 84bf dbba
00000010: 2669 8dbb 3429 f83c f0b4 fa3c 3b0c a23c
00000020: 7147 613c 5527 e039 9146 b2bc 7c37 14bd
00000030: aa61 74bc 1b4e e6bb 19bb 97bb 0914 113c
00000040: 7df1 f23c c49b 013d b335 363c 5325 0f38
00000050: fcd7 9cbc fd9b c0bc e83e ffbc febb b1ba
00000060: ed32 38bb f924 80bc 0ba1 463b 074a d13b
00000070: eb5c 76bc 6470 29bc 0d9e d8b9 d19e f9bc
00000080: 7b11 a83c 4e0a 32bc 506b e6bc 1849 623b
00000090: 83b5 dbbc 38fa 3a3d f121 cdbc 5ecf 23bc
000000a0: 370c babb 9a4f 08ba 9658 e53b c4f8 673c
000000b0: 45bf 45bd afe1 0fbc 4c5c 33bb af75 27bc
000000c0: 8d3f f2bc 4072 853d a7f5 f439 1c3c f539
000000d0: 988c 83ba 3056 91ba 4977 c839 6c93 bbbb
000000e0: ac9f a43c fe13 2e3a 9a39 e138 e594 b439
000000f0: 8152 07b9 0927 d3bc 444e beb8 ba11 5bbc
00000100: 1004 d3b9 d411 1b39 59c2 81bb 6311 88b9
00000110: 28f2 23bb bce9 0e3d f5e4 afba 9068 fd39
00000120: 73e4 363a 9d70 213b bac6 10bc b621 953a
00000130: c0a4 b53c dd2d a73c 1f12 483c 2ede 263d
00000140: 1fc8 9e3b 59c9 fbbc e58a c7bc 0fb4 483c
00000150: a3a9 b9bc 5d49 61bd 6c15 8e3b 37f1 debd
00000160: 6ee4 f6bd b775 d4bd 0a7b f73b fcb4 a3b9
00000170: f4f8 373d dfa1 f53b 0dfb 293d 585d 843b
00000180: 1c36 153b c149 3f3c 62f0 063d 4e73 183c

conv.0.bias f4 [4]
-9.169552e-07 -5.7147594e-05 -4.5393757e-05 0.0005799564
00000000: ae24 76b5 c3b1 6fb8 2d65 3eb8 3708 183a

conv.3.weight f4 [4]
0.7497044 0.7548836 0.73699343 0.7435371
00000000: a1ec 3f3f 0d40 413f 9aab 3c3f 7358 3e3f

conv.3.bias f4 [4]
-0.0002466182 0.0006251374 -6.1072395e-05 -0.05398509
00000000: 894c 81b9 43e0 233a fe13 80b8 781f 5dbd

conv.3.running_mean f4 [4]
0.6620597 0.24980348 1.1375549 0.9405215
00000000: bf7c 293f 7ccc 7f3e 669b 913f 04c6 703f

conv.3.running_var f4 [4]
1.771367 0.7375672 1.4424663 5.567216
00000000: 27bc e23f 34d1 3c3f bca2 b83f a226 b240

conv.4.weight f4 [4, 4, 5, 5]
-4.4252993e-06 -2.5369309e-06 4.6945737e-05 6.823983e-05 -5.2550422e-05 -5.351535e-05 -5.4222357e-05 -0.00011817992
9.4198294e-05 -8.129643e-06 9.530494e-05 5.0075065e-05 5.940677e-05 1.554408e-05 3.030615e-05 -9.813465e-05
2.9719358e-05 8.946805e-05 -3.702119e-05 -7.6250464e-05 3.590974e-05 5.3569827e-05 -7.6151984e-05 -6.043869e-06
-6.983598e-05 3.28532e-05 0.0001518486 0.00010300296 7.3778046e-06 5.3742173e-05 0.00016237023 7.846368e-06
2.4488736e-05 2.7122549e-05 -1.0337979e-05 3.5028697e-05 -1.7725246e-06 0.00016424723 2.1844375e-05 2.723399e-05
5.048856e-05 0.000461021 0.00011764452 -6.255266e-05 3.6857691e-06 0.00014535827 1.3918761e-05 -1.738174e-05
-0.0002639584 -6.0925955e-05 -0.00027143935 -8.992525e-05 0.00016718479 0.00010437664 -0.00013627793 2.145709e-05
-0.00024315582 -8.4918385e-05 -0.00023156077 -0.00014390488 1.5249287e-05 9.5680494e-05 6.836582e-05 7.400606e-05
-1.0927961e-05 -5.974934e-05 1.5952446e-05 6.846389e-05 0.00012249102 8.497664e-05 0.0002985112 -0.00014252924
-0.00030248408 -0.00015721923 -1.6145601e-06 0.00026795792 5.226205e-08 3.444712e-05 -4.415567e-05 2.7649223e-06
-3.7683072e-05 3.4723278e-06 -4.7358102e-05 2.9804124e-07 -8.456702e-05 -4.1110437e-05 -2.6896501e-05 0.000117374904
-3.192605e-05 7.178728e-06 -7.7475315e-06 -4.9839782e-05 1.5601403e-05 3.9617084e-05 -4.9187944e-05 1.3302715e-05
9.206432e-05 8.18289e-05 -0.00011950418 2.1272306e-05 -0.0062542553 -0.00010424113 -0.00011941 2.620001e-05
-0.011354204 -7.105509e-05 -0.00015875619 -2.4469009e-05 -7.491757e-05 -7.088442e-05 -9.5534146e-05 -0.00021640596
1.2789078e-05 -0.000117773234 -0.0013588261 -0.0001378861 -1.7012619e-05 -0.00022302149 -0.002921662 -0.0055722473
-0.019335043 -0.0054548504 2.8400169e-05 -0.00018102626 5.4211746e-06 -0.0002504867 -0.00014747641 -0.00016587906
-0.00015579847 -0.0002002526 -0.00044575325 -0.00017612593 -0.00044393225 -0.00025556286 -1.6431593e-05 2.3957795e-05
-0.0002166519 0.00020535676 7.477767e-05 -0.00016595652 0.0004688648 0.012664668 0.04952603 -6.431491e-05
-0.00027675918 0.07939925 0.0005662517 0.00047521802 0.03310407 0.032859072 -2.4919507e-05 -0.0004893992
0.00019414468 0.00016429473 0.000115971925 -0.00046201673 0.0007270543 -0.00013357081 1.0164234e-05 0.00023737318
-0.015965419 -0.0003095017 -0.00018368085 7.906612e-05 8.816496e-06 -0.0041535525 0.00028869865 8.340567e-05
0.0006111003 6.0076523e-05 9.1569884e-05 0.014366295 0.0007112843 0.00027397578 -0.0005388077 -0.0036847263
-0.00063286204 -0.0005213346 -0.0027327607 -0.008191815 -0.002412646 -0.0073720138 4.0404557e-05 -0.00025717565
-0.007156755 -0.00038333586 -0.00013909406 -0.0003789638 -0.00592168 -0.008349412 -0.016776772 -6.3717143e-06
0.000114643044 -0.00034866418 -0.027811456 -0.030704215 -0.00031982234 -0.011839844 -0.0065570944 -0.018839842
6.5768596e-05 -0.00010286931 -3.6145488e-05 -6.527774e-05 1.320462e-05 0.00014713629 -6.777479e-05 5.5845958e-05
-2.4142531e-05 -0.00017121712 -0.00023344094 -2.1884605e-06 5.700954e-05 -1.0784206e-05 -4.0935836e-05 3.6907335e-05
-3.8748723e-05 -0.00038266258 -5.4437623e-05 -0.00014670129 -1.5826028e-05 7.1129584e-06 -2.2074026e-05 2.0018276e-06
5.340714e-05 1.3246226e-05 0.00015105837 4.5882058e-05 4.8549402e-05 0.0001482845 -3.1197716e-05 -0.00028102638
-7.14165e-05 -8.4345396e-05 3.5462013e-05 5.0219078e-05 -3.411191e-05 9.406977e-05 -1.6619422e-05 2.9616833e-05
-8.219645e-05 -4.4070903e-06 -0.00014800925 -0.0002439105 5.48972e-05 -0.0002162585 0.00011146982 2.9973002e-05
0.0022982634 3.787558e-05 -0.00025253883 -7.764616e-05 4.4583245e-05 -4.618325e-05 0.00032335034 2.7870841e-05
00000000: 087d 94b6 2440 2ab6 9ae7 4438 fb1b 8f38
00000010: 9669 5cb8 ab75 60b8 d06c 63b8 5dd7 f7b8
00000020: 538c c538 8d64 08b7 73de c738 b107 5238
00000030: 892b 7938 a864 8237 f639 fe37 a4cd cdb8
00000040: d64d f937 cba0 bb38 3347 1bb8 a8e8 9fb8
00000050: ca9d 1638 2ab0 6038 c9b3 9fb8 70cc cab6
00000060: e874 92b8 dbcb 0938 8c39 1f39 4b03 d838
00000070: dc8e f736 3869 6138 ed41 2a39 e5a3 0337
00000080: 296d cd37 3b85 e337 4871 2db7 c7eb 1238
00000090: 7be7 edb5 c839 2c39 703e b737 8c74 e437
000000a0: aec3 5338 31b5 f139 ecb7 f638 b42e 83b8
000000b0: 0859 7736 506b 1839 a084 6937 01cf 91b7
000000c0: e663 8ab9 bf8a 7fb8 f94f 8eb9 4096 bcb8
000000d0: 534e 2f39 c8e4 da38 d4e5 0eb9 c0fe b337
000000e0: a5f7 7eb9 3616 b2b8 1fcf 72b9 2ce5 16b9
000000f0: 30d7 7f37 13a8 c838 9f5f 8f38 b333 9b38
00000100: 3c57 37b7 5e9b 7ab8 9ed1 8537 4594 8f38
00000110: ef70 0039 7c35 b238 7f81 9c39 e773 15b9
00000120: ba96 9eb9 37db 24b9 ddb3 d8b5 b47c 8c39
00000130: bb76 6033 507b 1038 ca33 39b8 018d 3936
00000140: e40d 1eb8 2306 6936 60a2 46b8 7a02 a034
00000150: 9359 b1b8 ff6d 2cb8 cc9f e1b7 2c27 f638
00000160: 56e8 05b8 cee0 f036 65fb 01b7 0f0b 51b8
00000170: c2df 8237 852a 2638 274f 4eb8 ba2e 5f37
00000180: a812 c138 8e9b ab38 519e fab8 ee71 b237
00000190: 7ff0 ccbb 089c dab8 c16b fab8 18c8 db37
000001a0: fc06 3abc 6903 95b8 ca77 26b9 cc42 cdb7
000001b0: 101d 9db8 c9a7 94b8 8159 c8b8 08eb 62b9
000001c0: ac90 5637 06fd f6b8 a31a b2ba 8595 10b9
000001d0: 52b6 8eb7 e0da 69b9 5b79 3fbb 6697 b6bb
000001e0: 8664 9ebc 9abe b2bb e63c ee37 ded1 3db9
000001f0: 89e7 b536 c153 83b9 e6a3 1ab9 d2ef 2db9
00000200: d55d 23b9 e6fa 51b9 fdb3 e9b9 72ae 38b9
00000210: 94bf e8b9 11fd 85b9 94d6 89b7 f9f8 c837
00000220: 0d2d 63b9 0955 5739 f5d1 9c38 9d04 2eb9
00000230: f8d1 f539 787f 4f3c cedb 4a3d cee0 86b8
00000240: fd19 91b9 139c a23d 8270 143a af26 f939
00000250: 2298 073d 3c97 063d 3c0a d1b7 064b 00ba
00000260: 5193 4b39 8846 2c39 f435 f338 d63a f2b9
00000270: ca97 3e3a 240f 0cb9 0d87 2a37 61e7 7839
00000280: e9c9 82bc 9d44 a2b9 749a 40b9 4dd0 a538
00000290: 90ea 1337 861a 88bb 7a5c 9739 14ea ae38
000002a0: 3f32 203a adfa 7b38 3509 c038 9c60 6b3c
000002b0: 7b75 3a3a 68a4 8f39 c63e 0dba 737b 71bb
000002c0: a7e6 25ba 2caa 08ba 1e18 33bb f636 06bc
000002d0: 7c1d 1ebb ef90 f1bb 1078 2938 88d5 86b9
000002e0: 3683 eabb 78fa c8b9 c7d9 11b9 a9af c6b9
000002f0: a70a c2bb f9cb 08bc 716f 89bc 9ccc d5b6
00000300: 846c f038 eacc b6b9 dad4 e3bc 6887 fbbc
00000310: d4ad a7b9 e8fb 41bc e5dc d6bb 0356 9abc
00000320: 3fed 8938 8abb d7b8 ec9a 17b8 b8e5 88b8
00000330: 6989 5d37 9948 1a39 5022 8eb8 243c 6a38
00000340: b185 cab7 bf88 33b9 d3c7 74b9 77dd 12b6
00000350: 871d 6f38 d0ed 34b7 85b2 2bb8 f3cc 1a38
00000360: 2086 22b8 1aa0 c8b9 f453 64b8 d4d3 19b9
00000370: 23c2 84b7 d9ab ee36 9c2b b9b7 2357 0636
00000380: 7b01 6038 1c3c 5e37 6c65 1e39 7c71 4038
00000390: 86a1 4b38 d17c 1b39 4bda 02b8 b956 93b9
000003a0: 71c5 95b8 97e2 b0b8 0cbd 1438 53a2 5238
000003b0: 6213 0fb8 5347 c538 f069 8bb7 aa71 f837
000003c0: e260 acb8 9ee0 93b6 ee32 1bb9 3ac2 7fb9
000003d0: 6b41 6638 73c3 62b9 e7c4 e938 886e fb37
000003e0: 769e 163b 98dc 1e38 3067 84b9 f7d5 a2b8
000003f0: e5fe 3a38 e3b4 41b8 5987 a939 2dcc e937

conv.4.bias f4 [4]
0.0001092274 0.044781245 -3.4754958e-05 0.095026344
00000000: 0411 e538 8a6c 373d dac5 11b8 2c9d c23d

conv.7.weight f4 [4, 4, 6, 6]
-6.7471214e-05 3.6657122e-05 1.7713925e-05 0.00013301855 -0.00012685677 -0.00015240115 2.9034774e-05 -1.9887962e-06
-2.8469545e-05 6.033477e-05 -7.932789e-05 -8.804477e-05 9.343015e-05 -2.0849116e-05 -5.688875e-05 -5.1772397e-05
-4.449999e-05 0.00011720774 -5.0976155e-06 -9.883996e-05 4.5441007e-05 -7.246414e-06 6.147825e-05 4.0035422e-05
6.159423e-05 8.2156286e-05 -4.111994e-05 3.871417e-05 -8.993607e-06 2.9881387e-06 -7.6018415e-07 -4.8314276e-05
0.00013380751 7.188923e-05 6.6295484e-05 4.3202934e-05 1.621692e-05 3.1008447e-05 4.4637964e-05 -2.0609405e-05
-6.564884e-05 5.5007804e-05 -2.7546395e-05 -0.000102708196 1.0897313e-05 -4.4407097e-05 3.666154e-05 3.1081567e-05
6.4912897e-06 -5.304656e-05 1.2892588e-05 6.542105e-06 7.7163844e-05 -6.5952413e-06 5.983218e-05 0.00025505078
0.0068862736 0.00024179592 -1.4634274e-05 -3.9021816e-05 0.0048825596 0.00025715577 -1.0895537e-05 0.00024015154
6.3455096e-05 0.0001132066 0.009218235 0.014921146 0.008970209 0.010848379 0.016103515 0.008786347
2.803723e-05 1.7857004e-05 2.2566637e-05 1.5650947e-06 1.353916e-05 2.9291425e-05 -1.5563382e-05 -1.1534619e-05
8.661536e-05 -4.5142995e-05 -7.076636e-05 -3.4540306e-05 1.3074217e-05 4.60872e-05 -0.00018769823 3.342236e-05
-7.893533e-05 -3.4055956e-05 3.717128e-06 3.120026e-05 3.8865e-06 0.00025197983 4.024565e-05 4.4001208e-05
3.0387557e-06 8.780062e-05 -0.00016569349 -1.0399968e-05 9.837708e-05 5.7674148e-05 -4.3019583e-07 -0.00010508531
0.00022586664 -2.1135775e-05 0.0028392235 3.4962603e-05 0.00016918001 0.0007015283 8.541811e-05 0.00027298054
3.1701355e-05 0.00042751816 0.00013942017 3.395245e-05 8.399108e-05 0.0027726495 6.2087456e-05 0.00013948524
2.341275e-05 4.6080226e-05 0.00017203427 0.00018558925 0.00028025676 0.00033909924 0.00014968684 7.70551e-05
5.4428045e-05 0.00021916826 5.825036e-05 0.00027849595 0.00028047714 0.0001166602 -2.7347245e-05 -2.6065458e-05
0.009000986 0.0047636954 0.013078077 -7.233105e-06 -1.28441625e-05 0.005470318 0.0066022584 0.034958526
6.86312e-07 4.7506444e-05 -2.411163e-05 1.533209e-05 4.277276e-06 7.074699e-05 -0.00010081834 1.5784079e-05
5.4066777e-06 3.7630496e-05 -5.8785212e-05 -5.3560183e-05 6.281552e-06 -3.145803e-05 -1.682111e-05 3.1161308e-05
1.6701248e-05 -9.06357e-05 -9.4442206e-05 9.9881865e-05 -5.455179e-05 7.249801e-05 -4.373554e-05 7.536966e-05
8.829462e-06 9.888799e-05 -4.960369e-05 -0.00012641473 7.832726e-05 0.0001326179 -2.0407628e-05 -9.626656e-05
1.7160934e-05 -4.2799642e-05 -2.949703e-05 3.5738532e-05 -5.1005074e-05 1.254647e-05 -0.00010762509 0.00014613874
-7.039832e-05 -1.1718626e-06 7.453815e-05 -0.000113598006 -7.1442126e-05 -3.664741e-05 2.403119e-06 2.0941106e-05
-4.0347797e-05 -1.3660963e-05 -8.4940475e-06 -6.914931e-05 -7.216697e-05 7.56539e-05 -2.0287835e-05 7.9569545e-06
1.7217255e-05 -1.3546346e-05 -3.710651e-05 -2.5536681e-05 7.539276e-06 2.2197031e-05 -4.645108e-05 -2.0280168e-05
5.5121625e-05 2.37233e-05 -0.00021992042 4.571833e-06 4.573277e-05 -1.9685462e-05 6.224573e-05 4.7072e-05
8.330832e-05 0.00010275902 4.2824275e-05 -8.277734e-07 -5.8803278e-05 2.6996345e-06 -2.7387636e-05 -4.4387936e-05
-3.27725e-05 -6.614092e-05 -2.019786e-05 8.282505e-05 0.0001106697 -4.4616318e-05 1.1032781e-05 -7.014524e-05
4.6822447e-06 3.2640357e-05 -7.01855e-07 -2.7231568e-05 -1.5182436e-06 -1.3740355e-05 -5.2964246e-05 6.051704e-05
-8.873846e-05 -5.5944747e-05 -0.00010246621 0.00010570085 0.0001355586 -0.00011692616 -2.862934e-06 -1.575622e-06
3.3196302e-05 1.9340828e-06 -7.911587e-06 4.930636e-07 1.4975753e-05 -8.9592235e-05 8.2651655e-05 -0.00013381893
00000000: 557f 8db8 49c0 1938 5d98 9437 e57a 0b39
00000010: db04 05b9 dfcd 1fb9 b48f f337 4277 05b6
00000020: e2d1 eeb7 f70f 7d38 d65c a6b8 ada4 b8b8
00000030: eeef c338 23e5 aeb7 d59b 6eb8 3026 59b8
00000040: 80a5 3ab8 6dcd f538 2f0c abb6 4d48 cfb8
00000050: e997 3e38 3926 f3b6 e2ed 8038 b5eb 2738
00000060: 272c 8138 524b ac38 3378 2cb8 0661 2238
00000070: 3fe3 16b7 d587 4836 750f 4cb5 0fa5 4ab8
00000080: ae4e 0c39 3dc3 9638 1e08 8b38 cc34 3538
00000090: 9209 8837 110f 0238 a639 3b38 5ce2 acb7
000000a0: f4ac 89b8 2eb8 6638 6f13 e7b7 0b65 d7b8
000000b0: 9ad3 3637 c241 3ab8 07c5 1938 945d 0238
000000c0: c1cf d936 4f7e 5eb8 3e4d 5837 4184 db36
000000d0: 06d3 a138 b14c ddb6 50f4 7a38 56b8 8539
000000e0: 40a6 e13b 998a 7d39 ba85 75b7 5bab 23b8
000000f0: e1fd 9f3b ddd2 8639 facb 36b7 30d1 7b39
00000100: 3213 8538 5569 ed38 1408 173c d377 743c
00000110: c9f7 123c 66bd 313c 85eb 833c 9cf4 0f3c
00000120: 7e31 eb37 a0cb 9537 7c4d bd37 3f10 d235
00000130: 4026 6337 dbb6 f537 1c8e 82b7 d084 41b7
00000140: 44a5 b538 ec57 3db8 6668 94b8 5fdf 10b8
00000150: 5659 5b37 c14d 4138 dcd0 44b9 fc2e 0c38
00000160: 158a a5b8 4ed7 0eb8 c673 7936 06dd 0238
00000170: c868 8236 291c 8439 70cd 2838 f08d 3838
00000180: 6ded 4b36 9921 b838 02be 2db9 867b 2eb7
00000190: cb4f ce38 25e7 7138 aaf5 e6b4 3f61 dcb8
000001a0: 9dd6 6c39 bb4c b1b7 4412 3a3b cfa4 1238
000001b0: ea65 3139 c4e6 373a 8022 b338 d41e 8f39
000001c0: 12f7 0438 8424 e039 5131 1239 2a68 0e38
000001d0: 5e24 b038 57b5 353b f334 8238 c942 1239
000001e0: 7f66 c437 4446 4138 1964 3439 bc9a 4239
000001f0: 6def 9239 21c9 b139 41f5 1c39 a498 a138
00000200: ab49 6438 88d0 6539 d951 7438 1803 9239
00000210: 010d 9339 78a7 f438 c367 e5b7 25a7 dab7
00000220: df78 133c c618 9c3b 6e45 563c e6b3 f2b6
00000230: 427d 57b7 5a40 b33b c257 d83b ac30 0f3d
00000240: 003b 3835 a841 4738 5543 cab7 6a9d 8037
00000250: 8585 8f36 005e 9438 6f6e d3b8 0d68 8437
00000260: 026b b536 70d5 1d38 2490 76b8 cfa5 60b8
00000270: 1fc6 d236 cdf1 03b8 0f1b 8db7 33b3 0238
00000280: a819 8c37 ac13 beb8 460f c6b8 ab77 d138
00000290: 8ace 64b8 130a 9838 ae70 37b8 c70f 9e38
000002a0: 4022 1437 1662 cf38 8e0d 50b8 328e 04b9
000002b0: a143 a438 590f 0b39 0c31 abb7 b7e2 c9b8
000002c0: d3f4 8f37 c483 33b8 6470 f7b7 f5e5 1538
000002d0: 48ee 55b8 ae7e 5237 c8b4 e1b8 d23c 1939
000002e0: cfa2 93b8 e448 9db5 5d51 9c38 773b eeb8
000002f0: 33d3 95b8 dbb5 19b8 4545 2136 afaa af37
00000300: 1e3b 29b8 6431 65b7 a881 0eb7 4104 91b8
00000310: 5958 97b8 61a8 9e38 cb2f aab7 dc7e 0537
00000320: c66d 9037 1d45 63b7 d0a2 1bb8 9b37 d6b7
00000330: e3f9 fc36 c333 ba37 78d4 42b8 541f aab7
00000340: 6532 6738 6601 c737 709a 66b9 bf67 9936
00000350: 30d1 3f38 3522 a5b7 ec89 8238 2d6f 4538
00000360: d0b5 ae38 5480 d738 379e 3338 2834 5eb5
00000370: 8aa3 76b8 5e2b 3536 80be e5b7 2f2d 3ab8
00000380: 3475 09b8 23b5 8ab8 936e a9b7 5cb2 ad38
00000390: 5817 e838 6822 3bb8 6f19 3937 f01a 93b8
000003a0: 2d1c 9d36 51e7 0838 1c67 3cb5 596f e4b7
000003b0: 74c6 cbb5 6086 66b7 ed25 5eb8 add3 7d38
000003c0: 1919 bab8 37a6 6ab8 21e3 d6b8 b6ab dd38
000003d0: bc24 0e39 4136 f5b8 d520 40b6 f679 d3b5
000003e0: 423c 0b38 4acb 0136 02bc 04b7 135b 0435
000003f0: 5f40 7b37 77e3 bbb8 4555 ad38 bf51 0cb9

conv.7.bias f4 [4]
-0.0029073267 0.015387467 -0.018350134 -0.02381182
00000000: d988 3ebb b71b 7c3c 0553 96bc 0211 c3bc

lin.0.weight f4 [16, 64]
0.0034170062 0.005827044 -0.08915552 0.061064437 0.1355366 0.07312261 -0.0501947 0.11643348
0.09034098 0.025938721 0.071122095 -0.056912675 0.05207367 0.077657394 -0.06105294 -0.06977125
-0.06540654 -0.011094243 -0.085884936 -0.103970215 -0.03495421 0.11106775 -0.007704345 0.016182847
-0.079013094 0.04875211 -0.113797314 -0.031984936 -0.023808768 -0.0021508627 -0.039513413 0.004924304
0.07228822 0.07843936 0.022559583 -0.07356184 0.09993574 0.04368223 0.094567984 0.011602678
-0.0021261538 0.060582977 0.018863732 0.08973593 0.10354879 0.10828988 0.05647054 0.082970254
0.107841596 0.076018594 0.02641249 0.031071015 -0.09151098 -0.08502019 0.0028528154 0.11728617
0.041813333 0.051021095 -0.07143163 -0.024472525 0.12769026 0.10146931 0.1143392 0.046158884
-0.013549926 0.11839493 -0.056837596 0.11063544 -0.01866535 -0.0036403267 -0.0328512 -0.02029562
-0.0006137909 0.080965504 0.107760586 -0.009586978 -0.012061514 0.20561291 0.16581613 0.04447176
-0.10445397 0.09012404 0.012794512 0.050292924 0.112301655 0.116021514 0.03921298 0.05896741
0.023862626 -0.021165917 -0.0076436736 0.08632067 -0.06281065 0.09117232 0.08258418 0.09071775
0.15282525 0.0630333 0.110885285 0.13837115 0.103282675 0.14973612 0.18350686 0.107373625
0.23972496 0.06906897 0.040356822 0.06035672 0.05197118 0.03819716 0.11602092 0.1792944
0.029734464 0.042253144 -0.02443946 0.13520853 0.067069106 -0.04575583 0.0974363 0.1328273
0.1269919 0.13720942 -0.006896995 -0.012663676 0.04617299 0.0039946404 0.07885996 0.07332176
0.00928052 -0.08994096 0.11295945 -0.077911966 0.12049008 -0.09537205 -0.08207765 -0.08634672
-0.0059122443 -0.03180308 0.005720368 0.07067049 -0.04990862 0.008335175 0.08428009 0.07124216
0.012029244 0.08538871 0.042568773 0.032117285 0.028824031 -0.041522723 -0.028331585 -0.07814305
-0.03993604 -0.0027626283 0.03673135 -0.037234217 -0.05156661 0.03865908 -0.08885191 -0.013743707
0.087514155 0.1466338 0.14877073 0.081431925 0.1278641 0.08406692 0.10249039 0.06225628
-0.0577217 -0.05520102 0.08434459 0.14064267 0.0028272234 0.10226672 0.12554105 0.11298383
-0.010272964 0.017380157 -0.02459317 -0.0021577089 -0.06156899 0.0223527 -0.0017362392 0.11214208
-0.09750754 0.042511106 0.050237257 0.097072 0.11336654 0.11533064 0.016419815 0.0731658
0.03756672 0.05350992 0.10384597 -0.025745353 0.023955122 -0.028810717 0.11476716 -0.09690345
0.06130333 -0.0064550047 0.11103082 0.0034130728 0.11370397 0.06218243 -0.09239562 0.12512033
0.014527953 0.0031288096 -0.115811765 -0.107942134 0.060637645 0.0665991 -0.07853538 0.119394556
0.111003324 -0.056357734 0.012154816 -0.0710861 -0.044654436 0.01411741 0.055945914 -0.03943452
0.14403199 -0.018742507 0.10129634 0.06521428 -0.04205369 -0.015960924 0.08326335 0.11983049
0.15970808 0.09288308 0.12988004 0.041191928 0.0661763 0.052066453 0.16032708 -0.021001138
-0.010336966 0.11895634 0.09809147 -0.016481584 -0.03699854 0.11647873 0.009156314 -0.08935766
-0.016057972 0.11285295 -0.08736431 0.092374876 -0.07831617 0.08611961 -0.06873941 0.086198635
00000000: daef 5f3b caf0 be3b 2b97 b6bd b41e 7a3d
00000010: 1bca 0a3e 4fc1 953d f598 4dbd ad74 ee3d
00000020: b104 b93d 717d d43c 76a8 913d 441d 69bd
00000030: 334b 553d d70a 9f3d a612 7abd 3be4 8ebd
00000040: ddf3 85bd a1c4 35bc 71e4 afbd 56ee d4bd
00000050: 252c 0fbd 7d77 e33d bb74 fcbb e491 843c
00000060: 9ed1 a1bd 4bb0 473d 910e e9bd a302 03bd
00000070: 9b0a c3bc 7df5 0cbb d1d8 21bd 0e5c a13b
00000080: d90b 943d d1a4 a03d e0ce b83c 97a7 96bd
00000090: 1cab cc3d 23ec 323d dcac c13d 2919 3e3c
000000a0: f156 0bbb db25 783d 1d88 9a3c 79c7 b73d
000000b0: 6311 d43d 16c7 dd3d a74d 673d 4fec a93d
000000c0: 0edc dc3d a3af 9b3d 025f d83c a488 fe3c
000000d0: 1c6a bbbd 111f aebd 4df6 3a3b bb33 f03d
000000e0: 7544 2b3d 7ffb 503d bf4a 92bd 9b7a c8bc
000000f0: 3cc1 023e 24cf cf3d ac2a ea3d 1911 3d3d
00000100: 8200 5ebc 0b79 f23d 8ace 68bd d594 e23d
00000110: 13e8 98bc 8c92 6ebb fb8e 06bd 0043 a6bc
00000120: cfe6 20ba 3ed1 a53d 95b1 dc3d b312 1dbc
00000130: a89d 45bc 318c 523e b4cb 293e 0528 363d
00000140: f7eb d5bd f492 b83d 13a0 513c f4ff 4d3d
00000150: 69fe e53d b09c ed3d ca9d 203d d087 713d
00000160: 8e7b c33c 2564 adbc c877 fabb e4c8 b03d
00000170: dfa2 80bd 8eb8 ba3d e521 a93d 3aca b93d
00000180: 397e 1c3e 9a17 813d d317 e33d 2bb1 0d3e
00000190: de85 d33d 6d54 193e 39e9 3b3e b4e6 db3d
000001a0: 767a 753e 0874 8d3d 324d 253d 9c38 773d
000001b0: bbdf 543d a074 1c3d 609c ed3d f498 373e
000001c0: b195 f33c a211 2d3d 4335 c8bc 1b74 0a3e
000001d0: 875b 893d 776a 3bbd af8c c73d e103 083e
000001e0: 2a0a 023e a080 0c3e 3000 e2bb 4f7b 4fbc
000001f0: e41f 3d3d 79e5 823b 5581 a13d b829 963d
00000200: 520d 183c f732 b8bd 4957 e73d 4f90 9fbd
00000210: 81c3 f63d 6c52 c3bd 5418 a8bd 8dd6 b0bd
00000220: 80bb c1bb f243 02bd ed71 bb3b b1bb 903d
00000230: fb6c 4cbd 4290 083c 0a9b ac3d 69e7 913d
00000240: 4e16 453c 47e0 ae3d 985c 2e3d 6a8d 033d
00000250: 6020 ec3c bb13 2abd a417 e8bc 7709 a0bd
00000260: f993 23bd 360d 35bb 9d73 163d e882 18bd
00000270: 8237 53bd fc58 1e3d fdf7 b5bd 492d 61bc
00000280: 9f3a b33d 2c27 163e 5b57 183e c8c5 a63d
00000290: ceee 023e 472b ac3d 7be6 d13d 7100 7f3d
000002a0: 976d 6cbd 771a 62bd dbbc ac3d a204 103e
000002b0: f048 393b 3771 d13d d58d 003e 1164 e73d
000002c0: ef4f 28bc d560 8e3c 9e77 c9bc 5968 0dbb
000002d0: c42f 7cbd 021d b73c 8592 e3ba bfaa e53d
000002e0: 08b2 c7bd 2020 2e3d 95c5 4d3d afcd c63d
000002f0: b72c e83d 7832 ec3d d982 863c f3d7 953d
00000300: 90df 193d 382d 5b3d 32ad d43d ebe7 d2bc
00000310: 883d c43c 7404 ecbc 0b0b eb3d 5175 c6bd
00000320: 3319 7b3d 8184 d3bb 2064 e33d dcad 5f3b
00000330: a1dd e83d 01b3 7e3d ea39 bdbd 8b1f 003e
00000340: a706 6e3c b70c 4d3b b82e edbd c410 ddbd
00000350: 2e5f 783d 1c65 883d 28d7 a0bd 2285 f43d
00000360: b655 e33d 5ed7 66bd fe24 473c 9795 91bd
00000370: 92e7 36bd b64c 673c 8b27 653d 1786 21bd
00000380: 1f7d 133e e389 99bc 7574 cf3d 108f 853d
00000390: 7d40 2cbd 7cc0 82bc fa85 aa3d b069 f53d
000003a0: 848a 233e 7c39 be3d 46ff 043e deb8 283d
000003b0: 7187 873d a243 553d c82c 243e 940a acbc
000003c0: 615c 29bc 629f f33d 2ee4 c83d 6304 87bc
000003d0: c88b 17bd 678c ee3d 5d04 163c 2601 b7bd
000003e0: 028c 83bc 731f e73d 0fec b2bd 0a2f bd3d
000003f0: 3a64 a0bd 7a5f b03d 3fc7 8cbd e988 b03d

lin.0.bias f4 [16]
-0.06622027 0.018982256 0.07677118 -0.09769504 -0.024018623 0.13083567 0.12715365 -0.04320714
0.10664872 0.117012635 -0.037770223 -0.0018725389 0.12268706 -0.034588743 -0.06373457 0.023737201
00000000: 7e9e 87bd ad80 9b3c 353a 9d3d 5614 c8bd
00000010: b4c2 c4bc c9f9 053e 9134 023e f8f9 30bd
00000020: a56a da3d 52a4 ef3d f3b4 1abd fb6f f5ba
00000030: 5a43 fb3d edac 0dbd 4587 82bd 8574 c23c

lin.2.weight f4 [1, 16]
0.1485003 0.17281596 0.08183525 0.18640523 -0.010119376 0.16707014 0.23744473 -0.07145396
-0.036572743 0.13333832 -0.15236515 -1.0638191e-05 0.22890842 0.013938307 0.18055217 -0.21961915
00000000: 7610 183e abf6 303e 3d99 a73d 03e1 3e3e
00000010: bdcb 25bc 6f14 2b3e b624 733e 7456 92bd
00000020: 4dcd 15bd d789 083e 9c05 1cbe af7a 32b7
00000030: f866 6a3e 7f5d 643c abe2 383e d8e3 60be
