Simulator/models/trafficlight_classifier_small.pt (torch, 615090 bytes, 16 tensors)

conv.0.weight f4 [32, 1, 5, 5]
0	0x3dfbe2f8	0.1229915
1	0xbe3a8f94	-0.18218833
2	0x3e375973	0.17905216
3	0xbe28cfda	-0.16485539
4	0xbda3ce0c	-0.07998285
5	0xbcbed658	-0.023295566
6	0x3df76fdc	0.12081882
7	0xbd4c17d9	-0.04982743
8	0x3d7f8f4a	0.06239251
9	0xbd97d1dd	-0.07413075
10	0xbe0dc867	-0.13845979
11	0x3e40f92b	0.1884505
12	0xbe45eb0e	-0.19327947
13	0xbe178b54	-0.14799243
14	0xbe3aea5b	-0.18253462
15	0xbe3335de	-0.17501017
16	0xbdf0ccf5	-0.117578425
17	0xbdcc1ad8	-0.099660575
18	0x3e018aca	0.126506
19	0xbe48cec6	-0.19610128
20	0x3db3b9e3	0.087756895
21	0xbcbd7cc0	-0.023130774
22	0xbe159cd3	-0.14610605
23	0x3d1c7810	0.038200438
24	0xbe0bab6a	-0.13639608
25	0x3e223670	0.15841079
26	0x3cf57276	0.029961806
27	0x3c8fb02e	0.017540064
28	0x3e14e664	0.14541012
29	0xbd5b3686	-0.053518794
30	0xbd84c257	-0.0648238
31	0xbd764f31	-0.060134117
32	0x3e211589	0.15730871
33	0xbc1f7ec8	-0.009734817
34	0xbd9da0ff	-0.07696723
35	0x3d9bab0b	0.07600983
36	0xbe39794d	-0.18112679
37	0xbdd19af3	-0.10234632
38	0xbd05470c	-0.03253846
39	0x3d845ed8	0.064634025
40	0x3e09bcba	0.134509
41	0xbc217ad8	-0.009855948
42	0x3e17821c	0.14795727
43	0xbdfafd78	-0.122553766
44	0xbcf1b09b	-0.029503157
45	0x3d36acd0	0.0445984
46	0x3d2d0087	0.04223683
47	0xbe28292e	-0.16421959
48	0xbd7df9fb	-0.062005978
49	0x3e19910f	0.14996742
50	0x3d46afd1	0.048507515
51	0xbd9b5bd7	-0.075858764
52	0x3e3d68e0	0.18497038
53	0x3e473a4d	0.19455834
54	0x3e397de8	0.18114436
55	0x3de42f90	0.11141884
56	0x3dff7b18	0.1247465
57	0xbe3868ec	-0.18008775
58	0x3c28ba4e	0.010298325
59	0x3e43669e	0.19082114
60	0x3d3814ab	0.044941586
61	0x3b582115	0.0032978703
62	0x3def3374	0.11679736
63	0xbda5190f	-0.0806142
64	0xbe4a59fb	-0.19760887
65	0x3bc1e3c5	0.005917045
66	0x3e43204a	0.19055286
67	0xbe09cc1a	-0.13456765
68	0x3dc27672	0.09495248
69	0xbd1ab4c0	-0.037770033
70	0x3e4b60bf	0.19861124
71	0x3da611bc	0.08108851
72	0x3e30db8a	0.17271248
73	0x3e03a449	0.12855639
74	0x3d013cd3	0.031552147
75	0xbc4b24c1	-0.0123988995
76	0xbe12fc30	-0.14354014
77	0xbdbae144	-0.09124997
78	0xbd9ac180	-0.075564384
79	0x3cc48011	0.023986848
80	0xbd4938e0	-0.049126506
81	0x3dcd2128	0.1001609
82	0xbe3a8104	-0.18213278
83	0xbcd3d33f	-0.025857566
84	0xbd1566b6	-0.036474906
85	0xbcaff358	-0.02147834
86	0xbe00f28a	-0.12592521
87	0x3d9f48e1	0.077775724
88	0xbe325793	-0.1741622
89	0x3d1dda72	0.038538404
90	0x3e1f317e	0.15546224
91	0x3cd3e59e	0.025866326
92	0x3e0cdc06	0.13755807
93	0xbcbcbcaa	-0.02303918
94	0xbd0e89ea	-0.034799494
95	0x3e236637	0.1595696
96	0x3d2b9f7d	0.041900147
97	0x3dfb121f	0.12259316
98	0x3e4b0a59	0.19828166
99	0x3e2ef3f0	0.17085242
100	0xbe3551e7	-0.17707025
101	0x3ccfb7d8	0.025356218
102	0xbe13c43d	-0.14430328
103	0x3cec48ff	0.028843401
104	0xbd8f4278	-0.069951
105	0xbdd8b6ac	-0.10581717
106	0x3d5070bb	0.05088876
107	0xbde94352	-0.113897935
108	0xbcf9783f	-0.030452846
109	0xbd84589a	-0.06462212
110	0xbd98ba73	-0.07457437
111	0xbd3f19ef	-0.04665559
112	0xbe0d7d5f	-0.13817357
113	0x3c55440d	0.013016713
114	0x3e24726a	0.1605927
115	0x3d39b57c	0.045339093
116	0xbdce87e1	-0.100845106
117	0x3e423c01	0.18968202
118	0x3d8472ad	0.06467185
119	0xbe3fc8b5	-0.18728907
120	0xbde5aec6	-0.11214976
121	0xbe220105	-0.15820701
122	0x3d017125	0.031602044
123	0xbdb5fbac	-0.08885893
124	0x3dc16541	0.09443141
125	0x3d5b1f79	0.05349681
126	0xbccdbcce	-0.025114443
127	0x3de2742c	0.11057314
128	0x3d350226	0.044191502
129	0x3da970de	0.08273481
130	0x3e2f5e1b	0.17125742
131	0x3e330b08	0.17484677
132	0xbe0356c6	-0.1282607
133	0xbe2002d6	-0.15626082
134	0x3aff683f	0.0019486024
135	0x3dfb7aee	0.12279306
136	0x38aad847	8.1465165e-05
137	0xbcce1ec0	-0.025161147
138	0x3dcb35f3	0.09922399
139	0x3dbe9f0c	0.093076795
140	0xbd63a47d	-0.05557679
141	0xbe0aaaf8	-0.13541782
142	0xbddfe366	-0.10932045
143	0xb9ea238e	-0.00044658448
144	0x3df1eb09	0.118124075
145	0x3cb8d6d3	0.022563374
146	0xbdc77785	-0.097395934
147	0xbdd46606	-0.10371022
148	0xbd0d47ee	-0.034492426
149	0xbd594e71	-0.053053323
150	0x3d489b5f	0.0489763
151	0x3e05603a	0.13024989
152	0x3dffadaa	0.12484296
153	0x3e3d00b8	0.18457305
154	0xbd7e1365	-0.062030215
155	0x3e4419fd	0.19150539
156	0xbd80ebd3	-0.0629498
157	0xbe28f5e4	-0.1650005
158	0xbdda602b	-0.10662874
159	0xbd91bcc1	-0.0711608
160	0x3dc7c622	0.09754588
161	0x3e052648	0.13002884
162	0x3bc69e95	0.006061385
163	0x3e044579	0.12917127
164	0xbe22806a	-0.15869299
165	0xbe133c48	-0.14378464
166	0xbe1b01c2	-0.1513739
167	0xbe46371b	-0.19356959
168	0x3cfe812d	0.031067455
169	0xbd27fbf0	-0.04101175
170	0xbe33d0f0	-0.17560172
171	0xbe0e5697	-0.13900219
172	0xbe0a57cf	-0.13510059
173	0x39c4fc1a	0.00037571864
174	0xbbfa08c8	-0.0076304413
175	0x3e24b2e0	0.1608386
176	0xbe392381	-0.1807995
177	0x3e0f85f1	0.14015938
178	0x3e12e0f4	0.14343625
179	0xbdcfa7ca	-0.10139425
180	0x3de16eb9	0.11007447
181	0xbd7b7b79	-0.06139705
182	0xbda21241	-0.07913638
183	0x3dd8aedc	0.10580227
184	0x3d0cd622	0.0343839
185	0xbd3afa08	-0.045648605
186	0x3deafd30	0.11474073
187	0x3e39b020	0.18133593
188	0xbdf90791	-0.12159646
189	0x3e27ae9f	0.16375206
190	0x3e32d22c	0.17462987
191	0x3ddedaac	0.10881552
192	0xbd87d756	-0.06632869
193	0x3dd02d33	0.10164871
194	0x3a08787e	0.0005205943
195	0xbd2e708e	-0.04258781
196	0x3e1a36e9	0.15060009
197	0x3d46cfae	0.048537903
198	0x3e267a51	0.16257598
199	0x3e265b4f	0.16245769
200	0xbe0784d3	-0.13234262
201	0xbcc1e694	-0.023669519
202	0x3cae5557	0.021280928
203	0x3e2a2e35	0.16619189
204	0xbe0cb736	-0.13741764
205	0x3e13a319	0.14417686
206	0x3dd45a71	0.10368813
207	0x3c931079	0.01795219
208	0xbcc0c2ae	-0.02353033
209	0xbd94f13b	-0.072725736
210	0x3e0c9ac9	0.13730921
211	0xbd0c4453	-0.034244847
212	0x3e1b7a66	0.1518341
213	0x3e358e8b	0.17730157
214	0x3e26d997	0.16293941
215	0xbc1cc9f9	-0.009569638
216	0xbde89075	-0.11355678
217	0x3e23a419	0.15980567
218	0xbcee3071	-0.029075833
219	0x3df04f3b	0.11733862
220	0xbe33af4b	-0.17547338
221	0xbe1c6028	-0.15271056
222	0xbe127fdb	-0.14306585
223	0xbdb3093f	-0.08741998
224	0xbdf199b1	-0.117968924
225	0x3d403665	0.046926875
226	0x3e09cdf2	0.13457468
227	0xbe3e3a70	-0.1857698
228	0xbdb9c25a	-0.09070273
229	0x3d709744	0.05873801
230	0xbd9cd6d6	-0.07658164
231	0xbc8740c6	-0.016510379
232	0x3de94b75	0.113913454
233	0x3e022615	0.1270984
234	0xbd279f3e	-0.04092335
235	0x3b92c42e	0.004478953
236	0x3e2fefda	0.1718134
237	0x3e24c49b	0.16090624
238	0xbe4a0c6d	-0.19731303
239	0x3d5df51a	0.054188825
240	0x3dfc90b7	0.1233229
241	0xbe22d9fd	-0.15903468
242	0xbe34e6a2	-0.17666104
243	0xbe093dfb	-0.1340255
244	0xbe10033f	-0.14063738
245	0x3d184d10	0.037182868
246	0xbe07cab9	-0.13260926
247	0xbdf347de	-0.11878942
248	0x3d7754bf	0.060383555
249	0x3dd4c622	0.10389353
250	0x3e3ddf90	0.18542314
251	0xbe0d705b	-0.13812391
252	0xbe08a85e	-0.13345477
253	0x3e206316	0.15662798
254	0x3c983532	0.018580053
255	0x3db9b2c3	0.09067299

conv.0.bias f4 [32]
0	0x3d03789a	0.032097436
1	0xbe3b9c23	-0.1832128
2	0xbdddd644	-0.108318835
3	0x3d0eaf17	0.034834947
4	0x3e1a10e0	0.150455
5	0x3e3d56e7	0.18490182
6	0xbe47cf3c	-0.19512647
7	0xbe470761	-0.19436409
8	0xbda9c92c	-0.082903236
9	0xbdd052d3	-0.101720475
10	0x3cde6736	0.027148824
11	0xbe0e0aaa	-0.13871256
12	0x3cf3daef	0.029767482
13	0xbdc88177	-0.097903185
14	0xbe194361	-0.1496711
15	0x3e3ffe6e	0.18749401
16	0x3e330382	0.17481807
17	0xbdfb5c3e	-0.12273453
18	0x3d80d1c3	0.06290009
19	0x3e1760d1	0.14783026
20	0x3dcc3137	0.099703245
21	0xbe23c898	-0.15994489
22	0xbe06b971	-0.13156678
23	0xbe136a76	-0.1439608
24	0xbc2d966f	-0.010594948
25	0x3e3605bf	0.1777563
26	0x3e2cd566	0.1687828
27	0x3d5db449	0.05412701
28	0x3e17c4e7	0.14821206
29	0xbc6c3819	-0.014417672
30	0xbdadbfbe	-0.084838375
31	0xbe1bdb74	-0.15220433

conv.2.weight f4 [32, 32, 5, 5]
0	0xbbb543fc	-0.005531786
1	0xbbc57d52	-0.0060269022
2	0x3bb665ed	0.0055663497
3	0xbb922cba	-0.004460898
4	0xbd0f1c48	-0.03493908
5	0xbc54446d	-0.012955767
6	0xbce7cf02	-0.028296951
7	0xbcc04346	-0.023469578
8	0x3acd2b3f	0.0015653147
9	0xbc8e0e08	-0.017340675
10	0xbc3dddba	-0.011588508
11	0xbc8756c5	-0.016520867
12	0x39ec5c02	0.0004508198
13	0x3d0f3f14	0.034972265
14	0xbca0c509	-0.019625204
15	0x3c32855c	0.010896053
16	0xbc662c01	-0.014048577
17	0x3ce169df	0.027516304
18	0xbc3a1a9f	-0.011358886
19	0x3c99d98d	0.018780494
20	0xbd161881	-0.036644462
21	0xbbb11e31	-0.0054052104
22	0xbcaf76b2	-0.021418903
23	0xbb361a83	-0.0027786798
24	0x3c87d909	0.016582983
25	0x3c97440d	0.018465066
26	0x3cc2deb3	0.023787832
27	0x3cad586e	0.02116033
28	0xbb9e1c34	-0.0048251394
29	0x3d105801	0.035240177
30	0x3c6987d9	0.01425358
31	0xbd0ddc1a	-0.034633733
32	0x3c1c0892	0.009523528
33	0xbc4af132	-0.012386607
34	0xbaed6964	-0.0018113074
35	0xbc3b13be	-0.011418281
36	0x3cd0efb3	0.025504922
37	0xbcb00eb5	-0.021491388
38	0x3cfe25ac	0.031023823
39	0x3c4559e6	0.012045359
40	0x3cc3f669	0.023921208
41	0xbb0840bc	-0.0020790538
42	0xbb99d4e9	-0.0046945703
43	0xbc8d0981	-0.017216446
44	0xbc25773b	-0.010099228
45	0x3c7c9c11	0.0154180685
46	0xbd184513	-0.03717525
47	0xbc1a9c14	-0.009436626
48	0x3c1d5dbe	0.009604869
49	0xbbdd17b4	-0.0067472104
50	0x3c496db5	0.012294223
51	0x3caf0404	0.02136422
52	0xbc68fbd8	-0.0142202005
53	0x3d024330	0.031802356
54	0x3d1073af	0.035266574
55	0x3c1feb06	0.009760624
56	0xbc8f4107	-0.017487062
57	0xbcd952fb	-0.026528826
58	0xbc6d2285	-0.014473562
59	0xbc06df52	-0.008231955
60	0x3cbbb5e0	0.022913873
61	0xbb0f7848	-0.0021891762
62	0xbc07936a	-0.008274892
63	0x3d0aad31	0.033856574
64	0xbc39bba4	-0.011336241
65	0xbd1c449a	-0.03815136
66	0xbc8fb3bf	-0.017541764
67	0xbcbc3a80	-0.022977114
68	0x3d05bca2	0.032650597
69	0xbb68c89d	-0.0035519965
70	0xbcdb92d1	-0.026803406
71	0x3c69a089	0.014259466
72	0xbc99d072	-0.018776152
73	0x3c17a4b0	0.009255573
74	0xbcddd805	-0.027080545
75	0x3cb25c9f	0.02177268
76	0xbc6bfad5	-0.014403065
77	0xbd019796	-0.031638704
78	0x3cdad3c5	0.026712308
79	0xbcb0222d	-0.021500671
80	0xbce5a037	-0.028030498
81	0x3cf228cc	0.02956047
82	0x3c647456	0.013943752
83	0xbc601809	-0.013677605
84	0xb9f4e0d5	-0.0004670682
85	0x3c7773e2	0.015103312
86	0x39d0e2f3	0.00039841942
87	0x3ca6e2aa	0.020371754
88	0xbb658966	-0.0035024523
89	0xbc0f304f	-0.008739545
90	0xbc07e4ab	-0.008294265
91	0xbc2c17e8	-0.010503747
92	0xbcf62ac9	-0.030049698
93	0xbd1a0bf6	-0.037609063
94	0x3cd469fb	0.025929442
95	0x3d033323	0.03203119
96	0x3ce65e56	0.028121155
97	0xbce08967	-0.027409269
98	0xbd02fbbe	-0.03197836
99	0xbc059d01	-0.008155108
100	0x3a1febf0	0.0006100526
101	0xbcb2f17b	-0.021843662
102	0x3c972ef2	0.018455002
103	0x3c9b515d	0.018959695
104	0xbcf27e3b	-0.029601207
105	0xbc7cd15e	-0.015430776
106	0x3d1f57fb	0.038902264
107	0x3c8cc478	0.017183527
108	0x3cd6c4c1	0.026216866
109	0x3d09cd4e	0.03364306
110	0x3cfaa672	0.030596945
111	0xbc2ac25f	-0.010422318
112	0xbb5cf54f	-0.0033715551
113	0x3cfe7cce	0.03106537
114	0x3cce1990	0.025158674
115	0x38ea7a26	0.000111807414
116	0x3ca3a47f	0.019975899
117	0xbcbb2bca	-0.022848029
118	0xbcd49c76	-0.025953513
119	0xbcc9b23a	-0.024621118
120	0xbcb631fb	-0.02224063
121	0x3bdf1a74	0.0068085734
122	0xbcd6388f	-0.026150016
123	0xbb8f7517	-0.004377972
124	0x3c60c610	0.013719097
125	0x3c233a39	0.009962612
126	0x3c399054	0.011325914
127	0x3c10d2de	0.008839337
128	0xba21dfcc	-0.0006175011
129	0xbb50bba3	-0.0031850121
130	0x3bfa7509	0.007643346
131	0xbccb844d	-0.02484336
132	0x3ce0d0c3	0.027443295
133	0x3cedac47	0.029012812
134	0xbca24085	-0.019806156
135	0x3bba2fd3	0.0056819706
136	0x3c3682b8	0.011139564
137	0xbcf99a9d	-0.030469233
138	0xbd00b15b	-0.03141914
139	0x3c1895f7	0.009313098
140	0xbc164110	-0.009170786
141	0xba31bc17	-0.0006780042
142	0xbcd71430	-0.026254743
143	0xbcf117c1	-0.029430272
144	0xbcb95e64	-0.022628017
145	0x3a93762b	0.0011250427
146	0xbc9e732e	-0.019342031
147	0x3b9b2973	0.0047351657
148	0xbbca3b8e	-0.0061716503
149	0x3c9c303a	0.019065965
150	0x3c6d67da	0.014490092
151	0xbb84792f	-0.0040427665
152	0x39ab852a	0.00032714877
153	0x3c8dab84	0.0172937
154	0x3c87767c	0.01653599
155	0xbc875024	-0.016517706
156	0xbd093237	-0.033495154
157	0x3b2a0907	0.0025945322
158	0xbc829b79	-0.015943276
159	0xbca2bf6c	-0.019866668
160	0x3ca70a67	0.020390702
161	0xbd0bf147	-0.034165647
162	0x3cf9e089	0.030502575
163	0xbc795c1c	-0.0152197145
164	0xbc90810f	-0.017639665
165	0xbcee7a55	-0.029111067
166	0xbd02f5bc	-0.03197263
167	0xbca1fa9a	-0.019772816
168	0x3cf9e621	0.030505242
169	0x3ceffceb	0.029295405
170	0xbc951ce3	-0.01820225
171	0xbc73f4fb	-0.014889951
172	0xbb2f87c7	-0.002678381
173	0x3cab9afb	0.020947924
174	0x3cbd1bdf	0.023084579
175	0x3cdc21ea	0.02687164
176	0xbc9bfa96	-0.019040387
177	0xbc0495f6	-0.008092394
178	0xbc0917b1	-0.008367465
179	0x3d0a58d6	0.033776127
180	0x3cbaedfc	0.022818558
181	0xbd0264ed	-0.03183453
182	0x3cd6d25c	0.026223354
183	0x3d052d4e	0.03251391
184	0xbc808ee3	-0.015693134
185	0x3cc46ee1	0.023978652
186	0xbd142fbb	-0.03617833
187	0xbd091584	-0.033467785
188	0x3c1e8be5	0.009676908
189	0x3ccf6057	0.025314493
190	0x3ccf7bd6	0.025327604
191	0xbccccbe3	-0.024999565
192	0xbb132412	-0.002245192
193	0xbb82647e	-0.0039792648
194	0x3b0f68ed	0.002188261
195	0x3a768305	0.00094036787
196	0x3b742259	0.0037251918
197	0xbb33c1a0	-0.0027428642
198	0xbcdf5617	-0.02726273
199	0xbcd94e44	-0.026526578
200	0xbcf232e3	-0.02956528
201	0xbce53871	-0.027981015
202	0xbbb65d96	-0.0055653555
203	0x3ccc3d38	0.024931535
204	0x3bbdeff2	0.005796426
205	0x3c19d8f4	0.009390105
206	0xbd0ad796	-0.033897005
207	0x3d075148	0.0330365
208	0xbcaa6375	-0.020799378
209	0xbbcc7429	-0.0062394333
210	0x3c4d091b	0.012514378
211	0x3c31de26	0.010856187
212	0xbb357897	-0.0027690285
213	0x3c289339	0.010289007
214	0xbc3b409c	-0.011428978
215	0xbc7b57e0	-0.015340775
216	0x3c9dbc98	0.019254968
217	0xbba0e8ae	-0.00491055
218	0xbcf02433	-0.029314136
219	0xbcee119b	-0.02906113
220	0xbcaea939	-0.021320926
221	0x3cd369e6	0.025807332
222	0xbc87af7e	-0.016563173
223	0xbb12e91e	-0.002241678
224	0x3ace5ae6	0.0015743643
225	0x3cdff297	0.027337356
226	0xbb1535b5	-0.0022767608
227	0x3d1f33c2	0.03886772
228	0xbcbbca12	-0.022923503
229	0x3c7d443f	0.015458166
230	0xbd0faedc	-0.03507887
231	0x3b85c74a	0.004082595
232	0x3bbc460d	0.0057456554
233	0xbccdbbf7	-0.025114043
234	0x3cea2f61	0.028587045
235	0x3cdb4a18	0.02676873
236	0xbcb7a47d	-0.022417301
237	0x3b84d76c	0.0040540006
238	0xbb555ef7	-0.0032557824
239	0x3c90837e	0.017640825
240	0x3bad78fa	0.0052939625
241	0xb910c50b	-0.00013806314
242	0xbbd1dec7	-0.006404731
243	0xbcd135d0	-0.025538355
244	0x3cb284ec	0.021791898
245	0x3c92555c	0.017862968
246	0xbc87ff80	-0.016601324
247	0xbd0d326d	-0.034471918
248	0x3c3ee8d2	0.011652188
249	0x3ca2b111	0.019859822
250	0x3b868188	0.004104797
251	0xbc9b06e6	-0.018924188
252	0x3d15287e	0.03641557
253	0xbbbe57a7	-0.005808789
254	0x3ce7ffe8	0.028320268
255	0x3b92add8	0.00447629

conv.2.bias f4 [32]
0	0x3ca4a5eb	0.020098647
1	0xbb753b9d	-0.0037419565
2	0xba0e0c1f	-0.00054186763
3	0xbc791cd7	-0.01520463
4	0xbcfa1fc3	-0.030532723
5	0xbce9c1a0	-0.02853471
6	0xbcdcfbc4	-0.02697552
7	0x3c27cf8f	0.010242357
8	0xbc4cd291	-0.012501375
9	0x3cbf7072	0.023369048
10	0xbc9ac17b	-0.018891087
11	0xbc8daa7d	-0.01729321
12	0x3a333c27	0.00068372715
13	0x3d14ef2d	0.03636091
14	0x3b8b9a07	0.004260305
15	0x3b1fadbb	0.0024365026
16	0x3cceeef5	0.025260428
17	0x3c0077dd	0.007841078
18	0xbca20dc5	-0.019781956
19	0x3ccdbbe3	0.025114005
20	0x3cf551db	0.029946258
21	0xbc4ec174	-0.012619365
22	0x3cd83de7	0.026396705
23	0x3cbbe996	0.02293853
24	0xbcde02d0	-0.02710095
25	0xbc5fc366	-0.013657426
26	0x3be23424	0.0069031883
27	0xbba449be	-0.0050136736
28	0x3ccc81ef	0.0249643
29	0x3989066b	0.00026135458
30	0xbd0bf3c3	-0.034168016
31	0x3c16765c	0.0091834925

conv.5.weight f4 [32]
0	0x3f80e9da	1.0071366
1	0x3f80528e	1.0025194
2	0x3f7e38be	0.9930533
3	0x3f8052e8	1.0025301
4	0x3f7f9be3	0.9984724
5	0x3f7f9aef	0.99845785
6	0x3f809d91	1.0048085
7	0x3f80552a	1.002599
8	0x3f809845	1.0046469
9	0x3f80574b	1.002664
10	0x3f8051f7	1.0025014
11	0x3f7ff7aa	0.9998728
12	0x3f8000f7	1.0000294
13	0x3f800296	1.0000789
14	0x3f810a1a	1.0081208
15	0x3f8019f9	1.0007926
16	0x3f80fa48	1.007638
17	0x3f7ff4df	0.9998302
18	0x3f7ff37e	0.99980915
19	0x3f7e1e09	0.9926458
20	0x3f802d65	1.0013853
21	0x3f7f95cb	0.9983794
22	0x3f8077d3	1.0036567
23	0x3f7eaf31	0.9948607
24	0x3f804d23	1.002354
25	0x3f7e5bad	0.99358636
26	0x3f803cca	1.0018551
27	0x3f7e4edf	0.993391
28	0x3f80ffa1	1.0078012
29	0x3f7f8b5d	0.99822026
30	0x3f7ee0a0	0.995615
31	0x3f7ea904	0.9947665

conv.5.bias f4 [32]
0	0xbad9dafb	-0.0016621047
1	0x3b76433b	0.0037576694
2	0x3b53ea88	0.0032335836
3	0x3abd3cba	0.0014437654
4	0x3bb3ec08	0.0054907836
5	0x3b3df974	0.0028987797
6	0xbc028cfa	-0.007968182
7	0xbb463304	-0.003024281
8	0xbc00f0bc	-0.007869896
9	0xbb43d33c	-0.0029880544
10	0xbbfc5f24	-0.0077017713
11	0x3b9c9c95	0.004779408
12	0xbbdfa613	-0.0068252175
13	0x3b382f14	0.0028104233
14	0xbbab7f03	-0.005233647
15	0xbab98035	-0.0014152589
16	0xbb7a6e23	-0.003821262
17	0xbb8c2014	-0.004276285
18	0xbb729c65	-0.0037019488
19	0xbb89027f	-0.0041812058
20	0x3b2740bb	0.002552076
21	0x3bc79456	0.006090681
22	0x3b0989e0	0.002098672
23	0xbbaa5f03	-0.0051993146
24	0x3b639d8b	0.0034731354
25	0xbb1ea085	-0.0024204564
26	0xbbf34658	-0.007424157
27	0xbba85266	-0.005136776
28	0xbc06d724	-0.008230004
29	0x3c028bdb	0.007967914
30	0xbb0d48b5	-0.002155823
31	0x3bb9008f	0.0056458185

conv.5.running_mean f4 [32]
0	0x3dc47486	0.095925376
1	0x41df7f36	27.937115
2	0x41a793a0	20.947083
3	0x401f079e	2.48484
4	0x3e5d9a8d	0.21640988
5	0x3c9a23b0	0.018815845
6	0x4196e841	18.863405
7	0x40c6f735	6.2176766
8	0x400904a5	2.1409085
9	0x3d684844	0.056709543
10	0x4012073b	2.2816913
11	0x3fa2d208	1.2720346
12	0x41369862	11.412203
13	0x3e271015	0.16314729
14	0x3f075f66	0.5287994
15	0x40f378f8	7.6085167
16	0x3d2880e5	0.04113855
17	0x3e12795b	0.14304106
18	0x3bdc1a3d	0.006716995
19	0x413655fe	11.395994
20	0x40e5a804	7.1767597
21	0x3d07388b	0.033012908
22	0x3f642b8e	0.8912896
23	0x41a43f58	20.53093
24	0x4232f5b5	44.73995
25	0x4104abd9	8.291955
26	0x3f755223	0.95828456
27	0x3c62a243	0.0138326315
28	0x3f772069	0.9653383
29	0x40f5cfbd	7.6816087
30	0x3cd2119b	0.02564316
31	0x3f5e94c5	0.86945754

conv.5.running_var f4 [32]
0	0x3f913a8b	1.1345991
1	0x4419a066	614.5062
2	0x43b5e486	363.78534
3	0x41b500b5	22.625345
4	0x40287ffa	2.632811
5	0x3edf3328	0.43593717
6	0x43a6c993	333.5748
7	0x427e4fd8	63.577972
8	0x41375e27	11.460486
9	0x3f4e61fd	0.8061827
10	0x41c0d995	24.106241
11	0x415d9bc5	13.85053
12	0x42dca382	110.31935
13	0x3fd00ebf	1.62545
14	0x40fa455b	7.8209662
15	0x429891f5	76.28507
16	0x3f104703	0.56358355
17	0x3ff26ecb	1.8940061
18	0x3ecdf1b3	0.40223464
19	0x42c9ed50	100.9635
20	0x4288ff16	68.498215
21	0x3ef972e1	0.48720458
22	0x411d8193	9.844134
23	0x43a8485a	336.56525
24	0x44b0cb9a	1414.3625
25	0x426294df	56.645382
26	0x41421a69	12.131448
27	0x3eea4db4	0.45762408
28	0x411ce42b	9.805705
29	0x42460da2	49.513313
30	0x3f072a26	0.5279869
31	0x415f05ae	13.938887

conv.7.weight f4 [64, 32, 3, 3]
0	0x3d4e306e	0.050339155
1	0xbd6eaafe	-0.05826854
2	0xbc9d23db	-0.019182136
3	0xbb2d07be	-0.002640232
4	0x3d03f87c	0.032219395
5	0xbc1570b2	-0.009121107
6	0xbd20022c	-0.03906457
7	0x3cbd5c53	0.023115313
8	0x3d561a84	0.05227138
9	0x3cab5316	0.020913642
10	0xbd1589a4	-0.036508217
11	0x3cf99de2	0.030470792
12	0x3d2c9ec8	0.042143613
13	0x3d7c2b2c	0.06156461
14	0x3d33c585	0.04388954
15	0xbd161a8e	-0.03664642
16	0xbd20dd57	-0.039273586
17	0xbca2ab4c	-0.019857071
18	0x3d01fa38	0.031732768
19	0xbd13c44a	-0.036075868
20	0x3d34870f	0.044074114
21	0xbd023ad5	-0.031794388
22	0xbb0bd2b5	-0.0021335308
23	0x3d7094b8	0.05873558
24	0xbd2c9dce	-0.04214268
25	0xbcc7b5fc	-0.02437877
26	0x3b1033c6	0.0022003516
27	0x3b1e7233	0.0024176955
28	0x3d4d7557	0.050160732
29	0xbd83acf3	-0.06429472
30	0xbd606a2f	-0.054788765
31	0x3d226f03	0.03965665
32	0x3ccd9e6c	0.025099955
33	0xbd15b905	-0.0365534
34	0x3d64748f	0.05577522
35	0xbd47654d	-0.048680592
36	0x3ca88805	0.020572672
37	0x3cdb4db2	0.026770446
38	0x3d50b911	0.050957743
39	0x3d115f7e	0.03549146
40	0x3cd38856	0.025821846
41	0xbc231f88	-0.009956248
42	0x3cdfe441	0.02733052
43	0xbd81c306	-0.06336026
44	0xbcb63e81	-0.022246601
45	0x3c0bfce4	0.008544181
46	0x3cd54c0f	0.026037244
47	0xbbc99245	-0.00615147
48	0x3cf9ae0a	0.030478496
49	0xbd6ec80b	-0.058296245
50	0xbd4c0cfb	-0.049817067
51	0xbd5c04f7	-0.053715672
52	0x3af1d5cb	0.0018450556
53	0x3c8b0a54	0.016972698
54	0x3cc4610b	0.023972055
55	0x3c5d7bf5	0.013518323
56	0x3c94e7de	0.01817697
57	0xbcb92e6e	-0.022605147
58	0x3c38c3e9	0.011277177
59	0xbc8ee69b	-0.017443946
60	0x3b36a64f	0.0027870124
61	0x3c8ba0e2	0.017044488
62	0x3d15f138	0.036606997
63	0xbd0fa29d	-0.03506719
64	0x3d7b616e	0.061372213
65	0xbcaf46a0	-0.021395981
66	0xbabe5549	-0.0014521267
67	0xbce5a026	-0.028030466
68	0x3d69b021	0.057052735
69	0x3cb08166	0.021546077
70	0xbd219019	-0.039444063
71	0xbd277f34	-0.040892795
72	0x3d54ce3b	0.05195449
73	0x3c28e385	0.010308151
74	0x3bf1c295	0.0073779323
75	0xbd581184	-0.05275108
76	0x3d5b4551	0.053532902
77	0x3d2ba5e9	0.04190627
78	0xbd77e715	-0.06052311
79	0x39e55d7e	0.0004374794
80	0x3bac4f34	0.005258465
81	0xbd1e549f	-0.03865492
82	0x3d1229ed	0.035684515
83	0x3d2fb4d6	0.042897068
84	0xba08f92f	-0.00052251195
85	0xbd3665c4	-0.044530645
86	0xbbfc47a2	-0.007698969
87	0xbcb84640	-0.022494435
88	0x3d2ba19e	0.041902177
89	0x3b6fb108	0.0036574025
90	0xbd33074f	-0.043708142
91	0xbc0f47e9	-0.008745172
92	0x3d05c907	0.032662418
93	0xbc27efe1	-0.010250063
94	0x3c9d3210	0.01918891
95	0x3cbb4202	0.022858623
96	0xbd15964b	-0.036520284
97	0xbd500ade	-0.050791614
98	0xbceaee6e	-0.028678145
99	0x3c714331	0.014725492
100	0xbd4adccf	-0.049526986
101	0xbd6dbe12	-0.058042593
102	0xbd19e69a	-0.037573434
103	0xbd4411b5	-0.04786845
104	0x3c2b73bb	0.010464604
105	0xbd400290	-0.046877444
106	0xbc15e567	-0.009148932
107	0xbba6ce6c	-0.0050905254
108	0x3d810031	0.06298865
109	0xbd52adbf	-0.05143523
110	0x3c99e3e4	0.018785425
111	0xbb1c09f6	-0.0023809648
112	0xbcae3c62	-0.021269027
113	0xbd1ee336	-0.038790904
114	0xbce97b88	-0.028501287
115	0xbcc079ac	-0.023495518
116	0x3d5e0bfe	0.054210655
117	0x3d3267ae	0.043555908
118	0xb8821299	-6.202347e-05
119	0x3c9153e7	0.017740203
120	0x3d371b99	0.044704054
121	0x3c7a05f6	0.01526021
122	0x3d126111	0.0357371
123	0xbc6e64c5	-0.0145503925
124	0xbd2bb6a3	-0.041922223
125	0xbd2d3abd	-0.042292345
126	0xbd450fee	-0.048110895
127	0xbcd7bf6f	-0.0263364
128	0xbd6bbc12	-0.057552405
129	0x3d31e4c9	0.043431077
130	0xbd19eada	-0.037577488
131	0xbd8308d7	-0.063981704
132	0xbd636dea	-0.055524744
133	0x3aa8c82e	0.0012877041
134	0x3d07460d	0.03302579
135	0xbd179e68	-0.037016302
136	0xbc520ad9	-0.012819969
137	0x3d225814	0.03963478
138	0x3c1329a3	0.008982095
139	0x38d84b8c	0.00010313754
140	0x3c5b8ece	0.0134007465
141	0x3d37eec3	0.044905435
142	0xbcb505c3	-0.022097474
143	0x3d0ea5f7	0.034826245
144	0x3c3dc96a	0.011583665
145	0xbc997a64	-0.018735118
146	0xbd379cf6	-0.044827424
147	0x3ace1771	0.0015723539
148	0xbd54f388	-0.051990062
149	0xbc5b1fab	-0.013374249
150	0x3ccb9428	0.02485092
151	0xbd87229e	-0.065983996
152	0x3d17696d	0.036965776
153	0xbd52c927	-0.051461365
154	0xbc42f7d4	-0.011899907
155	0x3d661acf	0.05617791
156	0xbd437fd5	-0.047729332
157	0xbd66cefb	-0.056349736
158	0x3d41a71d	0.047278512
159	0xbb56f9a6	-0.003280261
160	0x3cb5f01c	0.02220922
161	0xbcf9d7e2	-0.030498449
162	0xbd826730	-0.06367338
163	0x3cc06bff	0.023488997
164	0xbd5b47d3	-0.053535294
165	0x3d041db3	0.032254886
166	0x3d43df1b	0.04782019
167	0x3d1424d8	0.03616795
168	0x3d0a56df	0.033774253
169	0x3d489acc	0.04897575
170	0x3d313831	0.04326648
171	0x3cb37f4d	0.021911288
172	0xbd75d3af	-0.06001633
173	0x3bfdd2cc	0.007746076
174	0xbbb49395	-0.005510757
175	0x3d087aa2	0.033320077
176	0xbd6c52a5	-0.057696003
177	0xbd5ec917	-0.054390993
178	0x3ccfe201	0.025376322
179	0xbcccdf92	-0.02500895
180	0x3d213127	0.039353516
181	0x3d22434a	0.039614953
182	0xbd11348e	-0.03545051
183	0xbcdaee54	-0.026724972
184	0x3c54fa61	0.012999148
185	0xbcb9208d	-0.02259853
186	0x3d768d19	0.060193155
187	0xbcb20058	-0.02172868
188	0x3cfa7b87	0.03057648
189	0x3d39d14a	0.04536561
190	0x3ca543e1	0.020173969
191	0xbc88c503	-0.016695505
192	0x3cf3980e	0.029735591
193	0xbd0a2aae	-0.03373211
194	0x3d5a9f07	0.053374317
195	0xbd2419af	-0.040063556
196	0xbd653930	-0.05596274
197	0x3c967391	0.018365653
198	0x3a85a762	0.0010196979
199	0x3cea2573	0.02858231
200	0xbd5e529b	-0.054277997
201	0x3d38d41c	0.04512416
202	0xbb974b49	-0.004617129
203	0x3d1e9aeb	0.03872196
204	0xbd482297	-0.048861112
205	0xbd20890a	-0.03919319
206	0x3cf787fc	0.03021621
207	0x3d353365	0.044238467
208	0xbc1b8b05	-0.009493594
209	0x3c213f41	0.009841741
210	0xbc8ed2ca	-0.017434496
211	0x3b85404f	0.004066504
212	0xbbfcc6b2	-0.007714116
213	0x3d6793ea	0.056537546
214	0xbcea1717	-0.028575463
215	0xbd108a3b	-0.035288077
216	0x3d242b0a	0.040080108
217	0x3d47fd74	0.048825696
218	0x3d3c2a7d	0.045938957
219	0x3d081a97	0.033228483
220	0x3d2c68f2	0.04209227
221	0x3d43522e	0.047685795
222	0x3d7d7290	0.061876833
223	0x3d426f1a	0.047469236
224	0x3d77026c	0.060305044
225	0xbb06ecb7	-0.002058787
226	0x3d4ed452	0.050495453
227	0x3c5db112	0.013530986
228	0x3d6d99e6	0.058008097
229	0xbd1489fd	-0.03626441
230	0x3d0d4a69	0.03449479
231	0x3d315147	0.043290403
232	0xbd4a2b5a	-0.04935775
233	0xbd3cf2f8	-0.04613015
234	0xbcfcf224	-0.03087718
235	0xbc773991	-0.0150894085
236	0xbac318d6	-0.0014884721
237	0x3c01ebc3	0.007929745
238	0x3b8672b1	0.0041030277
239	0x3bb77d8b	0.0055996827
240	0xbb5a8a66	-0.0033346652
241	0x3c5b0f65	0.01337037
242	0xbd1e36d6	-0.038626514
243	0x3cc732e9	0.024316268
244	0x3cc973eb	0.024591407
245	0x3d50b69d	0.050955404
246	0x3d0266c4	0.031836286
247	0xbd2be9a0	-0.04197085
248	0x3ce2a05e	0.02766436
249	0xbd3d5755	-0.046225864
250	0x3d27c34b	0.04095773
251	0x3b7ed072	0.0038881567
252	0x3b0d2bef	0.002154108
253	0xbd2bd7db	-0.041953903
254	0x3c85cfe0	0.016334474
255	0xbcd831df	-0.026390968

conv.7.bias f4 [64]
0	0x3d351c43	0.044216406
1	0xbd2b54f4	-0.041829064
2	0xbd2b44d7	-0.041813698
3	0xbd48f2ce	-0.04905968
4	0x3ce3f9e5	0.02782912
5	0x3d0cf124	0.034409657
6	0xbc73b194	-0.014873881
7	0xbd3d869c	-0.04627095
8	0x3c861741	0.01636851
9	0x3d817228	0.06320602
10	0xbd6d7ba1	-0.05797923
11	0xbd348110	-0.044068396
12	0x3d378a10	0.0448094
13	0x3d4df852	0.050285645
14	0xbcf3f037	-0.02977763
15	0xba7161d0	-0.00092079956
16	0xbd10de78	-0.035368413
17	0xbd3d3a6a	-0.046198286
18	0xbcdb4bd9	-0.026769565
19	0x3d2c7964	0.042107955
20	0x3c8f62d6	0.017503183
21	0xbcc11dfa	-0.023573864
22	0x3b6a9a36	0.0035797483
23	0xbcc80f4f	-0.024421362
24	0xbcfd60f8	-0.030930027
25	0xbc8ca5b5	-0.017168859
26	0x3d3da892	0.04630334
27	0xbcc117eb	-0.023570975
28	0x3cb532d5	0.022118965
29	0x3d29fbbd	0.041499842
30	0x3baf1cbe	0.0053440025
31	0x3aacaf82	0.0013174864
32	0xbc92557d	-0.01786303
33	0x3c66dc5c	0.014090624
34	0xbd2e7caa	-0.042599358
35	0xbd4887de	-0.048957698
36	0xba38597e	-0.00070323783
37	0x3d34810e	0.04406839
38	0xbd32faf3	-0.043696355
39	0xbc2b0e3c	-0.010440405
40	0x3cf16f66	0.029472064
41	0xbd371dc7	-0.044706132
42	0x3d15bfa0	0.0365597
43	0xbd3f335c	-0.04667984
44	0x3a005c73	0.00048965885
45	0x3cd12595	0.025530616
46	0x3ce39646	0.027781617
47	0xbc8790b3	-0.01654849
48	0x3d6cb440	0.057789087
49	0xbcb5684c	-0.02214446
50	0xbb9896fc	-0.0046566706
51	0xbcd062c2	-0.025437716
52	0x3d09bfe5	0.03363027
53	0x3d18bec2	0.037291296
54	0xbd06fa85	-0.032953758
55	0xbd59cac9	-0.053171907
56	0x3d52980e	0.051414542
57	0x3c771b7a	0.0150822345
58	0xbd6b4315	-0.05743702
59	0xbc11f1b8	-0.008907728
60	0x3d4fb03d	0.050705183
61	0x3d563933	0.052300643
62	0x3d1f2e68	0.038862616
63	0x3cc329b3	0.023823595

conv.9.weight f4 [128, 64, 3, 3]
0	0x3be6fa71	0.007048898
1	0x3b641ebb	0.0034808356
2	0x3c1b5990	0.009481803
3	0xbd06dc5b	-0.03292499
4	0xbd2fe4c1	-0.042942766
5	0xbb8b89ee	-0.004258386
6	0xbcb56a3f	-0.022145389
7	0x3c6a8218	0.014313243
8	0xbd1a172e	-0.037619762
9	0xbbc367fe	-0.0059633246
10	0xbd30af72	-0.043136068
11	0x3d15cd9e	0.036573045
12	0x3c628335	0.0138252275
13	0x3cca8382	0.024720911
14	0xbcb24d1f	-0.02176529
15	0xbb8befc2	-0.0042705247
16	0xb9c82619	-0.00038175358
17	0xbcdefd14	-0.027220286
18	0xbcf7140a	-0.030160923
19	0x3c6b3d9e	0.014357952
20	0x3cfb5312	0.03067926
21	0xbac86498	-0.0015288768
22	0xbb0606de	-0.002045087
23	0xbcef5d80	-0.029219389
24	0x3cdd96c0	0.027049422
25	0x3d181567	0.037129786
26	0xbbb5f49c	-0.0055528414
27	0xbd261ebb	-0.04055665
28	0x3cb47638	0.022029027
29	0xbb8ff739	-0.004393485
30	0x3bc7092c	0.0060740914
31	0x3cc30b41	0.023809077
32	0xbd1107cc	-0.035407826
33	0x3c11eb81	0.008906246
34	0xbd1891d5	-0.03724845
35	0x3ccee6d0	0.025256544
36	0x3d0bce70	0.03413242
37	0x3cd65687	0.026164306
38	0xbc3f188d	-0.011663568
39	0xbc064f40	-0.008197606
40	0x3ca9abcc	0.020711802
41	0x3d160f3e	0.03663563
42	0x3c5bde37	0.013419679
43	0xbcbca05f	-0.02302569
44	0xbcb18078	-0.021667704
45	0xbc829ce0	-0.015943944
46	0x3d13b1f3	0.036058377
47	0xbcb15724	-0.021647997
48	0x3c82ebc1	0.015981557
49	0xbc0544ff	-0.008134126
50	0xbaabea4f	-0.0013116094
51	0xbc4b7533	-0.012418079
52	0xbbcf5154	-0.0063268337
53	0xbbbb8ceb	-0.005723586
54	0x3cff8c76	0.031194907
55	0x3c8facd9	0.017538475
56	0xbce56f17	-0.028007073
57	0x3c85d8d3	0.016338741
58	0x3cf3c597	0.029757304
59	0xbc0a3742	-0.008436026
60	0xbc4c63d3	-0.012474972
61	0x3c00fe7f	0.007873177
62	0xbc83b969	-0.016079621
63	0xbcf41f9e	-0.029800232
64	0xbc24860d	-0.010041726
65	0xbc1781ff	-0.009247302
66	0xbd109a8e	-0.035303645
67	0xbc6098de	-0.013708321
68	0xbb7a5823	-0.0038199506
69	0x3c60b50c	0.01371504
70	0x3ce5fb81	0.028074028
71	0x3c8896cd	0.01667347
72	0x3c9ba8be	0.019001361
73	0xbbcc4683	-0.0062339916
74	0xbb5d9ef8	-0.0033816677
75	0x3ca4b4d9	0.020105766
76	0x3d16589e	0.036705606
77	0x3b6cd6d6	0.0036138794
78	0xbd335b8c	-0.043788478
79	0xbc6bed3a	-0.014399821
80	0xbd1f25e2	-0.038854487
81	0xbd062759	-0.03275237
82	0x3c983b72	0.018583033
83	0xbc1a816d	-0.009430272
84	0xbb2fc5f0	-0.002682086
85	0x3c57e6a9	0.013177552
86	0x3b914d14	0.0044342373
87	0x3b8edd7a	0.004359898
88	0xbd203724	-0.039115086
89	0x3998fbb6	0.00029179238
90	0xbd0f8cd2	-0.035046406
91	0x3d1d61a6	0.038423203
92	0xbc603a0d	-0.013685715
93	0x3c8e8dc7	0.01740159
94	0xbd0b1ecd	-0.03396492
95	0x3bc6d339	0.00606766
96	0xbc1b6e84	-0.009486798
97	0xbd02a822	-0.031898625
98	0x3c3771b9	0.011196547
99	0xbbec96f0	-0.0072201416
100	0xbcbb9f9c	-0.022903256
101	0xbce54d0c	-0.02799084
102	0x3d09a7ee	0.033607416
103	0x3d0c3d5a	0.034238197
104	0xbd296f18	-0.041365713
105	0x3d018a84	0.03162624
106	0xbce64cf0	-0.028112859
107	0xbb5974d1	-0.00331812
108	0xbd1b62c6	-0.037935995
109	0xbd3b672e	-0.045752697
110	0xbbf67e86	-0.007522407
111	0x3cee5c27	0.029096676
112	0x3c7f8178	0.015594833
113	0x3cb38edc	0.021918707
114	0xbd16a57e	-0.03677892
115	0x3c436aed	0.011927349
116	0xbc239c7d	-0.00998604
117	0xbce93c6a	-0.02847119
118	0x3cc14685	0.023593197
119	0x3cea993b	0.02863752
120	0xbbb7d3fe	-0.0056099882
121	0x3caf87ff	0.021427153
122	0x3afe31e5	0.0019393532
123	0xbd1133df	-0.03544986
124	0x3d1cc3fe	0.03827285
125	0x3cc3414a	0.023834843
126	0x3d3003d2	0.042972393
127	0xbd31aaec	-0.043375894
128	0x3c5c326c	0.013439756
129	0x3cec6865	0.028858373
130	0x3c674cc7	0.014117426
131	0x3cab97bd	0.020946378
132	0xbce2c06d	-0.027679646
133	0x3c7cbbfb	0.015425677
134	0x3c57d626	0.013173616
135	0xbd19141e	-0.0373727
136	0xbd1171d6	-0.035508953
137	0x3c93c44e	0.018037941
138	0x3d188cc4	0.03724362
139	0xbbaf1400	-0.0053429604
140	0xbc85480b	-0.016269704
141	0x3c83ea28	0.016102865
142	0xbca40da3	-0.020026034
143	0x3ccf486a	0.025303084
144	0xbccee582	-0.025255922
145	0x3bf41db0	0.007449828
146	0xbc42f022	-0.011898072
147	0x3b307fdf	0.0026931686
148	0x3cd22d7c	0.025656454
149	0xbc5194d8	-0.012791835
150	0xbcde68f9	-0.027149664
151	0x3d1f2a7e	0.038858883
152	0x3bf69660	0.0075252503
153	0x3c39907e	0.0113259535
154	0xbb7325b0	-0.003710132
155	0x3caaa6a0	0.020831406
156	0xbce7a3fd	-0.028276438
157	0xbd059bc6	-0.03261926
158	0x3cdc07e2	0.026859228
159	0xbc8b0234	-0.016968824
160	0xbc8c5bf6	-0.017133694
161	0x3ac45b33	0.0014980793
162	0x3d0191a7	0.031633046
163	0x3bd20b73	0.0064100563
164	0xbcc6bd42	-0.024260167
165	0x3c2b3911	0.010450617
166	0xbb39889a	-0.002831018
167	0xbcb571a8	-0.022148922
168	0x3cde1392	0.027108941
169	0xbcd95969	-0.026531892
170	0xbd2a6944	-0.041604295
171	0x3cc71aa6	0.0243047
172	0x3d37b2c7	0.04484823
173	0xbcea9e03	-0.028639799
174	0xb9c74848	-0.00038010092
175	0xbce5721b	-0.028008511
176	0xbd2a7131	-0.041611854
177	0xbcecbb51	-0.028897913
178	0x3d0c8097	0.03430232
179	0x3c6e4a14	0.014544029
180	0xbc39c6ef	-0.011338933
181	0x3ccc91ae	0.02497181
182	0x3c022410	0.007943168
183	0xbc94c949	-0.018162386
184	0x3d105eb6	0.035246573
185	0xbc0253cb	-0.007954548
186	0xbba266b8	-0.0049560927
187	0xbbe74f3c	-0.007059006
188	0xbc178de6	-0.00925014
189	0x3ca5be26	0.020232271
190	0x3cd1cd61	0.025610628
191	0x3c6f424d	0.01460321
192	0x3c1069b2	0.008814262
193	0x3ce1bc9c	0.027555756
194	0x3c9dcffd	0.019264216
195	0xbd19fcf9	-0.03759477
196	0xbd0cbad9	-0.03435788
197	0xbc0fe8d2	-0.008783536
198	0x3cfa2f5b	0.030540159
199	0x3d385d54	0.04501088
200	0xbc2038b3	-0.009779143
201	0x3c79c195	0.015243907
202	0xbce413ed	-0.027841533
203	0x3d06293a	0.03275416
204	0x3d1b26af	0.03787869
205	0xbcbc1be0	-0.02296251
206	0x3d0f7936	0.035027705
207	0xbd287b58	-0.041133255
208	0x3d002dd2	0.031293698
209	0xbc9cf017	-0.019157453
210	0xbc8b7835	-0.017025093
211	0x3c8727e3	0.016498512
212	0x3d07b2c7	0.03312948
213	0x3d08e450	0.03342086
214	0xbd4591aa	-0.04823462
215	0xbb6c3168	-0.003604019
216	0xbd285ff1	-0.04110712
217	0x3d07a349	0.033114705
218	0xbcd15c39	-0.02555667
219	0x3c7e6190	0.01552619
220	0xbc213bb7	-0.009840897
221	0xbcc2fd80	-0.023802519
222	0xbcc59407	-0.024118437
223	0x3d018968	0.03162518
224	0xbb0fda10	-0.0021950044
225	0x3d3c35e2	0.045949824
226	0xbc9946bf	-0.018710492
227	0xbc32caf8	-0.010912649
228	0x3ab8e006	0.001410485
229	0x3c167e90	0.009185448
230	0x3cca99b7	0.0247315
231	0xba8b254d	-0.0010615975
232	0x398f5869	0.00027340956
233	0x3c6686ae	0.014070196
234	0x3c8ebe9a	0.01742487
235	0xbcb8295f	-0.022480665
236	0xbb8acf7b	-0.0042361594
237	0x3ccbb26f	0.024865357
238	0xbce89393	-0.028390681
239	0xbd262bba	-0.040569045
240	0x3bbbc413	0.005730161
241	0x3d053909	0.032525096
242	0xbd163b3b	-0.03667758
243	0xba8159a6	-0.0009868636
244	0x3ca4d9ee	0.020123448
245	0xbd068b3c	-0.032847628
246	0x3c31fca9	0.0108634615
247	0x3c804e44	0.01566232
248	0x3c844103	0.016144281
249	0x3bf07dfe	0.007339238
250	0x3bfe9c97	0.007770132
251	0xbd2494cc	-0.040180966
252	0x3c14a688	0.009072907
253	0xbc4d183f	-0.012517988
254	0x3cf2ea48	0.02965273
255	0x3c057bd6	0.008147201

conv.9.bias f4 [128]
0	0x3a756a13	0.00093618146
1	0xbcb9ff94	-0.022704877
2	0x3b72ad4c	0.0037029563
3	0x3aec7550	0.0018040333
4	0x3bd69c70	0.0065494105
5	0x3c011e8f	0.007880821
6	0xbd109abe	-0.035303824
7	0xbc31064a	-0.010804722
8	0x3d279936	0.040917598
9	0xbce8dcb7	-0.028425558
10	0x3cc4ee77	0.02403949
11	0x3c13fb85	0.009032135
12	0x3c6e2ec4	0.014537517
13	0x3be3283a	0.0069322856
14	0xbc94207d	-0.018081898
15	0xbd1f322d	-0.03886621
16	0xbc739af6	-0.014868489
17	0x3ce2d190	0.027687818
18	0xbb194a43	-0.002339021
19	0x3ce8cca3	0.02841789
20	0xbc5344cc	-0.01289482
21	0x3cb9e510	0.022692233
22	0xbc0ce06d	-0.008598429
23	0xbc81c104	-0.015839107
24	0x3af254e7	0.0018488438
25	0xbd41b287	-0.047289398
26	0x3d4b490a	0.049630202
27	0x3d4869a2	0.048928864
28	0x3c2bcc73	0.010485756
29	0xbcabd804	-0.020977028
30	0xbcb61f53	-0.022231733
31	0xbc9a2358	-0.018815681
32	0xbc64c72d	-0.013963503
33	0xbcac3ace	-0.021024134
34	0xbd1e0fad	-0.03858917
35	0x3bbe1e6c	0.0058019664
36	0xbd2f340b	-0.04277424
37	0x3cb92b04	0.02260352
38	0xbcedefdd	-0.02904504
39	0xbc811adf	-0.015759883
40	0xbca452d5	-0.020059029
41	0xbbcc35ea	-0.006232013
42	0xbc973295	-0.018456737
43	0x3ca7abd3	0.020467674
44	0x3cf7e71c	0.030261569
45	0x39bcebe5	0.0003603391
46	0xbb163bb0	-0.002292376
47	0x3b8c31b7	0.0042783874
48	0x3ca27008	0.019828811
49	0x3ceb9e75	0.028762082
50	0x3c4ba55e	0.012429563
51	0x3c30e6a8	0.01079718
52	0xbd1f85e4	-0.038946047
53	0x3ca0745b	0.019586733
54	0xbb24895b	-0.0025106284
55	0xbcfa396f	-0.030544965
56	0xbc3f50ab	-0.011676948
57	0xbb7d71a3	-0.003867247
58	0xbd0f9dad	-0.03506248
59	0xbce9af69	-0.028526025
60	0xbc80ce96	-0.015723508
61	0x3d18edec	0.037336275
62	0xbc95c885	-0.018284092
63	0xbcbd2bce	-0.023092177
64	0xbcada1e3	-0.021195358
65	0x3d12974a	0.03578881
66	0xbc1adf26	-0.009452617
67	0x3b98e816	0.0046663387
68	0x3cbec24f	0.023286013
69	0x3c8bac8a	0.017050046
70	0x3cf9bbcd	0.030485058
71	0xbcb6e13f	-0.022324203
72	0x3b118bc1	0.0022208544
73	0xbbaff8c5	-0.005370232
74	0xbd013027	-0.031540062
75	0x3cfd63da	0.030931402
76	0x3c22bdd3	0.009932953
77	0x3cf49e1a	0.029860545
78	0xbcdc800f	-0.026916532
79	0xbd05ea15	-0.03269394
80	0x3c6780c2	0.014129819
81	0xbbc1c130	-0.0059129223
82	0xbd1018e6	-0.035179995
83	0xbd1671af	-0.03672951
84	0x3d1445ca	0.03619937
85	0xbba40b53	-0.0050062328
86	0x3d0e0586	0.034673236
87	0x3cef5241	0.029214026
88	0xbce152d3	-0.027505314
89	0x3cd00466	0.025392722
90	0x3d1cbe97	0.0382677
91	0x3d2336f4	0.03984733
92	0xbc054250	-0.008133486
93	0xbc197c26	-0.009367978
94	0x3c2e2592	0.010629075
95	0x3d0836d9	0.03325543
96	0xbcc4ba30	-0.024014562
97	0xbc94c11f	-0.018158494
98	0xbd463523	-0.04839052
99	0xbd2605f1	-0.04053301
100	0xbc99ba31	-0.01876554
101	0x3c98917b	0.018624058
102	0xbcf92165	-0.030411432
103	0xbc870aa5	-0.016484568
104	0xbca1a78b	-0.019733211
105	0xbc1bb5b9	-0.009503775
106	0xbb1b5f3f	-0.0023707894
107	0x3c4dd9e3	0.012564155
108	0xbd2716b5	-0.04079314
109	0xbd2a61ca	-0.041597165
110	0xbcfa22b6	-0.03053413
111	0x3ce548b6	0.027988773
112	0xbc9dd009	-0.019264238
113	0x3a9c4842	0.001192339
114	0xbd16813b	-0.036744338
115	0xbc669637	-0.0140739
116	0x3c9e23b7	0.01930414
117	0xbd02c30a	-0.031924285
118	0xbd0ac203	-0.03387643
119	0xbcd59ad6	-0.026074808
120	0xbc6de69e	-0.014520315
121	0xbd2222ec	-0.039584085
122	0x3c71ca1d	0.01475766
123	0x3bf63c34	0.007514501
124	0xbcb391bf	-0.021920083
125	0xbb903a7d	-0.0044015036
126	0xbcd2c6f2	-0.02572963
127	0x3c2a734d	0.010403466

lin.0.weight f4 [256, 128]
0	0x3d24f09b	0.04026852
1	0xbd40e791	-0.04709584
2	0x3c8cdc6d	0.017194951
3	0x3b64e770	0.0034927987
4	0x3d2becd9	0.041973922
5	0xbd8de085	-0.06927589
6	0xbcb50631	-0.022097679
7	0x3db4502d	0.08804355
8	0xbd82139f	-0.06351399
9	0x3d820546	0.06348662
10	0xbd74860f	-0.05969816
11	0x3bffe84d	0.007809675
12	0x3dad4b8f	0.08461677
13	0x3d5a05ad	0.05322807
14	0xbd03f022	-0.03221143
15	0x3c485c94	0.012229104
16	0x3d65d7a3	0.05611385
17	0xbc2a41b9	-0.010391646
18	0xbd2055a9	-0.039144192
19	0xbd993428	-0.07480651
20	0x3daa5f57	0.08318966
21	0x3d82366a	0.06358035
22	0xbd43fe84	-0.047850147
23	0xbc592ddf	-0.013255565
24	0xbcd19fc1	-0.025588872
25	0xbd05ea60	-0.03269422
26	0xbd7b7957	-0.061395016
27	0xbd228bb6	-0.03968402
28	0x3c7fea46	0.01561982
29	0x3da41c2a	0.08013184
30	0x3bebe3d1	0.0071987887
31	0x3d8a5903	0.06755259
32	0x3d8e5f13	0.06951728
33	0xbcb64e26	-0.022254061
34	0xb7e906bc	-2.77789e-05
35	0x3d5a0378	0.053225964
36	0x3db436c4	0.08799508
37	0xbdaf4084	-0.08557227
38	0x3db70c80	0.08937931
39	0xbd1606bd	-0.03662752
40	0x3d352fcb	0.044235032
41	0xbcf0af73	-0.029380536
42	0x3d13dd41	0.036099676
43	0x3d6bb7ba	0.057548262
44	0xbda8b5fd	-0.082378365
45	0xb9f13f86	-0.0004601443
46	0x3d5d3eef	0.054015096
47	0x3d58b226	0.05290427
48	0x3b2cdf58	0.002637824
49	0xbd8f3b1c	-0.06993696
50	0xbcc904c9	-0.024538415
51	0x3db57d2b	0.088617645
52	0xbd973b82	-0.07384397
53	0xbd95dd71	-0.07317627
54	0x3dac3ced	0.08410058
55	0xbd1ece7b	-0.038771134
56	0x3c193c59	0.009352767
57	0xbcbe223f	-0.02320969
58	0xbd12b62c	-0.035818264
59	0xbcda00e7	-0.026611758
60	0xbd3765d0	-0.04477483
61	0xbd6674c4	-0.0562637
62	0x3cd446d4	0.02591268
63	0x3d4701d5	0.04858573
64	0x3d3443a9	0.04400984
65	0x3da502df	0.08057188
66	0xbbde3a38	-0.0067818426
67	0xbd9f78c4	-0.07786706
68	0xbc833ec9	-0.01602115
69	0xbcb26b35	-0.021779636
70	0x3d4ff44a	0.05077008
71	0x3ceec334	0.029145814
72	0xbd532aee	-0.051554613
73	0xbd496868	-0.049171835
74	0x3d4773d5	0.04869445
75	0xbd4bdf6c	-0.04977362
76	0xbd07da03	-0.033166897
77	0x3d8b77dc	0.06809971
78	0xbc09648f	-0.008385791
79	0x3d3d16ca	0.04616431
80	0x3c8f6308	0.017503276
81	0xbd09935f	-0.03358781
82	0xbd3c400b	-0.045959514
83	0xbd769edd	-0.060210098
84	0x3d519e36	0.051176272
85	0xbd468272	-0.048464246
86	0xbdb07131	-0.086153395
87	0xbd979689	-0.07401759
88	0x3c54a2f9	0.012978309
89	0x3d87a1b6	0.06622641
90	0xbd9d91bc	-0.07693812
91	0x3cf84c11	0.030309709
92	0x3d5733ef	0.052539762
93	0x3d01e591	0.031713072
94	0x3d783b99	0.06060371
95	0xbb69b17d	-0.003565877
96	0xbd83c9f1	-0.06435002
97	0x3cc2bf90	0.023772985
98	0x3d1af939	0.037835333
99	0xbb71c585	-0.0036891412
100	0x3b9ae68c	0.0047271904
101	0xbc82a6bd	-0.015948648
102	0x3a09d915	0.0005258483
103	0xbcdee427	-0.0272084
104	0x3c576507	0.013146645
105	0x3c5f29c6	0.013620799
106	0xbd910e23	-0.070827745
107	0xbcc29500	-0.02375269
108	0xbcae6794	-0.021289624
109	0x3d8a7adb	0.06761714
110	0x3d8a2d67	0.06746941
111	0xbcb516c1	-0.022105576
112	0xbc86a922	-0.01643807
113	0xbd73a6fb	-0.059485417
114	0xbd4391f4	-0.047746614
115	0xbda9d40b	-0.08292397
116	0x3dabbc3c	0.08385512
117	0x3d5460a8	0.05184999
118	0x3ce5bc2a	0.028043825
119	0x3cc02ee5	0.023459861
120	0x3d8090ea	0.0627764
121	0xbc3f7ae0	-0.0116870105
122	0xbab2c5e4	-0.0013639298
123	0xbc02f036	-0.007991841
124	0xbd802995	-0.06257931
125	0xbca030bb	-0.019554486
126	0xbd73a6ac	-0.059485123
127	0xbd59e6a3	-0.053198468
128	0xbd99f29c	-0.07516977
129	0xbd2eb696	-0.042654596
130	0x3ce0d014	0.02744297
131	0x3c28ae86	0.010295516
132	0xbcabce5e	-0.020972427
133	0xba253f7a	-0.0006303709
134	0x3cf727bc	0.030170314
135	0xbd997e7f	-0.0749483
136	0x3da0c759	0.078505225
137	0x3d9d5ea6	0.076840684
138	0xbd977e70	-0.07397163
139	0xbd8eafc4	-0.069671184
140	0x3d34760b	0.044057887
141	0xbd84fe35	-0.06493799
142	0xbd1f348d	-0.038868476
143	0x3d87d880	0.06633091
144	0x3b686732	0.00354619
145	0x3d812f25	0.0630782
146	0x3c67ff49	0.014159986
147	0xbd2f1479	-0.042744134
148	0xbda7bada	-0.08189936
149	0xbd758f8c	-0.05995135
150	0xbd335f34	-0.043791965
151	0x3c6b3c97	0.014357707
152	0xbc4a8a9b	-0.012362148
153	0xbd761b4f	-0.060084637
154	0xbc5bc805	-0.013414388
155	0xbd261738	-0.040549487
156	0xbd5cf32e	-0.05394285
157	0x3c1a0b9a	0.00940218
158	0x3d375821	0.04476178
159	0x3cae9ce9	0.021315055
160	0x3da49a8e	0.080372915
161	0x3d993352	0.07480492
162	0x3bdc059a	0.006714535
163	0xbd853332	-0.06503905
164	0x3c2d7760	0.010587543
165	0x3d27148c	0.04079108
166	0xbcd2b49c	-0.025720887
167	0x3d438956	0.047738396
168	0x3d342281	0.043978218
169	0xbc481ec3	-0.012214365
170	0xbd893984	-0.06700423
171	0x3bf17ff2	0.0073699886
172	0x3d772e6d	0.06034701
173	0xbb04d624	-0.002026924
174	0x3d648c23	0.055797707
175	0x3c9a0e22	0.018805567
176	0xbda39bc7	-0.079886965
177	0xbccef689	-0.025264041
178	0xbd1cebac	-0.03831069
179	0xbd39252c	-0.045201465
180	0x3ca5039d	0.020143325
181	0x3c8c9ec2	0.017165545
182	0x3da2cb68	0.07948953
183	0x3cb4c89f	0.02206832
184	0xbd82ced2	-0.06387104
185	0xbc8b49d1	-0.017002972
186	0xbdaa01f9	-0.083011575
187	0x3d2c6347	0.042086866
188	0xba9c7684	-0.0011937176
189	0xbb8345de	-0.0040061316
190	0x3d9e9063	0.07742383
191	0x3d8d8d4c	0.06911716
192	0xbd5200b5	-0.051270206
193	0x3d5bf604	0.053701416
194	0x3da8e820	0.08247399
195	0x3c022873	0.007944214
196	0xbd7f86e3	-0.062384497
197	0x3d9539df	0.07286429
198	0x3cb35cfb	0.021894922
199	0x3d890ba4	0.066916734
200	0x3c862fcc	0.016380213
201	0xbcea1e6b	-0.028578958
202	0x3d56ea4f	0.052469548
203	0xbd889022	-0.06668116
204	0x3d1d3bf4	0.038387254
205	0xbda8992f	-0.082323425
206	0x3da1d1a1	0.07901312
207	0x3d44ffe5	0.048095603
208	0xbb006aef	-0.0019594987
209	0xbda9831c	-0.0827696
210	0x3d9e964c	0.077435106
211	0x3d5ed0b8	0.05439827
212	0xbd81f9b5	-0.06346456
213	0x3d50b42e	0.050953083
214	0xbd44d6fa	-0.04805658
215	0x3d23d008	0.039993316
216	0xbd79e874	-0.0610127
217	0xbd818f94	-0.063262135
218	0x3d5c58f8	0.053795785
219	0xbccd14ed	-0.025034392
220	0xbd044b0b	-0.03229813
221	0xbdbb3974	-0.09141818
222	0x3cec0655	0.028811613
223	0x3da06492	0.07831682
224	0xbb79f1d0	-0.0038138516
225	0xbc780a44	-0.015139166
226	0x3a83a9f1	0.0010045153
227	0xbcf3fcb8	-0.029783592
228	0xbc775afd	-0.015097377
229	0x3d6303eb	0.05542366
230	0xbd191fce	-0.037383847
231	0xbda22dc7	-0.079188876
232	0xbd8e8e9c	-0.06960794
233	0xbd668d2c	-0.056286976
234	0x3c675404	0.014119152
235	0x3cac86b3	0.021060323
236	0xbd223559	-0.039601658
237	0xbc52259b	-0.012826349
238	0x3d8d2f97	0.06893843
239	0x3da87110	0.0822469
240	0xbd07e1ba	-0.033174254
241	0x3d9977b3	0.07493534
242	0x3d3624d1	0.044468705
243	0x3d6bf3ef	0.05760568
244	0x3d08d7e3	0.03340901
245	0xbd93e94e	-0.07222234
246	0x3cd9b7bc	0.02657687
247	0xbd98b728	-0.07456809
248	0x3d58fff7	0.052978482
249	0x3d983635	0.07432214
250	0x3d1c2256	0.038118683
251	0x3d15488b	0.036446135
252	0x3d82f7a1	0.06394888
253	0xbd9a6d66	-0.07540397
254	0x3d69e4e9	0.05710307
255	0x3bc2dd72	0.0059468085
