Simulator/good_models/sign_classifier_small.pt (torch, 623282 bytes, 16 tensors)

conv.0.weight f4 [32, 1, 5, 5]
0	0x3de584a5	0.112069406
1	0xbbfd97cd	-0.0077390433
2	0xbdd1ec38	-0.10250133
3	0xbe60eb36	-0.21964726
4	0xbde07385	-0.109595336
5	0x3d941d2a	0.07232125
6	0x3d8ba64a	0.068188265
7	0xbdd1b3e2	-0.10239388
8	0x3e203229	0.15644135
9	0x3e158005	0.14599617
10	0x3c651dc4	0.013984147
11	0x3b94f758	0.0045460872
12	0xbe3b3f04	-0.18285757
13	0xbbf72b9e	-0.0075430414
14	0x3d78507a	0.060623623
15	0x3e1944b0	0.14967608
16	0xbd7da21a	-0.06192217
17	0x3de4ec03	0.11177828
18	0xbda4f4b7	-0.08054488
19	0xbde6fa2b	-0.112781845
20	0xbcb78152	-0.022400532
21	0xbd8c0a79	-0.06837935
22	0xbe577f90	-0.21044755
23	0x3d257132	0.040391155
24	0x3d5c3da4	0.053769723
25	0x3db1b8c5	0.0867782
26	0x3e0a43ab	0.13502376
27	0xbd5393c6	-0.0516546
28	0x3ddd508e	0.1080638
29	0xbe18ee81	-0.14934732
30	0x3e28ec8f	0.1649649
31	0xbe4b33cd	-0.19843979
32	0xbd62a921	-0.055337075
33	0x3dea14e9	0.114297695
34	0xbe4f2b76	-0.20231423
35	0xbe3c7cfc	-0.18407053
36	0xbd7b5166	-0.061356924
37	0xbd5c5bd3	-0.053798508
38	0x3e4039b8	0.18772018
39	0xbe3fb6af	-0.18722032
40	0x3df7d59d	0.121012904
41	0x3e2a26ac	0.16616315
42	0x3e23e22f	0.16004251
43	0xbe1f200a	-0.15539566
44	0xbc8eef66	-0.017448138
45	0xbcb8d20c	-0.022561096
46	0xbe40a90a	-0.18814483
47	0x3e437850	0.19088864
48	0x3e204f61	0.1565528
49	0xbcccb442	-0.024988297
50	0x3e4045a5	0.18776567
51	0xbd3836f7	-0.044974294
52	0xbe4e00c1	-0.20117475
53	0xbe6f3a6f	-0.23362134
54	0xbd4c6d9a	-0.04990921
55	0x3e40eea9	0.18841042
56	0x3e04075f	0.12893437
57	0x3e062787	0.13101016
58	0xbce9b4ab	-0.028528532
59	0xbb5ec317	-0.0033990794
60	0x3d4a2fe8	0.049362093
61	0x3ce1b273	0.027550912
62	0x3c97edeb	0.018546065
63	0x3c11da2a	0.008902112
64	0x3e1071ce	0.14105913
65	0xbd268b5f	-0.04066026
66	0x3d9f767a	0.077862695
67	0x3cadda34	0.021222211
68	0x3cec6834	0.028858282
69	0xbe343742	-0.17599204
70	0x3b37d756	0.0028051934
71	0x3d49a29e	0.04922735
72	0xbe390aef	-0.18070577
73	0x3d2abaa3	0.041681897
74	0xbe22ae14	-0.15886718
75	0x3e053491	0.13008334
76	0xbe4577f5	-0.19284041
77	0x3cab046a	0.020876128
78	0xbdb289ca	-0.087176874
79	0x3dff5fbe	0.12469433
80	0xbda5e20c	-0.08099756
81	0xbe0a5203	-0.13507847
82	0x3d815618	0.06315249
83	0xbdc816c4	-0.09769967
84	0x3d1b3015	0.03788765
85	0x3ca96705	0.020679006
86	0x3e42dc78	0.19029415
87	0xbc0f9abd	-0.00876492
88	0x3c9f9949	0.019482272
89	0xbdef0e3f	-0.11672639
90	0xbb91a51e	-0.0044447323
91	0x3e17f7ca	0.14840618
92	0xbe022edb	-0.12713186
93	0x3e572f73	0.21014194
94	0xbdce1eb4	-0.1006445
95	0xbdf33b4a	-0.11876543
96	0xbe561d2e	-0.20909569
97	0xbd8f5b35	-0.06999818
98	0x3e358899	0.17727889
99	0x3ded8801	0.11598206
100	0xbd695a4f	-0.05697089
101	0x3c1ad5bf	0.009450375
102	0x3d257aa3	0.04040016
103	0xbe4dd3a9	-0.20100273
104	0xbdf3a1cb	-0.11896094
105	0x3df8d094	0.12149158
106	0x3de8b04b	0.1136175
107	0xbe49467f	-0.19655798
108	0x3def8396	0.1169502
109	0xbd333450	-0.04375106
110	0xbdd18560	-0.102305174
111	0xbe4c0a6a	-0.19925848
112	0x3c5f5a31	0.013632343
113	0xbc539cbd	-0.012915787
114	0xbdb261e0	-0.087100744
115	0x3c8b09e1	0.016972484
116	0xbca94bce	-0.02066603
117	0xbde2274b	-0.11042651
118	0x3e5a521e	0.21320388
119	0x3d528324	0.051394597
120	0xbc13cb38	-0.009020619
121	0x3caac5ed	0.020846331
122	0x3e38de65	0.18053587
123	0x3df4c359	0.11951322
124	0x3e47f852	0.1952832
125	0xbc2270f1	-0.009914623
126	0x3e2c345f	0.16816853
127	0xbdfe8fcf	-0.12429773
128	0xbdb59feb	-0.088683926
129	0x3e2b096d	0.16702814
130	0xbe4c53a6	-0.19953784
131	0xbddbd982	-0.10734846
132	0x3dac0298	0.08398932
133	0xbe140b29	-0.14457382
134	0x3e0e34f4	0.13887388
135	0xbe2a6945	-0.1664172
136	0x3dca79ed	0.09886537
137	0xbd997f62	-0.074949995
138	0x3c59fdd9	0.013305151
139	0x3d19f484	0.037586704
140	0xbcb1fcb6	-0.021726947
141	0xbe4701cb	-0.19434278
142	0x3df570da	0.11984415
143	0x3c2df667	0.010617829
144	0xbd217359	-0.039416645
145	0xbd5a5376	-0.05330225
146	0x3c93f426	0.018060755
147	0xbd6a0dd6	-0.0571421
148	0x3de197e6	0.110153005
149	0x3ddd0e31	0.107937224
150	0x3e387b7d	0.18015857
151	0xbe0e033f	-0.13868426
152	0xbcdb8120	-0.02679497
153	0x3d1407ae	0.036140136
154	0xbde77c6a	-0.11303027
155	0x3de39d02	0.11113931
156	0xbe4d2818	-0.20034826
157	0x3dbc2892	0.09187426
158	0x3e1957aa	0.14974847
159	0xbba79a96	-0.0051148636
160	0x3d935b38	0.07195133
161	0xbe458163	-0.19287638
162	0xbd288675	-0.041143853
163	0x3e4996c1	0.19686414
164	0xbdde757d	-0.10862253
165	0xbc89d6c3	-0.01682604
166	0xbe36c067	-0.17846833
167	0x3e0ae7f2	0.13565043
168	0x3e32281b	0.17398112
169	0xbe49ebfe	-0.1971893
170	0x3da0e386	0.07855897
171	0x3e318387	0.1733533
172	0xbe1e0b59	-0.15434016
173	0x3dda1810	0.10649121
174	0xbe20e03f	-0.15710543
175	0xbe0b67cc	-0.13613814
176	0xbd837800	-0.064193726
177	0xbd4efaf9	-0.050532315
178	0x3e268834	0.16262895
179	0x3e4c708a	0.19964805
180	0xbdd5fb06	-0.104482695
181	0xbe41507f	-0.18878363
182	0xbe01d355	-0.12678273
183	0x3ddd4f0d	0.10806093
184	0xbdbecce8	-0.093164265
185	0x3ddd6c9c	0.10811731
186	0xbcedb714	-0.029017963
187	0x3c79f9c4	0.015257303
188	0x3d020227	0.031740334
189	0x3e350d5e	0.1768088
190	0x3e45915c	0.19293731
191	0x3da43b41	0.08019114
192	0xbe010b2f	-0.12601922
193	0xbdef0b7e	-0.11672114
194	0x3e3307ac	0.17483395
195	0xbb250527	-0.0025180073
196	0xbd708e94	-0.058729723
197	0xbcc1a112	-0.023636375
198	0xbda2b987	-0.07945543
199	0xbe0c47d6	-0.13699278
200	0x3be1e807	0.006894115
201	0x3e03d3c1	0.12873746
202	0x398dca7c	0.00027044478
203	0xbd044d55	-0.032300312
204	0x3dbe7e30	0.09301412
205	0x3e185338	0.14875495
206	0xbe3d4d55	-0.18486531
207	0x3e36b55b	0.17842619
208	0xbd683b03	-0.056696903
209	0xbe4271d7	-0.18988739
210	0xbe55f778	-0.20895183
211	0x3d25989f	0.040428754
212	0x3df9f227	0.1220439
213	0xbdcd44b3	-0.10022869
214	0x3ddc6f15	0.10763375
215	0x3da29564	0.0793865
216	0x3e09245c	0.13392776
217	0x3d716905	0.058938045
218	0x3d7abb0e	0.061213546
219	0x3d9016c5	0.07035593
220	0x3de4324c	0.11142406
221	0xbbd90afa	-0.006623623
222	0xbe2a42bb	-0.16627018
223	0xbe54e8a1	-0.20791866
224	0xbe30fdc6	-0.17284307
225	0x3dfc71b4	0.12326375
226	0x3e51816e	0.2045953
227	0x3d86c4d5	0.065805115
228	0x3d1e6b36	0.038676463
229	0xbe1ceeea	-0.15325513
230	0x3e2bd2b4	0.16779596
231	0xbd941d95	-0.07232205
232	0x3e50fc9b	0.20408861
233	0x3c8d1204	0.017220505
234	0xbca93d0f	-0.020658998
235	0x3e3cb8d4	0.18429881
236	0xbe2f3e28	-0.17113554
237	0xbde84acb	-0.113423906
238	0x3cb02d67	0.021506025
239	0x3cab1fb3	0.020889139
240	0xbe2f413b	-0.17114727
241	0x3dc4ac6c	0.09603199
242	0xbde41157	-0.1113612
243	0xbdfb9516	-0.12284295
244	0xbcd534f3	-0.026026225
245	0x3e4f63e7	0.20252953
246	0xbe23b8e2	-0.15988496
247	0xbe73492f	-0.23758386
248	0xbdef0790	-0.11671364
249	0x3e2a6659	0.16640605
250	0xbdd26774	-0.10273638
251	0x3dab6916	0.08369653
252	0x3e36100a	0.17779556
253	0xbdc80287	-0.09766107
254	0xbdd74c57	-0.105126075
255	0xbdcc936b	-0.09989055

conv.0.bias f4 [32]
0	0xbe5a56c6	-0.21322164
1	0xbdf7bd51	-0.12096656
2	0xbe154531	-0.14577176
3	0xbd8da271	-0.06915749
4	0xbe543fe5	-0.20727499
5	0xbe31d119	-0.1736492
6	0xbe5f1f0c	-0.21789187
7	0xbe69e831	-0.2284248
8	0x3e4997b6	0.1968678
9	0xbd537142	-0.051621683
10	0xbd0b939c	-0.03407632
11	0xbe1330c5	-0.14374073
12	0x3d910a26	0.07082014
13	0x3e2b440a	0.16725174
14	0x3d44f20c	0.048082396
15	0xbdce73c8	-0.10080677
16	0x3e2208a6	0.15823612
17	0x3d93fff2	0.07226552
18	0x3e306025	0.17224176
19	0x3cb9f2c2	0.022698764
20	0xbdd4b96f	-0.10386931
21	0x3ced835b	0.0289933
22	0x3d1cf9b9	0.03832409
23	0x3d697f6a	0.057006277
24	0x3cc4e36f	0.02403423
25	0x3cd5a4d6	0.026079576
26	0xbe624ad1	-0.22098853
27	0xbe207690	-0.15670228
28	0xbe026302	-0.12733081
29	0x3d7b8e21	0.06141484
30	0x3d76ae96	0.060225092
31	0x3e12d814	0.1434024

conv.2.weight f4 [32, 32, 5, 5]
0	0x3b350777	0.0027622858
1	0xbc488784	-0.012239341
2	0xbd4703f4	-0.048587754
3	0xbccf4f63	-0.02530641
4	0xbd81c10c	-0.06335649
5	0xbd2fd807	-0.04293063
6	0xbcc80143	-0.024414664
7	0xbd6e27c2	-0.058143385
8	0xbd856030	-0.06512487
9	0xbcc85cea	-0.024458367
10	0xbd8c32e7	-0.06845646
11	0xbd7ef169	-0.062241945
12	0xbaaa5226	-0.0012994453
13	0xbc1e5503	-0.009663823
14	0xbd5720c2	-0.052521475
15	0xbd692129	-0.05691639
16	0xbcb0a282	-0.021561865
17	0xbca2a74b	-0.019855162
18	0xbd18ee57	-0.037336674
19	0xbd1fd1f4	-0.039018586
20	0xbd8d2eb7	-0.06893676
21	0xbcb3581a	-0.021892596
22	0x3b8572c7	0.0040725204
23	0xbcf4a1b5	-0.029862264
24	0xbd40c035	-0.047058303
25	0xbd8c45d5	-0.06849257
26	0x3b21f230	0.0024711005
27	0xbd6c8f48	-0.05775383
28	0xbddcee71	-0.107876666
29	0xbdc45a50	-0.09587538
30	0x3c80e7d2	0.01573554
31	0x3c125337	0.008930973
32	0xbd82ef0f	-0.06393253
33	0x3ca4f326	0.020135473
34	0x3dce99aa	0.10087903
35	0x3ce8f267	0.028435899
36	0xbc6d0834	-0.014467288
37	0xbd662da7	-0.05619588
38	0x3d887f48	0.06664902
39	0x3daa8f93	0.08328166
40	0x3cae0156	0.021240871
41	0xbcb4e690	-0.022082597
42	0x3c10f3f1	0.008847223
43	0x3c9f3d62	0.01943845
44	0x3d38154b	0.04494218
45	0x3dc67c0f	0.09691631
46	0x3d9b324e	0.07577954
47	0x3d6c6881	0.05771685
48	0x3c5213f5	0.012822141
49	0xbdd7293d	-0.105059125
50	0x3da35b8f	0.07976448
51	0x3e08a915	0.1334575
52	0x3dcdd5a4	0.10050514
53	0xbcb9b4eb	-0.022669276
54	0x3c2c0f72	0.010501729
55	0x3e143b9b	0.14475863
56	0x3d7f2e70	0.062300146
57	0xbc425ea9	-0.011863389
58	0xbcb8d320	-0.02256161
59	0xbcef6758	-0.029224083
60	0x3da75883	0.08171179
61	0xbb8fbcd3	-0.0043865233
62	0xbd4c427d	-0.049868096
63	0xbcfc5031	-0.030799957
64	0xbd80f920	-0.06297517
65	0xbc8686aa	-0.016421635
66	0xbc3e1d62	-0.011603685
67	0x3d4c7b35	0.049922187
68	0xbc83c6fc	-0.016086094
69	0xbe01d539	-0.12678994
70	0xbe04a638	-0.12954032
71	0xbd2b9f91	-0.04190022
72	0xbd913a00	-0.07091141
73	0xbda7c8e1	-0.081926115
74	0xbd559a55	-0.052149136
75	0x3ce79e3d	0.028273696
76	0x3cfbd028	0.030738905
77	0xbc166247	-0.009178705
78	0xbc29a360	-0.010353893
79	0xbda6bc8a	-0.0814143
80	0x3cde4378	0.027131781
81	0x3dad6b68	0.08467752
82	0x3d97d129	0.07412941
83	0xbc3bfd4e	-0.011473967
84	0xbcfcb0ea	-0.030846078
85	0x3d718842	0.058967836
86	0x3c0521d4	0.008125741
87	0x3d9de2ce	0.07709275
88	0x3cb5c1cc	0.022187136
89	0x3d6bd83c	0.057579264
90	0x3d9c17fa	0.07621761
91	0xbdce767d	-0.100811936
92	0x3b267d9f	0.0025404466
93	0xbd715598	-0.05891952
94	0x3cce1fe8	0.025161698
95	0x3cf0c1be	0.029389258
96	0xbdb1e162	-0.086855665
97	0x3cceb890	0.02523449
98	0xbe09d87e	-0.13461491
99	0xbd95ed75	-0.07320682
100	0x3e054126	0.13013133
101	0x3dbb4868	0.0914467
102	0xbcf6c3d2	-0.030122671
103	0xbdeeafb6	-0.11654608
104	0xbbbde2c5	-0.0057948553
105	0x3da1b000	0.078948975
106	0xbca692f9	-0.020333754
107	0xbbcfc886	-0.006341043
108	0x3d72ff83	0.059325706
109	0x3d2577d5	0.040397484
110	0x3d0ce04f	0.034393605
111	0xbd5357b3	-0.05159731
112	0x3d380824	0.04492964
113	0x3ca3c47b	0.01999115
114	0x3a24ed15	0.00062914315
115	0x3d6669ee	0.056253366
116	0xbbd3ac40	-0.006459743
117	0x3b23c259	0.0024987666
118	0x3cc94e73	0.02457354
119	0xbd84d696	-0.064862415
120	0x3cc5abc2	0.024129752
121	0x3b666b3f	0.0035159138
122	0x3cc503b2	0.024049614
123	0xbd731fba	-0.05935643
124	0xbe228b32	-0.15873411
125	0x3db15248	0.08658272
126	0x3d833de3	0.06408288
127	0xbc329209	-0.010899075
128	0x3ba8cfdd	0.0051517324
129	0xbda970ef	-0.082734935
130	0x3d92e509	0.07172591
131	0x3d41cdfe	0.04731559
132	0x3c6d5f64	0.014488075
133	0xbdc4009c	-0.09570429
134	0xbd9a2867	-0.075272374
135	0x3d893521	0.06699587
136	0x3a984fa0	0.001162041
137	0xbd908a2f	-0.070576064
138	0xbdbf54a3	-0.09342315
139	0xbe05bfa4	-0.13061386
140	0x3db1cdfb	0.08681866
141	0xbcc7245f	-0.024309335
142	0xbde94c8c	-0.11391553
143	0xbe06f19d	-0.13178106
144	0xbe14c31c	-0.14527553
145	0x3d741635	0.05959149
146	0xbd33d08a	-0.04390005
147	0xbd5d16a2	-0.053976662
148	0xbdaa13d3	-0.083045624
149	0xbe35907a	-0.17730895
150	0x3c04eae7	0.008112646
151	0x3d55af89	0.052169356
152	0x3cfb6f4b	0.030692717
153	0xbe1a1bc8	-0.1504966
154	0xbe8348b7	-0.25641415
155	0xbcdcebfb	-0.026967993
156	0xbcc82b0a	-0.024434585
157	0xbdedc8a0	-0.11610532
158	0xbe2bcea1	-0.16778041
159	0xbe05225f	-0.13001393
160	0xbd3ccbce	-0.0460928
161	0xbe252cf8	-0.16130435
162	0xbe577560	-0.21040869
163	0xbcc49eb0	-0.02400145
164	0xbce218ae	-0.027599659
165	0xbd812407	-0.063057
166	0xbe26f693	-0.16304998
167	0xbde661dc	-0.11249134
168	0xbd250ed2	-0.040297337
169	0xbdb566cd	-0.08857498
170	0xbdb9cda0	-0.09072423
171	0xbe65b85f	-0.22433613
172	0xbd8284f1	-0.06373013
173	0x3cd1666f	0.02556154
174	0xbded5c05	-0.11589817
175	0x3d1ae13c	0.037812456
176	0x3d775747	0.06038597
177	0x3c98ed97	0.01866798
178	0xbc1e2fe1	-0.00965497
179	0xbe188240	-0.14893436
180	0x3dd041d5	0.101688065
181	0x3d6d31ed	0.05790894
182	0xbbe3f0db	-0.0069562024
183	0xbc49e26b	-0.012322049
184	0xbde95075	-0.11392299
185	0x3d9d99bf	0.0769534
186	0x3c0203b7	0.007935456
187	0xbd9368b4	-0.07197705
188	0x3c0b0b3a	0.008486563
189	0xbdd28f4d	-0.10281239
190	0x3c2601e5	0.010132288
191	0xbc674f6d	-0.014118058
192	0xbd0fc03b	-0.035095435
193	0xbbd83c01	-0.00659895
194	0xbcd60874	-0.026127078
195	0xbd41273e	-0.047156565
196	0x3c65c1c6	0.01402325
197	0x3d2e13c1	0.042499308
198	0x3d32bf14	0.043639258
199	0x3db6c1c3	0.08923676
200	0xbdb51fab	-0.08843931
201	0xbd8e4692	-0.06947054
202	0xbcb4c61c	-0.022067122
203	0xbbf2aa47	-0.0074055525
204	0xbd5fc151	-0.05462772
205	0xbc7465bc	-0.0149168335
206	0x3c9828f7	0.018574221
207	0xbbb9fab2	-0.005675637
208	0xbc7d8031	-0.015472458
209	0xbd64b5f0	-0.05583757
210	0x3d504556	0.050847374
211	0x3cbeb933	0.02328167
212	0xbcb9d40c	-0.02268412
213	0x3d283e78	0.0410752
214	0x3cdc83d0	0.026918322
215	0xbc54e5d4	-0.012994248
216	0xbbef6f6c	-0.0073069837
217	0x3d4dbe33	0.050230216
218	0x3c965060	0.018348873
219	0xbca147f9	-0.01968764
220	0xbcbc8d9e	-0.023016747
221	0x3c84b1d3	0.016198074
222	0xbb85fff7	-0.0040893513
223	0x3d2fd61f	0.04292881
224	0x3cbab45e	0.022791084
225	0x3dcbda37	0.099537306
226	0x3db00242	0.08594181
227	0xbc0b579e	-0.008504776
228	0xbe18eb16	-0.14933428
229	0xbd292451	-0.0412944
230	0x3d124e13	0.03571899
231	0xbd3da560	-0.046300292
232	0xbcf80aeb	-0.030278644
233	0xbd5e3163	-0.054246318
234	0xbd097aef	-0.033564504
235	0xbd4a882e	-0.049446277
236	0xbce61781	-0.02808738
237	0x3be8a97b	0.007100282
238	0xba2acd51	-0.000651558
239	0xbd1dbeb4	-0.038511947
240	0xbdee7d70	-0.11645019
241	0x3d52d34c	0.05147104
242	0x3c6b3c3e	0.014357625
243	0xbd5f6eeb	-0.05454914
244	0xbcc1cdfb	-0.02365779
245	0xbd91b7c9	-0.07115132
246	0x3d89129d	0.06693003
247	0xbda8fb5a	-0.082510665
248	0xbd6cbb39	-0.057795737
249	0x3dd243b2	0.10266818
250	0x3cc9b7b2	0.024623726
251	0xb9efd2db	-0.00045742732
252	0xbd1fb698	-0.038992494
253	0xbde50caf	-0.1118406
254	0xbddd373d	-0.108015515
255	0x3a122c96	0.0005576102

conv.2.bias f4 [32]
0	0xbd02465b	-0.031805377
1	0xbbec34df	-0.007208451
2	0x3dc955f9	0.09830851
3	0xbc3f676c	-0.011682373
4	0xbc4b9242	-0.012425007
5	0x3db7c836	0.08973734
6	0x3dae706f	0.08517539
7	0xbbe6c6b5	-0.0070427307
8	0xbc269ba7	-0.010168946
9	0x3da3f924	0.08006504
10	0x3e0b2142	0.13586906
11	0x3d7ea514	0.06216915
12	0xbdf1fbeb	-0.11815628
13	0xbcc64486	-0.024202596
14	0x3c9b7e54	0.018981136
15	0x3d6b9757	0.057517376
16	0x3dd9983b	0.10624739
17	0x3d744974	0.059640363
18	0x3d0ff4f7	0.035145726
19	0x3cf99009	0.03046419
20	0x3d69e820	0.057106137
21	0xbcdf36e3	-0.027247852
22	0xbccf8d15	-0.025335828
23	0x3d503498	0.050831407
24	0x3d70cbd3	0.058788132
25	0xbceae4e4	-0.028673597
26	0x3d81b4b9	0.06333298
27	0x3dc56a4f	0.096394174
28	0x3c817f8f	0.015807895
29	0xbd90c6ee	-0.07069193
30	0xbd12e4a0	-0.035862565
31	0x3d8a488e	0.0675212

conv.5.weight f4 [32]
0	0x3f804608	1.0021372
1	0x3f72e70e	0.9488381
2	0x3f7adeb6	0.9799608
3	0x3f669bd6	0.90081537
4	0x3f866cec	1.050199
5	0x3f81eac7	1.0149773
6	0x3f7cb5ad	0.98714715
7	0x3f7b1721	0.98082167
8	0x3f75a103	0.9594881
9	0x3f81655b	1.0109056
10	0x3f7b336d	0.98125345
11	0x3f86efa0	1.0541878
12	0x3f842907	1.032502
13	0x3f84d2e3	1.0376858
14	0x3f595d87	0.84908336
15	0x3f7ad0b6	0.9797472
16	0x3f78a1d1	0.9712191
17	0x3f82e8ac	1.0227256
18	0x3f89dbe9	1.0770236
19	0x3f86d7c6	1.0534599
20	0x3f7d4827	0.9893822
21	0x3f808b2a	1.004247
22	0x3f6b8190	0.9199457
23	0x3f86d20f	1.0532855
24	0x3f80f74d	1.007547
25	0x3f8ab90f	1.0837725
26	0x3f802ed4	1.0014291
27	0x3f857fe5	1.0429655
28	0x3f875177	1.0571736
29	0x3f7a90db	0.9787728
30	0x3f333b76	0.70012605
31	0x3f8d647d	1.1046292

conv.5.bias f4 [32]
0	0xbd2099f6	-0.03920933
1	0x3e441f6b	0.1915261
2	0xbda1fabd	-0.07909153
3	0xbdfb7e84	-0.1227999
4	0xbdc206da	-0.09473963
5	0xbcce5f59	-0.02519195
6	0xbd9b3f4a	-0.07580431
7	0xbde8551f	-0.113443606
8	0xbe152966	-0.14566574
9	0xbd91b18f	-0.07113945
10	0x3b9d62c9	0.004803036
11	0x3d74beb0	0.059752166
12	0x3e2a366f	0.16622327
13	0x3e0d3bf3	0.137924
14	0x3e4e8b56	0.2017034
15	0xbd98fd13	-0.07470145
16	0xbdc5e6d9	-0.09663171
17	0xbc715fdf	-0.01473233
18	0x3e08c8d5	0.13357861
19	0x3dec2b1f	0.11531662
20	0xbd5c1a24	-0.053735867
21	0xbe57dc3f	-0.21080111
22	0xbde21908	-0.110399306
23	0xbcf9c343	-0.030488616
24	0xbdbb37f8	-0.091415346
25	0x3e1a63b1	0.15077092
26	0xbcc2e420	-0.02379042
27	0x3dc6fd7e	0.097163185
28	0x3dcd431e	0.10022567
29	0xbd691979	-0.05690906
30	0xbecdde20	-0.4020853
31	0x3d815559	0.06315107

conv.5.running_mean f4 [32]
0	0x3f2fbe8b	0.6865012
1	0x40b1b135	5.5528817
2	0x3feae64f	1.8351535
3	0x00000004	6e-45
4	0x00000004	6e-45
5	0x403f8558	2.9925137
6	0x4016b8b0	2.3550224
7	0x3f2a400b	0.6650397
8	0x00000004	6e-45
9	0x3fc02643	1.5011677
10	0x40395514	2.8958178
11	0x412b4f85	10.706914
12	0x426bf306	58.987328
13	0x41027a28	8.154823
14	0x403dc2ae	2.9650073
15	0x3f935b22	1.1512187
16	0x404e15de	3.2200847
17	0x3f71ab37	0.9440188
18	0x420dbeec	35.436447
19	0x415a3cae	13.639814
20	0x3fa7aaba	1.3098977
21	0x3fdbd02a	1.7172902
22	0x40087665	2.1322262
23	0x4120ee49	10.058175
24	0x3fee63ac	1.8624167
25	0x401c8526	2.4456267
26	0x406dd38b	3.7160366
27	0x40050c82	2.0788884
28	0x4119649c	9.587063
29	0x41a38da6	20.444164
30	0x00000004	6e-45
31	0x4125aad2	10.354204

conv.5.running_var f4 [32]
0	0x413f2733	11.94707
1	0x43527b49	210.48158
2	0x423409f9	45.00974
3	0x00000004	6e-45
4	0x00000004	6e-45
5	0x426b4335	58.81563
6	0x42253898	41.305267
7	0x4157742a	13.46586
8	0x00000004	6e-45
9	0x41d9adec	27.209923
10	0x42981fcf	76.062126
11	0x43b0bbce	353.46722
12	0x44908181	1156.047
13	0x437d14c5	253.08113
14	0x429f2ece	79.591415
15	0x41be5dee	23.795864
16	0x42991212	76.53529
17	0x41aded3b	21.740835
18	0x44b9cf9e	1486.488
19	0x4396f1e3	301.88974
20	0x420e4d90	35.575745
21	0x4216d4b9	37.707737
22	0x4229627f	42.346188
23	0x43b3958f	359.16843
24	0x42133bdc	36.808456
25	0x428332ed	65.599464
26	0x42b7453a	91.63521
27	0x4251713c	52.36058
28	0x43a5d071	331.62845
29	0x440d0a5c	564.16187
30	0x00000004	6e-45
31	0x438a380f	276.43796

conv.7.weight f4 [64, 32, 3, 3]
0	0x3db13c6a	0.08654101
1	0x3d605e03	0.054777157
2	0xbbf953b7	-0.0076088565
3	0x3e352953	0.17691545
4	0x3d82b17d	0.063815095
5	0x3c285795	0.010274787
6	0x3be506bb	0.0069893277
7	0x3ceaee30	0.02867803
8	0xbd78dd17	-0.060757723
9	0xbcbac782	-0.02280021
10	0xbd554457	-0.052067127
11	0xbbf6d0c8	-0.007532213
12	0x3d9df8ac	0.07713446
13	0xbd120934	-0.035653308
14	0xbdd0a49c	-0.10187647
15	0x3af5764c	0.0018727272
16	0xbe26a265	-0.16272886
17	0xbe407102	-0.18793109
18	0x3c8cd352	0.01719061
19	0x3cdc9bf4	0.026929833
20	0x3cc00f3e	0.023444768
21	0x3a7d78b6	0.00096691714
22	0x3ccbcb2f	0.024877159
23	0x3c2b1345	0.010441606
24	0xbcad5b8a	-0.021161813
25	0xbc4d84cd	-0.012543869
26	0xbcfb1c00	-0.030653
27	0x3d86440e	0.06555949
28	0x3da07e87	0.07836633
29	0x3d4053ad	0.0469548
30	0x3d961415	0.07328049
31	0x3d63d859	0.055626247
32	0x3cab64c5	0.020922074
33	0x3bceddb5	0.0063130506
34	0x3d8dec48	0.06929833
35	0x3d833dd4	0.06408277
36	0x3d638381	0.055545334
37	0xbd8167db	-0.06318637
38	0xbd2afd84	-0.041745678
39	0xbb18309b	-0.002322233
40	0xbd4e22fe	-0.05032634
41	0xbc8d1db1	-0.017226072
42	0x3abac3ff	0.0014249085
43	0xbd8e0676	-0.06934826
44	0xbd827bd7	-0.06371277
45	0x3db0c33f	0.0863099
46	0x3d8dacdd	0.06917737
47	0x3bb5c413	0.0055470555
48	0x3dcb0f0a	0.09914978
49	0x3da0bb59	0.07848234
50	0x3d5d6d7f	0.0540595
51	0x3dbe086b	0.09278949
52	0x3d160fc8	0.036636144
53	0x3d792f7e	0.060836308
54	0x3d810652	0.06300034
55	0x3c41f661	0.011838526
56	0xbcf72c74	-0.030172564
57	0x3d1221c1	0.03567672
58	0x3c9c8b85	0.019109497
59	0x3d14a672	0.036291547
60	0x3da06e0f	0.07833492
61	0x3ce5ffe9	0.028076129
62	0x3d55156f	0.052022394
63	0x3db4b4e1	0.088235624
64	0x3d3ae5ee	0.045629434
65	0x3cf7e72c	0.030261599
66	0x3d978976	0.073992655
67	0x3a62f19b	0.0008657218
68	0x3d060425	0.032718796
69	0xbb730e8a	-0.0037087523
70	0x3b1ecdc6	0.0024231537
71	0xbcd40d47	-0.025885237
72	0x3d917927	0.07103186
73	0xbb5628dd	-0.0032678165
74	0x3dad03a7	0.08447962
75	0x3da5ca03	0.08095171
76	0x3c9aeabf	0.018910764
77	0x3d10fc57	0.0353969
78	0x3dd7322d	0.10507617
79	0x3debd517	0.11515253
80	0x3d00690c	0.03135018
81	0x3d7c5693	0.061606
82	0x3da92dcf	0.082606904
83	0x3d41c4bb	0.047306757
84	0x3d396a07	0.04526713
85	0x3d924d91	0.07143701
86	0xbc6cf361	-0.014462323
87	0xbcab66c4	-0.020923026
88	0x3d98991b	0.074510776
89	0x3d3924a1	0.045200948
90	0xbce2c0ea	-0.02767988
91	0x3dad72b4	0.084691435
92	0x3caf80ce	0.021423724
93	0xbceb10b7	-0.028694494
94	0xbce811ea	-0.028328855
95	0xbd258dcd	-0.040418435
96	0x3b3fd04c	0.0029268442
97	0x3d07cd63	0.033154856
98	0x3cde3f7a	0.027129877
99	0xbd3ea0b4	-0.046539977
100	0xbdd615c3	-0.104533695
101	0xbdb50074	-0.08837977
102	0xbda1b4f5	-0.07895843
103	0xbd5983a5	-0.05310406
104	0xbd77667a	-0.060400464
105	0x3dd8e488	0.10590464
106	0xbd3f8882	-0.046761043
107	0xbd9dae15	-0.07699219
108	0xbcdcf17d	-0.02697062
109	0xbc586622	-0.013207944
110	0xbd021b82	-0.031764515
111	0xbcbc45be	-0.022982474
112	0xbd60eb14	-0.054911688
113	0xbc923e6d	-0.017852033
114	0x3da20857	0.07911747
115	0xbd083bc2	-0.033260114
116	0xbb5777a1	-0.00328777
117	0x3a428e64	0.00074217306
118	0xbdaf201f	-0.085510485
119	0xbd4f43cb	-0.05060176
120	0xbd8e397e	-0.069445595
121	0xbd8518b3	-0.064988516
122	0xbd838997	-0.064227276
123	0x3d6e95e5	0.05824842
124	0xbdd11e14	-0.10210815
125	0xbdd7e0e4	-0.10540941
126	0xbdcacd29	-0.099024124
127	0xbd8aecbc	-0.06783435
128	0xbd2dc482	-0.042423733
129	0xbe2b6aa5	-0.167399
130	0xbdaf211e	-0.085512385
131	0xbe0028c1	-0.12515546
132	0xbd6ee607	-0.05832484
133	0xbdd645c1	-0.10462523
134	0xbe035d90	-0.1282866
135	0x3d61e3ef	0.055149015
136	0x3d382dc8	0.044965535
137	0xbc2b773a	-0.010465438
138	0x3c8d9c29	0.017286377
139	0x3d6dc44d	0.058048535
140	0x3dbec854	0.09315553
141	0xbdaea20f	-0.08527004
142	0x3d60b3fd	0.05485915
143	0x3d9a1e15	0.07525269
144	0xbd8ac05f	-0.06774973
145	0xbda852bf	-0.082189076
146	0xbe0116af	-0.1260631
147	0xbd63f968	-0.055657774
148	0xbd8cfc4f	-0.068840615
149	0xbdf5ad26	-0.11995916
150	0xbd8e0c0f	-0.06935894
151	0xbd46bcfe	-0.04852008
152	0xbd85d46b	-0.06534656
153	0x3d2a4925	0.041573662
154	0xbcc387d8	-0.023868486
155	0xbd4d7b0d	-0.05016618
156	0x3d271be5	0.040798087
157	0xbd9232d8	-0.07138604
158	0xbd973600	-0.073833466
159	0x3d304830	0.043037593
160	0xbdf75726	-0.12077169
161	0xbe01bf9b	-0.12670748
162	0xbd3a2282	-0.045443065
163	0xbd34029a	-0.043947794
164	0xbd30c5f1	-0.04315752
165	0xbcbfa0de	-0.023392137
166	0x3a8ee2c2	0.0010901319
167	0xbceb53be	-0.028726455
168	0x3c2484c4	0.010041419
169	0x3d1d3598	0.03838119
170	0x3db2fd6e	0.08739744
171	0xbd2b9bf5	-0.04189678
172	0x3d0224c7	0.031773355
173	0x3d65ee85	0.056135673
174	0x3d2ac1c6	0.041688703
175	0x3d950cd9	0.07277841
176	0x3ca04b16	0.019567054
177	0x3d2d2a50	0.04227668
178	0x3c8e29ec	0.017353974
179	0xbd196e11	-0.037458483
180	0xbd0d8e6f	-0.034559663
181	0xbd7a1b3e	-0.061061136
182	0xbd6617cb	-0.056175034
183	0xbcd122af	-0.025529234
184	0x3c174d55	0.009234746
185	0x3bc6898d	0.006058878
186	0x3d5b09b5	0.053476054
187	0x3d09af66	0.03361454
188	0x3d755f14	0.059905127
189	0x3d3c1ded	0.045926977
190	0x3d950bb7	0.07277625
191	0x3d9f1f30	0.077696204
192	0x3cf16705	0.029468069
193	0x3e0a11f5	0.13483413
194	0x3dbfc63f	0.09363984
195	0x3de6b3db	0.112647735
196	0x3dfb9b23	0.12285449
197	0x3da67259	0.08127279
198	0x3d55686d	0.05210154
199	0x3d582863	0.05277289
200	0xbc9e10fd	-0.01929521
201	0x3c5bbeb5	0.013412167
202	0x3d106716	0.03525456
203	0x3dad2762	0.08454777
204	0x3c6fe04e	0.014640881
205	0x3db9c6eb	0.09071144
206	0x3da20e96	0.07912938
207	0xbb39ab0c	-0.0028330712
208	0x3bb0f3b4	0.0054001454
209	0x3b4feff9	0.0031728728
210	0xbd27f16d	-0.041001726
211	0xbd24d8cd	-0.04024582
212	0xbcb2ada4	-0.021811314
213	0x3cd43f0a	0.025908966
214	0xbb040182	-0.00201425
215	0x3d96ee90	0.07369721
216	0xbd50c7a5	-0.050971646
217	0xbd662045	-0.05618312
218	0xbdca45b5	-0.09876577
219	0xbd74e3c9	-0.059787545
220	0xbda2a6a3	-0.0794194
221	0xbde6d04f	-0.112702005
222	0xbddd9882	-0.10820104
223	0xbe071794	-0.13192588
224	0xbdae4720	-0.0850966
225	0xbc5375a8	-0.012906469
226	0xbc93feec	-0.018065892
227	0xbda22ffe	-0.0791931
228	0xbdccd54e	-0.10001622
229	0xbe05f904	-0.13083273
230	0xbe0957ea	-0.13412443
231	0xbdefca85	-0.117085494
232	0xbe045116	-0.12921557
233	0xbe11a77c	-0.14224046
234	0x3d2d8877	0.04236647
235	0xbd97349c	-0.07383081
236	0xbda1e64e	-0.07905255
237	0xbd1b1c30	-0.03786868
238	0xbddf95c5	-0.10917238
239	0xbe4e6a66	-0.20157775
240	0xbcdaf00f	-0.026725797
241	0xbdf7181f	-0.120651476
242	0xbdbe4641	-0.092907436
243	0xbd83a897	-0.0642864
244	0xbcfe9e9e	-0.031081494
245	0x3c73f0b1	0.014888928
246	0xbdf66c17	-0.12032335
247	0xbd5dfe90	-0.054197848
248	0x3d5df098	0.054184526
249	0xbdb72a9d	-0.08943675
250	0x3abb9a42	0.001431294
251	0x3d229573	0.039693307
252	0xbd1331ce	-0.03593617
253	0xbd087c4f	-0.033321675
254	0x3dc7cd76	0.097559854
255	0xbc070b5a	-0.0082424525

conv.7.bias f4 [64]
0	0xbd9f3b55	-0.077749886
1	0xbc9a8501	-0.01886225
2	0x3ca5a640	0.020220876
3	0xbd51a768	-0.05118504
4	0xbb3f31a7	-0.0029173882
5	0xbd8a5860	-0.067551374
6	0xbdfdabcf	-0.123862855
7	0xbcf01930	-0.029308885
8	0x3c3b13c9	0.011418291
9	0xbd461b43	-0.048365843
10	0xbdb72cfd	-0.08944128
11	0xbe1f6b4f	-0.15568279
12	0xbe0cdebf	-0.13756846
13	0xbd9e94fa	-0.07743259
14	0xbd682fde	-0.056686275
15	0xbd37f61a	-0.044912435
16	0xbd894c17	-0.06703966
17	0xbd4d1aec	-0.050074503
18	0xbe0e7566	-0.13911971
19	0xbd88ec9a	-0.06685753
20	0xbd9c5867	-0.07634049
21	0xbcbf2ef2	-0.023337815
22	0xbda1f215	-0.079075016
23	0xbdc34003	-0.09533694
24	0xbd8f572f	-0.06999051
25	0xbd82e48e	-0.063912496
26	0xbe155a7d	-0.145853
27	0xbce035ab	-0.02736934
28	0xbe034122	-0.12817815
29	0xbdc8e02d	-0.09808383
30	0xbe1a4474	-0.15065175
31	0xbdf1e1af	-0.11810624
32	0xbd5720bc	-0.052521452
33	0xbd8e739e	-0.06955646
34	0xbc577829	-0.013151207
35	0xbd45bb08	-0.04827407
36	0xbd748bc5	-0.059703607
37	0xbdc1d639	-0.09464688
38	0xbda6abb4	-0.081382185
39	0xbd89ce74	-0.06728831
40	0xbb6be719	-0.00359959
41	0xbd6172aa	-0.055040993
42	0xbd956790	-0.072951436
43	0xbdf40bda	-0.11916323
44	0xbba0d0c5	-0.0049077
45	0x3ccc0c06	0.024908077
46	0xbde5ae66	-0.112149045
47	0xbdc24581	-0.09485913
48	0xbd660eb4	-0.056166366
49	0x37d5c88d	2.5484967e-05
50	0xbe285217	-0.16437565
51	0xbca46d69	-0.020071702
52	0xbd834171	-0.06408966
53	0xbd922b3c	-0.071371526
54	0xbd65586a	-0.05599252
55	0xbdd8b810	-0.10581982
56	0xbd109ee5	-0.035307784
57	0xbcffa382	-0.031205896
58	0xbe08f7f5	-0.13375838
59	0xbdc602b2	-0.09668483
60	0xbdeab9c5	-0.11461214
61	0xbe24bac4	-0.1608687
62	0xbdce4666	-0.10072021
63	0xbe023494	-0.1271537

conv.9.weight f4 [128, 64, 3, 3]
0	0x3da113a6	0.07865076
1	0x3be95948	0.007121239
2	0xbcc2c71a	-0.02377658
3	0x3da083fc	0.07837674
4	0x3d3a03ea	0.04541389
5	0xbcdcafe6	-0.026939344
6	0x3cb82ffd	0.02248382
7	0x3d771aa5	0.060328145
8	0xbd920c0f	-0.07131206
9	0xbd0e31da	-0.03471551
10	0xbce65f3c	-0.028121583
11	0x3d3088b5	0.043099124
12	0xbdb3becc	-0.08776626
13	0xbe4d6490	-0.20057893
14	0xbd16077f	-0.036628243
15	0xbdc803e1	-0.09766365
16	0xbd82c6a3	-0.06385543
17	0x3d90b61d	0.07065985
18	0xbaf31ad0	-0.001854742
19	0x3c05099c	0.008119967
20	0x3d9427cd	0.07234154
21	0xbd87ca7b	-0.06630417
22	0x3d7353ef	0.059406217
23	0x3d22edb4	0.039777473
24	0xbdd6a1e3	-0.10480096
25	0x3c4cfd2a	0.012511531
26	0xbcbf58f5	-0.023357848
27	0x3c9d4165	0.019196222
28	0x39b8cc37	0.00035247367
29	0x3d6100c3	0.054932367
30	0x3d91793d	0.071032025
31	0x3d6e2d84	0.058148876
32	0x3d5dccb6	0.054150306
33	0x3d00f000	0.03147888
34	0x3d2db299	0.042406652
35	0x3d2a748c	0.041615054
36	0xbd741c37	-0.05959722
37	0xbd13dac9	-0.03609732
38	0xbcc57723	-0.02410466
39	0x3cfb959f	0.030710993
40	0xbc4691cb	-0.012119721
41	0xbb58896e	-0.00330409
42	0xbcbb25e7	-0.022845222
43	0x3d0a6568	0.033788115
44	0x3c9d9736	0.019237142
45	0xbc14bfa5	-0.009078895
46	0xbd37591e	-0.044762723
47	0xbca25ee1	-0.019820632
48	0x3d6c0dee	0.057630472
49	0x3ccf3905	0.025295744
50	0xb99f73b6	-0.00030413055
51	0x3d792d01	0.060833935
52	0xbc3b22b3	-0.011421847
53	0x3b3f638c	0.0029203622
54	0xbce5a8fb	-0.028034678
55	0xbdb9d94c	-0.09074649
56	0x3c41d16f	0.011829718
57	0x3d4d4b34	0.050120547
58	0xbca4138f	-0.020028858
59	0xbd3e3c75	-0.046444375
60	0xbda05781	-0.0782919
61	0xbd67b999	-0.056573484
62	0x3d1ed5d5	0.038778145
63	0x3d803a82	0.062611595
64	0x3d551272	0.052019544
65	0xbd080148	-0.033204347
66	0x3c21ad20	0.009867936
67	0x3dc23abf	0.09483861
68	0x3e2aae55	0.16668065
69	0x39be8c88	0.00036344328
70	0xba4789f9	-0.0007611807
71	0x3c9235c0	0.017847896
72	0xbe14e1a2	-0.14539197
73	0x3cd71ff9	0.026260363
74	0x3d26b74c	0.04070215
75	0xbde8004e	-0.11328183
76	0xbbd3f457	-0.0064683366
77	0xbd594ea7	-0.053053524
78	0x3c16ffc8	0.009216256
79	0x3d88a3d1	0.066718705
80	0x3bcb598b	0.0062057427
81	0x3c482c38	0.012217574
82	0xbe2a6d98	-0.16643369
83	0xbb4883a0	-0.0030596033
84	0x3d03cfc7	0.032180574
85	0x3c59e0bc	0.01329821
86	0xbc4d5861	-0.012533278
87	0x3cfa98aa	0.030590374
88	0xbb25a18b	-0.002527329
89	0x3d3539ae	0.04424446
90	0xbb44455c	-0.0029948568
91	0x3c6a6dbb	0.014308388
92	0xbd23eb85	-0.04001953
93	0x3bf4b823	0.00746824
94	0x3d0f6700	0.035010338
95	0xbc98a137	-0.01863156
96	0x3c5ef1e0	0.013607472
97	0x3d85a9af	0.06526505
98	0x3d39945f	0.045307513
99	0x3d3be2ed	0.04587071
100	0xbd2b4156	-0.041810356
101	0xbdc94f50	-0.09829581
102	0x3d01c379	0.031680558
103	0x3ad27f0b	0.001605959
104	0xbce41bf1	-0.027845355
105	0x3b9c5e05	0.00477195
106	0xbc9b0a81	-0.018925907
107	0xbcb6fd16	-0.022337478
108	0x3cb943fe	0.022615429
109	0x3d8ca192	0.068667546
110	0xbd91faee	-0.07127939
111	0x3deb8e97	0.11501806
112	0x3ddab9bf	0.106799595
113	0x39d4961f	0.0004054764
114	0x3da92a6f	0.08260047
115	0x3dc9e486	0.098580405
116	0xbcddf8a0	-0.027096093
117	0xbd521c59	-0.051296566
118	0xbd28984e	-0.041160874
119	0xbd3d0e46	-0.04615619
120	0xbd0aa5c5	-0.033849496
121	0xbdde63f5	-0.10858909
122	0xbc435bff	-0.011923789
123	0xbd2eb147	-0.042649534
124	0xbd466bde	-0.048442714
125	0xbc89b02c	-0.016807638
126	0x3cd67c78	0.026182398
127	0x3d7eeaa7	0.0622355
128	0x3d4d59e2	0.050134547
129	0xbd66e620	-0.056371808
130	0x3c83b7e4	0.016078897
131	0xbcfb5773	-0.030681347
132	0xbce8b088	-0.02840449
133	0xbd18186b	-0.03713266
134	0xbe2c6351	-0.16834761
135	0x3cb9b66c	0.022669993
136	0xbc8691c3	-0.016426926
137	0x3cafde57	0.021468325
138	0xbd84244b	-0.06452235
139	0xbd4c0a6e	-0.049814634
140	0xbdc88369	-0.097906895
141	0xbd8aa8a6	-0.067704484
142	0xbde41048	-0.11135918
143	0xbdc372d6	-0.095433876
144	0xbbde8fb4	-0.006792033
145	0x3baabd63	0.005210565
146	0xbda507af	-0.08058106
147	0x3d2d129b	0.04225407
148	0xbca53ed3	-0.020171558
149	0xbdc92e31	-0.098232634
150	0x3dc54478	0.096322
151	0x3d6657a3	0.05623592
152	0xbda44e9a	-0.080228046
153	0xbda69992	-0.0813476
154	0xbd8573af	-0.065162055
155	0xbdd2a66d	-0.102856494
156	0xbd8a49b9	-0.06752343
157	0xbe1c19af	-0.15244173
158	0xbde4d62f	-0.11173665
159	0xbbe30c12	-0.006928929
160	0xbe049e0d	-0.12950917
161	0xbdb306d2	-0.08741535
162	0x3d13b79e	0.036063783
163	0xbcc2d85f	-0.023784814
164	0xbc1c19dc	-0.00952765
165	0x3c63873c	0.013887223
166	0x3d092f9c	0.03349267
167	0x3b635c90	0.0034692623
168	0xbdf1e385	-0.11810974
169	0x3b5ac79d	0.003338314
170	0x3d6ef4c7	0.058338907
171	0xbbcb2b91	-0.006200262
172	0xbd82f1f6	-0.06393807
173	0xbd97bab2	-0.07408656
174	0xbd3e6648	-0.04648426
175	0xbd74c7cb	-0.05976085
176	0xbd77637d	-0.060397614
177	0xbd3b975e	-0.045798652
178	0xbd980e24	-0.07424572
179	0xbd500fef	-0.050796445
180	0xbda49495	-0.08036152
181	0xbd64d1b2	-0.055864044
182	0x3d603803	0.054740917
183	0xbddb452a	-0.107065514
184	0xbe001cc5	-0.12510975
185	0xbd8c6efd	-0.06857107
186	0x3c6bfcd7	0.014403543
187	0x3cc0e67f	0.02354741
188	0xbe0c75de	-0.13716838
189	0xbc6dfc9f	-0.014525562
190	0x3b8ff395	0.004393051
191	0xbd6edc72	-0.0583157
192	0x3d2a7cc8	0.041622907
193	0x3bd4be4d	0.006492412
194	0x3cf4525e	0.029824432
195	0x3d16b970	0.03679794
196	0x3cca65c4	0.024706729
197	0x3da612af	0.08109032
198	0xbd739cd5	-0.05947574
199	0xbceff754	-0.02929274
200	0xbd8dfdd4	-0.069331795
201	0xbd9df163	-0.077120565
202	0xbdbfe20d	-0.09369288
203	0xbd391d94	-0.045194224
204	0xbd9be605	-0.07612232
205	0xbda06055	-0.07830874
206	0x3c7a986b	0.015295128
207	0x3d52a7b5	0.05142947
208	0x3cafb7cc	0.021449946
209	0xbdd6819a	-0.10473938
210	0xbc351fc9	-0.011054941
211	0x3d37e734	0.044898227
212	0xbde14867	-0.11000138
213	0x3aa70dbc	0.0012745182
214	0x3d48f487	0.049061324
215	0xbd014fc1	-0.0315702
216	0xbd997946	-0.07493834
217	0xbdb8f0e7	-0.090303235
218	0xbe05b824	-0.13058525
219	0xbae5dbcf	-0.0017536822
220	0xbdc8e7b7	-0.09809821
221	0xbdfd09ca	-0.12355383
222	0x3d99f0a1	0.075165994
223	0xbd3c0d55	-0.045911152
224	0xbd30f65d	-0.0432037
225	0x3d4351a6	0.047685288
226	0x3d8e2978	0.06941503
227	0xbcd662fc	-0.026170246
228	0x3cdf3d38	0.027250871
229	0x3dc2b157	0.09506481
230	0x3d8a378e	0.067488775
231	0xbbe86ceb	-0.007093062
232	0x3da19658	0.07890004
233	0xbb986623	-0.0046508475
234	0x3cbab39b	0.02279072
235	0x3c83438b	0.016023418
236	0x3dd21521	0.10257936
237	0xbd4f89ea	-0.050668634
238	0xbd8e3c21	-0.069450624
239	0x3cd95247	0.02652849
240	0xbdabe466	-0.08393173
241	0x3c48f175	0.012264599
242	0xbb72f661	-0.0037073123
243	0xbd0c68ec	-0.03427975
244	0xbd4d66b1	-0.050146762
245	0xbc33b524	-0.01096848
246	0x3ac11cf3	0.0014733359
247	0xbd8389a1	-0.06422735
248	0x3d4155af	0.047200855
249	0xbdb81c3d	-0.08989761
250	0xbc6d6636	-0.014489701
251	0x3d8cc0f8	0.06872743
252	0xbd468638	-0.048467845
253	0x3d045664	0.03230895
254	0x3d700873	0.058601808
255	0xbb9df2a7	-0.004820186

conv.9.bias f4 [128]
0	0x3d269df9	0.040678
1	0xbc20e0e6	-0.009819245
2	0x3d8426af	0.06452691
3	0xbd40af18	-0.047041982
4	0x3c7ecaa5	0.015551244
5	0xbbe24222	-0.0069048563
6	0xbcba5607	-0.0227461
7	0xbc511e7f	-0.0127636185
8	0xbd0f8d55	-0.035046894
9	0xbc23db97	-0.010001085
10	0xbd7efe7d	-0.062254418
11	0x3d23e306	0.04001143
12	0x3d3bb4c4	0.04582669
13	0xbd13d8f2	-0.036095567
14	0x3b5f24ed	0.003404911
15	0xbb666056	-0.0035152636
16	0x3c33a42d	0.0109644355
17	0x3c3a1185	0.011356716
18	0x3cc62663	0.024188226
19	0x3d422e43	0.0474074
20	0xbc91795c	-0.017758064
21	0xbd4fd794	-0.0507427
22	0x3b8fd519	0.004389417
23	0xbd988e43	-0.07449009
24	0xbc984e7f	-0.018592117
25	0x3d36e010	0.044647276
26	0x3d1df7f1	0.038566533
27	0xbcce56ae	-0.025187816
28	0xbc9e9e2c	-0.019362532
29	0xbd3078db	-0.043084007
30	0xbc6f3ece	-0.014602376
31	0xbb49894a	-0.0030751997
32	0xbc79e45a	-0.015252197
33	0x3ca07cbe	0.019590732
34	0xbb085e68	-0.0020808224
35	0x3b93f251	0.0045149704
36	0xbd1a2a90	-0.037638247
37	0x3d47ddd9	0.048795555
38	0xbc957774	-0.018245436
39	0xbd10c5d2	-0.035344906
40	0x39038cac	0.00012545538
41	0xbd8571cc	-0.06515846
42	0xbb5d0385	-0.0033724022
43	0xbcd6a80a	-0.026203174
44	0xbc16e351	-0.00920947
45	0xbcc3ec39	-0.02391635
46	0xbc88cf87	-0.01670052
47	0x3c0cb8c7	0.008588976
48	0xba1912a3	-0.0005839264
49	0x3c0f2dc1	0.008738936
50	0xbc57093b	-0.013124759
51	0xbc08df52	-0.008354025
52	0x3ca8e007	0.020614637
53	0x3c559268	0.013035394
54	0x3cd619ae	0.026135292
55	0x3c4afcae	0.012389345
56	0x3d4ca641	0.04996324
57	0xbcceb124	-0.025230952
58	0x3bcefcb2	0.0063167447
59	0x3ca28093	0.0198367
60	0xbbc61852	-0.0060453797
61	0xbd1e2deb	-0.03861801
62	0x3d41f162	0.04734934
63	0x3d2ed19b	0.042680364
64	0x3c778d07	0.015109307
65	0xbcadbb52	-0.021207485
66	0xbc363567	-0.011121131
67	0xbd6bf6a3	-0.057608258
68	0xbd7c0b2d	-0.061534096
69	0x3bafd394	0.0053657982
70	0x3c851c8d	0.016248966
71	0x3d7c1210	0.061540663
72	0xbcefb51c	-0.029261164
73	0xbd3db56f	-0.046315607
74	0x3cf52040	0.029922605
75	0xbd178963	-0.036996257
76	0xbca5c727	-0.020236565
77	0xbce40ebb	-0.027839055
78	0xbd0436fd	-0.032279003
79	0x3ba4b9ee	0.0050270474
80	0xbd4a6fcb	-0.04942302
81	0xbdb39bfc	-0.08769986
82	0xbd2a6c1d	-0.04160701
83	0x3c38f83e	0.011289654
84	0x3bf4659a	0.007458401
85	0xbd1cf647	-0.038320806
86	0x3cd7857e	0.026308771
87	0x3c904f10	0.017615825
88	0xbb47940b	-0.003045323
89	0xbba06e20	-0.0048959404
90	0x3d5079e2	0.050897487
91	0xbdb828ae	-0.08992134
92	0x3cab4ab7	0.02090965
93	0xbcc29e96	-0.02375726
94	0xbc684461	-0.014176459
95	0x3b87babd	0.004142134
96	0xbaa3cdb0	-0.0012497213
97	0xbcba7b7e	-0.022763964
98	0x3aba468c	0.0014211698
99	0xbcae6622	-0.021288935
100	0xbc15914c	-0.00912888
101	0xbbc560c4	-0.0060234983
102	0xbbc58806	-0.006028178
103	0xbcd8fefe	-0.026488777
104	0x3c1fb860	0.009748548
105	0xbd1d9125	-0.0384685
106	0xbbb62df3	-0.005559677
107	0xbc948f54	-0.01813475
108	0xbb79d381	-0.003812045
109	0x3c16ac1f	0.00919631
110	0xbcc17344	-0.023614533
111	0x3c27232b	0.010201256
112	0x3c1bc57d	0.009507534
113	0x3ce49dcb	0.027907273
114	0x3d228454	0.03967698
115	0x3ba20944	0.004944952
116	0xbd5506fb	-0.05200861
117	0xbbcce400	-0.0062527657
118	0xbdace848	-0.08442742
119	0xbbaa92d1	-0.00520549
120	0xbd36373d	-0.044486273
121	0x3d5d4618	0.054021925
122	0xbb48db5c	-0.0030648327
123	0xbcca7bf9	-0.024717318
124	0xbd37cd96	-0.044873796
125	0xbd32770c	-0.043570563
126	0xbb271656	-0.002549549
127	0x3d0a534d	0.033770848

lin.0.weight f4 [256, 128]
0	0x3d90f922	0.07078768
1	0xbc4a74b2	-0.012356924
2	0xbd9a11d3	-0.07522931
3	0xba503789	-0.00079428457
4	0xbc5c11f0	-0.013432011
5	0x3d5879e4	0.05285062
6	0xbdb9306f	-0.09042441
7	0xbc51b5f7	-0.012799731
8	0x3c2ebbdd	0.010664907
9	0x3bdf0000	0.00680542
10	0xbd99c73a	-0.075087026
11	0xbd20e56a	-0.039281286
12	0x3c3190df	0.010837763
13	0x3bf4b0a6	0.007467347
14	0x3a207ddd	0.0006122271
15	0x3bfa0fa6	0.00763126
16	0x3a57f354	0.0008237858
17	0xbccfb932	-0.025356863
18	0x3d3c8141	0.046021704
19	0x3cdd2cc7	0.02699889
20	0x3e0f3860	0.13986349
21	0x3d8884e8	0.06665975
22	0xbd172403	-0.036899578
23	0xbc6ff5a4	-0.014645968
24	0x3ca42ad2	0.02003995
25	0x3dd3f79d	0.10349963
26	0x3b646bb0	0.0034854226
27	0xbceac9e5	-0.028660724
28	0xbda1a45a	-0.07892676
29	0x3c54f6b9	0.012998276
30	0xbdbac2e2	-0.09119202
31	0x3d64baf4	0.055842355
32	0xbd750935	-0.059823234
33	0xbe13324f	-0.1437466
34	0xbd5497b8	-0.051902503
35	0xbcd66acb	-0.02617397
36	0xbd34eeca	-0.04417304
37	0xbe008c50	-0.12553525
38	0xbccd756c	-0.025080405
39	0xbe04f348	-0.1298343
40	0x3d8bf4a1	0.06833769
41	0x3e04498f	0.12918685
42	0x3c059bb7	0.008154801
43	0x3d78c327	0.060732987
44	0x3a1bb66b	0.0005939963
45	0xbcd90bbb	-0.026494851
46	0x3ceb2fd5	0.028709332
47	0x3d923bd7	0.0714032
48	0x3d1c4522	0.038151868
49	0xbacf9233	-0.0015836417
50	0xbb4818b1	-0.0030532295
51	0x3d8e10f1	0.06936825
52	0x3d9279a1	0.07152105
53	0xbcddee1a	-0.027091075
54	0x3b834936	0.00400653
55	0xbd5ad006	-0.053421043
56	0x3baadccf	0.0052143107
57	0xbaa3b257	-0.0012489063
58	0xbdc591b8	-0.09646934
59	0xbd84156e	-0.064494
60	0xbd910559	-0.07081098
61	0xbc49a657	-0.012307725
62	0xbcc3fe9e	-0.023925122
63	0xbdab0d81	-0.08352185
64	0xbd7322ec	-0.059359476
65	0x3ca273f8	0.019830689
66	0xbdef54c8	-0.116860926
67	0xbdc495d5	-0.09598891
68	0x3dfeb5ad	0.12436996
69	0x39897ed3	0.00026225168
70	0xbe087dd8	-0.13329256
71	0x3c93c7c7	0.018039597
72	0xbbee9876	-0.0072813584
73	0x3d46f031	0.048568908
74	0xbdeb74fc	-0.114969224
75	0x3e1baab9	0.15201844
76	0x3d02a97b	0.03189991
77	0x3df8206a	0.121155575
78	0xbd75629a	-0.059908487
79	0xbdafde52	-0.08587326
80	0x3ddde7f9	0.10835261
81	0x3c8e9c58	0.017408535
82	0xbc07dcd7	-0.008292398
83	0xbcc70d99	-0.024298476
84	0xbd229198	-0.03968963
85	0xbd09e215	-0.033662874
86	0xbe1b7fb2	-0.1518543
87	0x3dec2746	0.11530928
88	0x3d2b5e42	0.041837938
89	0xbc8ae820	-0.016956389
90	0xbe0bec88	-0.13664448
91	0xba92ad36	-0.0011190537
92	0xbc876feb	-0.016532859
93	0x3d348cb7	0.04407951
94	0x3c271242	0.010197224
95	0x3dc4d6cf	0.09611284
96	0x3aa864d4	0.0012847432
97	0x3dd49aca	0.10381086
98	0x3caacbce	0.020849135
99	0x3c222661	0.009896846
100	0xbdc7562b	-0.09733232
101	0xbabf4b55	-0.0014594594
102	0x3a9d9834	0.001202351
103	0x3d9795b0	0.074015975
104	0x3bbdf6a1	0.0057972227
105	0xbbfee310	-0.007778533
106	0xbcbe3ede	-0.023223337
107	0xbd2eda93	-0.042688917
108	0xbd124dad	-0.03571861
109	0x3d6fe7df	0.05857074
110	0xbd6400af	-0.055664714
111	0xbd717c28	-0.058956295
112	0x3da5595e	0.08073686
113	0xbd3f5ef8	-0.04672143
114	0x3cd14ddc	0.025549822
115	0xbd8d84fe	-0.06910132
116	0x3dc5476d	0.09632764
117	0xbda9dd8a	-0.08294208
118	0x3ceef3dc	0.029169016
119	0xbe2a13bf	-0.16609095
120	0xbda75e5b	-0.08172294
121	0xbcb4ca13	-0.022069013
122	0x3d72c0b8	0.059265822
123	0x3c9c2d72	0.019064639
124	0xbc0e36db	-0.008680071
125	0x3d5aaf76	0.05338999
126	0xbe0a53fc	-0.135086
127	0xbd97f4f7	-0.0741977
128	0xbdfbf1a5	-0.123019494
129	0x3e18c092	0.1491721
130	0x3c1e8fc1	0.009677828
131	0xbc794e6d	-0.015216452
132	0xbcb543be	-0.022127029
133	0xbcdf08e9	-0.027225928
134	0xbd47cd69	-0.04877988
135	0x3c782740	0.015146077
136	0xbd8c8d07	-0.06862836
137	0x3c5f4765	0.013627862
138	0x3d96eb4d	0.07369099
139	0x3d723cb5	0.059139926
140	0x3c7310f5	0.014835586
141	0x3d6a7bf7	0.05724713
142	0x3916d67e	0.0001438502
143	0xbcf6eb5e	-0.030141529
144	0xbad47ed2	-0.0016212112
145	0xbe07aa01	-0.13248445
146	0xbda0a052	-0.07843079
147	0xbdb0d8ae	-0.08635078
148	0xbdb44a2f	-0.08803212
149	0xbd2e8670	-0.04260868
150	0x3d1413f5	0.036151845
151	0xbce0a1b2	-0.027420852
152	0xbd2d5926	-0.042321347
153	0x3df99d1c	0.12188169
154	0xbdae6958	-0.085161865
155	0xbe07c79c	-0.13259739
156	0x3dcdf11d	0.10055754
157	0x3d78f834	0.06078358
158	0xbdd016df	-0.10160612
159	0xbd9c2ea2	-0.07626082
160	0xbcf37cfd	-0.029722685
161	0xbda08751	-0.078383096
162	0x3ddeac7e	0.10872744
163	0xbdf7c7e7	-0.12098675
164	0x3b959294	0.0045645926
165	0xbde0718b	-0.109591566
166	0x3d60f831	0.054924194
167	0x3d260ba4	0.040538445
168	0xbd8dd92b	-0.06926187
169	0x3db8ddae	0.09026657
170	0x3a66eed5	0.00088093925
171	0x3d89975d	0.067183234
172	0x3a0f372d	0.0005463239
173	0x3be04e27	0.006845254
174	0xbcbcc098	-0.023041055
175	0xbd04dee2	-0.03243912
176	0x3d37f640	0.044912577
177	0x3d5f045f	0.054447528
178	0xbd03403c	-0.03204368
179	0x3e098bf3	0.13432293
180	0xbd0b1139	-0.03395197
181	0x3d0290d4	0.0318764
182	0xbd7c0d76	-0.061536275
183	0xbca4c3cc	-0.020112894
184	0xbe112421	-0.14173938
185	0x3b54a542	0.0032447134
186	0x3cec16df	0.0288195
187	0x3e0e4084	0.13891798
188	0xbd4b5786	-0.049644016
189	0x3d851777	0.06498616
190	0xbb6ddfb0	-0.0036296658
191	0xbe068495	-0.13136514
192	0xbdb17e0b	-0.08666619
193	0x3834a444	4.306833e-05
194	0x3de81b1f	0.11333298
195	0x3d83bb33	0.0643219
196	0xbd16c54e	-0.03680926
197	0xbcca4b33	-0.02469406
198	0xbdf372fa	-0.118871644
199	0x3d28e099	0.041229818
200	0xbb0c0b1c	-0.0021368926
201	0xbcf942a5	-0.030427286
202	0xbdd41fd9	-0.10357637
203	0x3ce637c5	0.028102765
204	0x3deaef95	0.11471478
205	0x3b74bc3a	0.0037343637
206	0xbc8a45a6	-0.016878914
207	0xbd232084	-0.03982593
208	0xbd624385	-0.055240173
209	0xbd513211	-0.051073138
210	0x3c07bee5	0.008285259
211	0x3d9acee8	0.075589955
212	0x3dda9d17	0.10674494
213	0xbdb93306	-0.09042935
214	0xbd8df36c	-0.06931195
215	0xbddad063	-0.10684278
216	0x3d08e6ab	0.033423107
217	0xbcc8cda6	-0.024512123
218	0x3d194491	0.037418906
219	0x3d8dfac7	0.069325976
220	0xbdb86d14	-0.0900518
221	0xbc96bdef	-0.018401114
222	0xbd8950f5	-0.067048945
223	0x3c2e0c12	0.010622995
224	0x3b98c397	0.004661988
225	0xbd0f2eca	-0.03495673
226	0x3dac9543	0.08426907
227	0xbbe52cb0	-0.0069938526
228	0x3d4fe928	0.050759465
229	0xbb85de2b	-0.0040853224
230	0x3a46c58f	0.0007582539
231	0x3d02f37f	0.031970497
232	0xbd3b113f	-0.045670744
233	0x3dc07ee4	0.093992025
234	0xbc3801fb	-0.011230941
235	0xbd89e3da	-0.06732912
236	0xbd0de809	-0.034645114
237	0x3d0dd520	0.03462708
238	0x3d28fb05	0.041255016
239	0xbcee123b	-0.029061427
240	0x3bd502c3	0.0065005734
241	0xbd654714	-0.05597599
242	0x3b57cae9	0.003292734
243	0x3cd9ec6e	0.026601996
244	0xbc9ded6b	-0.019278249
245	0x3cf19268	0.029488757
246	0xbd26b726	-0.040702008
247	0xbc238f37	-0.009982876
248	0x3d72bcad	0.059261966
249	0x3cb2b45e	0.021814521
250	0xbdda8ac8	-0.10671002
251	0x3c3c9e32	0.011512326
252	0xbd46b924	-0.048516408
253	0x3d8dc5e8	0.06922513
254	0x3cf743e7	0.030183746
255	0xbd32db83	-0.043666374
