catkin_ws/src/lane_keeping_6_cv_camera/models/lane_keeper_small_v6.onnx (onnx, 69670 bytes, 14 tensors)

conv.0.weight f4 [8, 1, 5, 5]
-0.0030589094 0.00060592295 -0.0110977385 0.0001594355 -0.0016128274 -0.020070666 -0.0032349778 0.009030017
0.0026467638 0.0037176702 -0.0089951875 -0.010047985 0.0076920036 0.015097622 0.0069134557 -0.0113150105
-0.009852054 -0.030161208 0.008345463 0.02821111 -0.014756974 -0.01196564 -0.028620517 0.007528667
0.03203086 0.0054074703 0.051660303 0.012940588 -0.053504355 -0.010169521 0.020917932 0.04191137
0.047894374 -0.0022126664 -0.02554168 -0.055998903 -0.0060150265 0.020514501 -0.038106516 -0.0628821
-0.027012192 0.024882058 0.048476208 0.009764089 0.024955114 -0.028166909 0.00018341992 0.02483501
-0.023468934 -0.0009241672 -0.0020102782 0.0077998633 -0.014346451 -0.0071221627 -0.01699412 0.0048875296
0.0020521998 5.5836117e-05 -0.02443208 -0.00012418511 0.005285059 -0.006273934 -0.023263311 -8.65675e-05
-0.0002607959 0.00024926194 -1.5028008e-05 -0.0010788158 -0.00056721247 -0.00018632018 -0.0010781337 0.0006477836
-0.009817597 -0.018232848 -0.000466829 -0.0076207817 -0.040342867 -0.001667197 0.012841874 0.008570221
0.030481735 -0.00089133624 -0.014259027 -0.0050190473 0.02109524 0.008020931 0.014325807 -0.029964082
-0.008039942 -0.0077065732 -0.02420109 0.0286695 0.005149828 -0.009432234 -0.012791184 0.0058085467
0.00400783 0.0036716154 0.02734904 0.008339464 0.025561655 -0.012981305 -0.04663384 -0.041492794
0.08445192 -0.007820931 -0.0735359 0.04152639 0.016744556 0.089832306 -0.05891688 -0.042711947
0.06062532 0.085202076 0.011436482 -0.0065126745 -0.0058548176 0.003532946 0.018725216 -0.040244114
-0.009430869 -0.028498434 -0.01765409 -0.031707875 -0.011170943 0.05714868 0.034717787 -0.018773478
-0.028696517 -0.069185 0.0553651 0.01182689 -0.014506749 0.0007789432 -0.0123144835 0.041982584
0.033793207 -0.014211822 0.00010633719 -0.069566496 0.014551914 -0.029971778 0.04514611 -0.013741421
0.030546797 0.0049317162 -0.015907777 -0.047028434 0.0004479073 0.026102671 -0.016732285 0.075113095
0.011163708 0.02805296 -0.060676493 -0.029094746 0.07062225 0.06851425 -0.051362038 0.004251593
-0.0027007523 -0.07363325 0.018741129 0.0036448976 -0.045088638 -0.0063794237 -0.073365666 0.028096296
0.050754037 -0.02260135 0.004544254 -0.027321007 0.0032991443 0.015941521 0.012611969 -0.007759329
0.0007411796 -0.0006335908 0.020494701 0.0025730662 0.0005116757 -0.0049490635 0.0141197145 -0.009218831
0.0012280853 0.0007012839 -0.014402766 -0.0013107541 -0.021599086 0.004208722 0.0005066644 0.00016427704
0.002153155 0.018276677 0.008683513 0.0064878296 -0.011920141 -0.026804453 0.02212037 0.037369736
00000000: fc77 48bb cdd6 1e3a 4ad3 35bc 242e 2739
00000010: 8265 d3ba 3d6b a4bc ec01 54bb a3f2 133c
00000020: 5475 2d3b 28a4 733b 8d60 13bc 4ea0 24bc
00000030: 340d fc3b 045c 773c 458a e23b 9862 39bc
00000040: 826a 21bc a314 f7bc 69bb 083c fc1a e73c
00000050: 3cc7 71bc 880b 44bc 9375 eabc 09b3 f63b
00000060: cb32 033d 2631 b13b c199 533d c304 543c
00000070: 6227 5bbd 109e 26bc 155c ab3c 42ab 2b3d
00000080: e42c 443d 6202 11bb c93c d1bc 1b5f 65bd
00000090: b319 c5bb 070e a83c 9415 1cbd 55c8 80bd
000000a0: ac48 ddbc 75d5 cb3c fd8e 463d 8ff9 1f3c
000000b0: ab6e cc3c 4abe e6bc 6954 4039 ca72 cb3c
000000c0: ec41 c0bc d043 72ba dfbe 03bb ff95 ff3b
000000d0: 600d 6bbc 0861 e9bb 4137 8bbc 9227 a03b
000000e0: 337e 063b 9331 6a38 c925 c8bc b037 02b9
000000f0: 4a2e ad3b 9395 cdbb b392 bebc 938b b5b8
00000100: 6fbb 88b9 5faf 8239 ce20 7cb7 0d67 8dba
00000110: fcb0 14ba f15e 43b9 2a50 8dba 06d0 293a
00000120: fdd9 20bc 0e5d 95bc bac0 f4b9 c0b7 f9bb
00000130: 903e 25bd d985 daba b966 523c 1d6a 0c3c
00000140: d5b4 f93c 90a8 69ba b29e 69bc d276 a4bb
00000150: edcf ac3c 396a 033c cab6 6a3c 3c77 f5bc
00000160: f6b9 03bc 6c87 fcbb 5d41 c6bc 4ddc ea3c
00000170: e3bf a83b a889 1abc 1d92 51bc 9f55 be3b
00000180: 1d54 833b 7c9f 703b 180b e03c 3fa2 083c
00000190: ad66 d13c 8aaf 54bc 2003 3fbd 59f4 29bd
000001a0: 21f5 ac3d 5d23 00bc fd99 96bd 9317 2a3d
000001b0: e12b 893c 00fa b73d d452 71bd b9f2 2ebd
000001c0: 4152 783d 6d7e ae3d 1560 3b3c 4668 d5bb
000001d0: c5d9 bfbb 0089 673b a065 993c 03d7 24bd
000001e0: ee83 1abc 8c75 e9bc 4f9f 90bc 1ee0 01bd
000001f0: 5506 37bc bc14 6a3d 3d34 0e3d d6ca 99bc
00000200: f514 ebbc deb0 8dbd 84c6 623d 92c5 413c
00000210: b7ad 6dbc fe31 4c3a b0c2 49bc eef5 2b3d
00000220: bf6a 0a3d b4d8 68bc 5801 df38 e178 8ebd
00000230: 276b 6e3c 6087 f5bc 21eb 383d b223 61bc
00000240: 473d fa3c 3c9a a13b 0751 82bc e3a0 40bd
00000250: 1ad5 ea39 45d5 d53c 2512 89bc e5d4 993d
00000260: fce7 363c 52cf e53c ea87 78bd 1b58 eebc
00000270: 66a2 903d 3351 8c3d 0061 52bd f250 8b3b
00000280: 1bff 30bb 08cd 96bd ff86 993c 3cdf 6e3b
00000290: ddae 38bd 7c0a d1bb bd40 96bd 342a e63c
000002a0: 77e3 4f3d 7726 b9bc f7e7 943b 4ed0 dfbc
000002b0: 7536 583b cb97 823c 6fa2 4e3c f841 febb
000002c0: b94b 423a 8f17 26ba 81e4 a73c e3a0 283b
000002d0: fa21 063a c12b a2bb 6056 673c 940a 17bc
000002e0: b4f7 a03a 5ed6 373a 94f9 6bbc 9ccd abba
000002f0: 91f0 b0bc 52e9 893b acd1 043a c841 2c39
00000300: f21b 0d3b f8b8 953c 4b45 0e3c dc97 d43b
00000310: b24c 43bc 0395 dbbc c735 b53c 0211 193d

conv.0.bias f4 [8]
-2.9274865e-05 9.085537e-07 -6.1660525e-05 -0.004696106 2.7006865e-06 -9.315231e-06 -2.6837486e-05 -0.027755868
00000000: 4b93 f5b7 56e3 7335 be4f 81b8 cbe1 99bb
00000010: 713d 3536 9d48 1cb7 1021 e1b7 4660 e3bc

conv.3.weight f4 [8]
0.76897967 0.76857525 0.7686886 0.7688763 0.77014685 0.7686867 0.7694913 0.76842743
00000000: dadb 443f 59c1 443f c7c8 443f 14d5 443f
00000010: 5828 453f a7c8 443f 62fd 443f a9b7 443f

conv.3.bias f4 [8]
-3.173917e-05 -0.0005096759 0.0002202651 -0.00015410742 0.0002670811 2.1373819e-05 -0.0002730458 -0.00022589708
00000000: ad1f 05b8 c59b 05ba f6f6 6639 e597 21b9
00000010: 0507 8c39 ed4b b337 9627 8fb9 c9de 6cb9

conv.3.running_mean f4 [8]
0.6014343 4.9179792 0.006318545 4.841674 6.8420787 7.4205847 4.708557 6.534699
00000000: 99f7 193f 1660 9d40 cc0b cf3b feee 9a40
00000010: 4ff2 da40 6e75 ed40 80ac 9640 411c d140

conv.3.running_var f4 [8]
3.8483834 35.336678 0.009247111 9.137633 68.53241 50.883003 42.17174 14.337562
00000000: ea4b 7640 c258 0d42 3281 173c bf33 1241
00000010: 9810 8942 3288 4b42 ddaf 2842 a766 6541

conv.4.weight f4 [4, 8, 5, 5]
0.003300915 0.0017296916 0.001539209 0.0062510846 4.720016e-06 0.0016455081 0.0075690057 -0.0008779664
-0.0042090253 -0.002942617 0.0012551225 0.001520351 -0.00071655016 0.0020898494 -0.00036021764 0.0011892215
0.0017758083 -0.005047304 -0.015504729 -0.002804852 -0.0037342631 -2.0642618e-05 -0.0062548593 -0.011403733
-0.022185508 0.0012387622 -0.0039789756 -0.0038207292 -0.00081867917 0.0006547816 0.0005730977 0.0058334186
0.0005272638 -0.0023644248 -0.0006871171 -4.536914e-05 8.58486e-05 -0.0012698976 0.0011599101 0.0019267021
-0.0042158966 0.0035028763 -0.00484138 -0.0017109734 0.01712908 -0.0066166474 0.0104279965 0.013958539
-0.0049614203 0.002042261 -0.0014133423 -0.00017468882 0.00013166126 0.000716165 0.0011157223 -0.0015701726
0.000852546 0.0009766034 0.00057923776 9.031666e-05 -0.00026046313 -0.00034018504 0.0007693501 0.00095886027
-0.00011862527 -5.7798625e-05 -0.000705824 0.0020356632 -0.0007236297 -0.00029832742 -0.00011597903 -0.0004675605
0.00044543334 -0.0011500285 -0.0011765987 -0.0075317514 -0.002636617 7.7984594e-05 -0.006337634 -0.0048660804
-0.00958696 -0.0009277054 0.002223039 0.0019646038 -0.00086479157 -0.00021463836 0.00782012 -0.0003791669
0.0006853575 0.006605976 -0.0010749645 0.0034425682 0.007338717 0.0014393252 -0.001424722 0.0010204845
0.0016390074 0.0153582 0.014176138 0.00552409 -0.005895793 8.190811e-05 0.013201255 0.008518792
-0.003506225 -0.0014185398 -0.00073185883 0.0027694877 -0.0006965929 -0.017489024 -0.0045405976 -0.0067237103
0.0063014426 0.0054803807 -0.0103605185 -0.00071139046 0.00034730427 0.0016087996 0.008851014 0.0003034736
-0.000613317 -0.00032801906 -0.009652163 0.000506857 -0.00010044498 -0.0014661351 -0.0049998187 -0.014303125
-0.009828477 0.0037986042 -0.009781789 0.0018477496 -0.00031296906 -0.006944565 -0.016055759 -0.01152953
-0.0041208835 -0.012865397 -0.0013537367 0.0045027044 -0.009303318 7.376642e-05 -0.0114043085 -0.018866824
0.0103798425 -0.017265452 -0.005136265 0.0070974655 -0.008136119 -0.009715243 0.00090241636 -0.0003514266
-0.00033008048 -0.0009520781 -0.0045043873 0.007692637 0.0023062164 0.0002601909 -0.0028233607 -0.0054720943
0.009646696 0.005641569 -5.8372375e-06 0.007536463 -0.007984193 0.0003997998 0.017471794 -0.004898606
-0.002270357 0.017597934 -0.0032590919 0.014150093 0.01443765 -0.0012252284 -0.0037302093 -0.0032123595
0.0003241585 6.4857186e-06 -0.010440208 -0.0026579113 -0.0066766227 -0.001746272 0.0010263462 0.005646727
-0.00036926972 -0.0014751938 0.0009174564 0.0005705542 0.0030412362 0.006787276 -0.0076028947 0.00086466334
0.0002695589 0.0014536117 -4.0151193e-05 -0.0008074215 0.0010365185 0.00031076526 0.007979587 0.00542848
0.0005520186 -0.0011918128 -0.0006171365 0.00057857984 0.0085213585 0.0012510507 0.00035683767 0.00020890444
0.0005362717 0.011147185 0.0013802336 0.002180513 0.000749173 -0.001366429 0.0105612585 0.0016236859
0.0014835014 0.0010437071 -0.0052031847 0.012587567 0.0023433608 0.0008623874 0.00045574928 -0.004156499
0.0048777843 -0.00058634084 0.001859954 -0.00059321604 -0.00014776945 0.0041690483 -0.001095728 -0.0011925112
-0.00080423773 -0.001063918 0.0052121226 -0.000713437 -0.0008531401 -0.0002900725 -0.002363059 0.00075094233
-0.0027773494 -0.0015500765 -0.0008171949 -0.00012400832 -0.00045882323 -0.005522402 -0.0024874078 -0.002091965
-0.0002551833 -0.0011672949 0.0008215299 9.8219265e-05 0.00023101985 -6.659009e-05 8.867162e-05 -0.0005076731
00000000: 2a54 583b d2b6 e23a 49bf c93a e6d5 cc3b
00000010: a160 9e36 17ae d73a 6c05 f83b 5427 66ba
00000020: ddeb 89bb ecd8 40bb ec82 a43a 8446 c73a
00000030: ded6 3bba dbf5 083b 98db bcb9 a7df 9b3a
00000040: 3dc2 e83a db63 a5bb 8c07 7ebc 9cd1 37bb
00000050: 8aba 74bb af29 adb7 90f5 ccbb b9d6 3abc
00000060: 62be b5bc f65d a23a 1162 82bb 3365 7abb
00000070: a19c 56ba a6a5 2b3a f03b 163a 4326 bf3b
00000080: 1338 0a3a 77f4 1abb a61f 34ba be4a 3eb8
00000090: 9e09 b438 b172 a6ba 2008 983a 6589 fc3a
000000a0: 8125 8abb 8390 653b 70a4 9ebb be42 e0ba
000000b0: 4952 8c3c 76d0 d8bb 30da 2a3c 5bb2 643c
000000c0: 6993 a2bb 74d7 053b e63f b9ba ac2c 37b9
000000d0: 8d0e 0a39 05bd 3b3a 6e3d 923a 40ce cdba
000000e0: 657d 5f3a 5f01 803a fdd7 173a 6368 bd38
000000f0: c58e 88b9 dd5a b2b9 36ae 493a 065c 7b3a
00000100: 75c6 f8b8 cd6c 72b8 0c07 39ba c368 053b
00000110: f8b1 3dba d468 9cb9 c539 f3b8 e822 f5b9
00000120: 0d89 e939 8ebc 96ba 1a38 9aba e9cc f6bb
00000130: 18cb 2cbb a98b a338 edab cfbb a473 9fbb
00000140: a012 1dbc 4131 73ba 68b0 113b 95c0 003b
00000150: 2eb3 62ba 8c10 61b9 f61f 003c ebca c6b9
00000160: 90a9 333a f176 d83b d3e5 8cba b69c 613b
00000170: 9f79 f03b bda7 bc3a bdbd baba c7c1 853a
00000180: f6d3 d63a f6a0 7b3c 0843 683c 6d03 b53b
00000190: 7f31 c1bb 15c6 ab38 144a 583c 6792 0b3c
000001a0: b2c8 65bb 4cee b9ba 37da 3fba 4b80 353b
000001b0: 8f9b 36ba 2445 8fbc 4bc9 94bb 9252 dcbb
000001c0: 557c ce3b c494 b33b 2abf 29bc 9b7c 3aba
000001d0: 6416 b639 5bde d23a d803 113c 891b 9f39
000001e0: 02c7 20ba f9f9 abb9 1b24 1ebc 99de 043a
000001f0: fda5 d2b8 552b c0ba 85d5 a3bb a857 6abc
00000200: 9f07 21bc 01f2 783b cc43 20bc 3030 f23a
00000210: ff15 a4b9 3c8f e3bb 5e87 83bc 5be6 3cbc
00000220: 7a08 87bb 63c9 52bc de6f b1ba 6c8b 933b
00000230: f26c 18bc 0cb3 9a38 23d9 3abc 998e 9abc
00000240: 3710 2a3c 4770 8dbc 1d4e a8bb db91 e83b
00000250: 5b4d 05bc af2c 1fbc 2390 6c3a ae3f b8b9
00000260: a70e adb9 e194 79ba 8a99 93bb 8412 fc3b
00000270: e423 173b 3b6a 8839 2208 39bb 414f b3bb
00000280: 2d0d 1e3c e9dc b83b 7ddd c3b6 6ff4 f63b
00000290: 22d0 02bc 399c d139 0221 8f3c 7c84 a0bb
000002a0: 45ca 14bb 8b29 903c 7d96 55bb cbd5 673c
000002b0: e58b 6c3c d897 a0ba 8776 74bb 7386 52bb
000002c0: d1f3 a939 e69f d936 680d 2bbc 5a30 2ebb
000002d0: 92c7 dabb 2ae3 e4ba 7786 863a 2e08 b93b
000002e0: 8b9a c1b9 4a5b c1ba 7581 703a 3f91 153a
000002f0: 7a4f 473b cc67 de3b b421 f9bb 93aa 623a
00000300: 9553 8d39 1d87 be3a 0468 28b8 24a9 53ba
00000310: cadb 873a 35ee a239 d0bc 023c 64e1 b13b
00000320: 57b5 103a 9a36 9cba 54c7 21ba d6ab 173a
00000330: 2b9d 0b3c 4cfa a33a f115 bb39 5c0d 5b39
00000340: 9694 0c3a afa2 363c f4e8 b43a f0e6 0e3b
00000350: 2664 443a c019 b3ba 2109 2d3c dcd1 d43a
00000360: 0c72 c23a 00cd 883a 7a7f aabb 153c 4e3c
00000370: 1293 193b d711 623a a2f1 ee39 3e33 88bb
00000380: d2d5 9f3b abb4 19ba b3c9 f33a 0e82 1bba
00000390: 8ff2 1ab9 839c 883b 889e 8fba 094e 9cba
000003a0: 7bd3 52ba 2a73 8bba 74ca aa3b f205 3bba
000003b0: 43a5 5fba df14 98b9 8ddd 1abb e3da 443a
000003c0: 3104 36bb f02b cbba 0539 56ba 3b08 02b9
000003d0: 368e f0b9 44f5 b4bb c703 23bb 5919 09bb
000003e0: 1fca 85b9 ebff 98ba f05b 573a 11fb cd38
000003f0: eb3d 7239 48a6 8bb8 37f5 b938 5d15 05ba

conv.4.bias f4 [4]
0.017448554 -0.0027783804 -0.013215271 -0.020105904
00000000: 45f0 8e3c 7d15 36bb dd84 58bc 23b5 a4bc

conv.7.weight f4 [4, 4, 7, 7]
2.9148398e-05 2.6810554e-05 -1.0202248e-05 -1.2176675e-05 -0.00017528703 4.900443e-05 -0.00019227178 -7.382395e-05
-0.00010784439 4.728743e-05 0.0001434787 -0.00026450673 7.737782e-05 8.690591e-05 7.063432e-05 -0.00033562095
-2.5334886e-05 0.00023651382 0.00015960599 -0.0001332417 0.00010881828 -0.00011295963 -0.0005056678 -0.00019162448
0.0001590305 -2.8393612e-05 -0.00036725143 -0.0005342681 -3.3385033e-05 -0.0005309814 -0.00038683604 4.2173775e-05
2.2070402e-05 -0.000797876 5.5933588e-06 -0.0002863135 -8.335452e-05 -8.234293e-05 0.00020985238 -0.0005242227
-0.0012248098 -0.00065343827 -2.739451e-05 -0.000783274 -0.00020173375 -0.00010259101 -0.0012525232 -0.0021534807
-0.0019905628 -0.0004360603 -0.00011119587 8.075828e-06 -0.00031037183 -0.00041337588 -0.00019024118 -0.000127485
-0.0005980082 5.3380612e-05 0.00010872944 -0.00015791768 8.698836e-05 4.445804e-05 -0.0003156045 -0.00019456653
1.1890816e-05 0.00010213909 -0.00010432756 5.3115375e-05 -0.00018641714 -0.0004996989 -0.000100500496 -0.00046788368
-0.0004505242 -2.1277192e-05 3.4586443e-05 -0.0004432873 -0.00080054643 -9.900313e-06 -5.502609e-06 -0.0006629819
-4.798833e-05 -0.00013029495 -0.00045149605 -0.00079238764 -4.8551858e-05 -4.6318906e-05 -0.0011409794 -0.0006966459
-0.000101053636 -0.00025923314 -0.00084188813 6.775408e-05 0.00012491782 -0.0012935239 -0.0013216935 -0.00025519123
0.00015168851 -5.249787e-05 0.0003465081 -0.00028345536 -0.0005519841 -0.0012217492 -0.0016155329 -0.0007861461
-0.00032639297 0.000470876 -0.00022092348 -0.00067709596 -0.00079537916 -0.0012529194 -0.0012808394 -0.00040355657
3.7418227e-05 -0.0003847231 -0.0012079796 -0.0005462731 -0.00093452045 -0.0013067333 -0.0006677092 -2.338688e-05
-0.00016135095 -0.0016290166 -0.0010467225 -0.0010420848 -0.0006181456 -0.002285545 -8.501158e-05 -0.00066349027
-0.00046533855 -0.00091597176 -7.683268e-05 0.00011093009 -0.0033054498 -0.00031702252 -0.0005104115 -0.0001309865
-0.0023063472 -0.001810816 -0.0021678342 -0.0037832528 -0.0028574737 -0.00014890764 -0.00071827834 -0.00495548
-0.0066480893 -0.007574759 -0.0058932644 0.006706596 0.0037598237 0.0013323937 0.0005203126 0.0003744526
0.000228923 0.0040827994 0.005586356 0.00057019934 3.3326112e-05 -4.2395845e-05 -6.183926e-05 -0.0004923023
0.0033335926 0.004329291 0.00061791245 -6.69802e-05 0.00023264244 0.00013009943 -0.00011108529 0.0011624383
0.0021943299 0.00051918783 7.522197e-05 0.00032994835 0.00023912876 -8.655382e-05 0.0018787893 0.0015908459
0.00015925466 0.00024094553 0.0005849396 0.00029509616 0.00012592752 0.002529502 0.0010222755 0.00025151068
0.00045816496 0.0005402405 0.00044103333 0.00023529818 0.0027509476 0.00023243246 0.0002624603 0.00030432266
0.0005503266 0.0005264145 0.001930513 0.003575706 -9.970733e-05 -8.616218e-05 4.0054285e-05 0.00014983585
-0.00029285962 -0.0005684983 -0.0018184097 -0.00021321847 -5.2082327e-05 6.9337206e-05 0.00010344504 0.00025577494
8.999182e-05 -0.0005085626 -0.00023258098 -0.00021934834 5.8753667e-05 0.00016741052 0.00038628507 -0.00015246861
-0.00040974983 8.832757e-05 -0.00017397784 -0.00012041579 0.0001266358 0.00041120764 -0.00014726649 -0.0007293263
0.0005243978 2.7099595e-05 -7.975446e-05 0.00021531472 0.00015854501 -0.00084508106 -0.00055454177 0.0010665831
0.00020880163 -0.00030022932 -5.3226126e-05 -0.0014007816 -0.001479082 -0.00030037476 0.0011307728 -9.004773e-05
-0.0001520249 -0.0027650024 -0.004323222 -0.003401946 -0.0013481667 -0.00040321585 -0.00028559924 -0.00061028765
-0.0042549833 -0.005952989 -0.005424776 -0.001935298 -4.088866e-05 0.00016058817 2.0294437e-05 -0.0029077914
00000000: b583 f437 3ae7 e037 522a 2bb7 6c4a 4cb7
00000010: 41cd 37b9 1b8a 4d38 909c 49b9 eed1 9ab8
00000020: 842a e2b8 7e56 4638 c572 1639 7ead 8ab9
00000030: e745 a238 4141 b638 8321 9438 48f6 afb9
00000040: 4186 d4b7 b200 7839 e85b 2739 ccb6 0bb9
00000050: 5f35 e438 bde4 ecb8 cb8e 04ba ceee 48b9
00000060: 6dc1 2639 d12e eeb7 a78b c0b9 200e 0cba
00000070: e806 0cb8 8f31 0bba 41d0 cab9 bfe3 3038
00000080: d423 b937 8d28 51ba 96ae bb36 591c 96b9
00000090: 9ece aeb8 86af acb8 d20b 5c39 fd6b 09ba
000000a0: cc89 a0ba 804b 2bba 43cd e5b7 a154 4dba
000000b0: 7e88 53b9 2126 d7b8 b42b a4ba 6921 0dbb
000000c0: 1a74 02bb 069f e4b9 d431 e9b8 6b7d 0737
000000d0: 67b9 a2b9 5fba d8b9 7a7b 47b9 7ead 05b9
000000e0: a7c3 1cba ffe4 5f38 ac05 e438 b496 25b9
000000f0: 856d b638 7578 3a38 b877 a5b9 8e04 4cb9
00000100: aa7e 4737 8233 d638 6fca dab8 33c8 5e38
00000110: f878 43b9 3afe 02ba cbc3 d2b8 494e f5b9
00000120: 5634 ecb9 6c7c b2b7 e910 1138 0469 e8b9
00000130: c3db 51ba 8519 26b7 0da3 b8b6 f6cb 2dba
00000140: 1447 49b8 c99f 08b9 c6b6 ecb9 3cb8 4fba
00000150: 29a4 4bb8 8c46 42b8 ea8c 95ba 1d9f 36ba
00000160: c2ec d3b8 afe9 87b9 28b2 5cba 3217 8e38
00000170: 5ffc 0239 768b a9ba ad3c adba 30cb 85b9
00000180: 930e 1f39 2931 5cb8 88ab b539 bc9c 94b9
00000190: 07b3 10ba 1a23 a0ba 4ac0 d3ba 5f15 4eba
000001a0: b91f abb9 e8df f639 b2a7 67b9 247f 31ba
000001b0: fe80 50ba 0039 a4ba d7e1 a7ba 7294 d3b9
000001c0: 84f1 1c38 a9b4 c9b9 1255 9eba c433 0fba
000001d0: 9bfa 74ba b246 abba 3509 2fba f12e c4b7
000001e0: 5130 29b9 ba84 d5ba 2e32 89ba 9096 88ba
000001f0: 0d0b 22ba 15c9 15bb 3f48 b2b8 14ee 2dba
00000200: aff8 f3b9 d31d 70ba 3b21 a1b8 23a3 e838
00000210: 3fa0 58bb 0b36 a6b9 23cd 05ba 6c59 09b9
00000220: 1626 17bb e758 edba 3912 0ebb 73f0 77bb
00000230: 7444 3bbb 1724 1cb9 d84a 3cba 9461 a2bb
00000240: 37d8 d9bb af35 f8bb 491c c1bb 01c3 db3b
00000250: 6067 763b b7a3 ae3a 9665 083a 2d52 c439
00000260: 0d0b 7039 01c9 853b c00d b73b 6e79 153a
00000270: a4c7 0b38 31d2 31b8 b3af 81b8 d90d 01ba
00000280: 6778 5a3b badc 8d3b 67fb 213a b977 8cb8
00000290: 7bf1 7339 4d6b 0839 76f6 e8b8 f55c 983a
000002a0: bfce 0f3b 1b1a 083a 7dc0 9d38 ebfc ac39
000002b0: a3be 7a39 3a84 b5b8 b541 f63a ee83 d03a
000002c0: 99fd 2639 53a6 7c39 a256 193a 23b7 9a39
000002d0: 690b 0439 00c6 253b e0fd 853a 31dd 8339
000002e0: dc35 f039 ed9e 0d3a 7e3a e739 60ba 7639
000002f0: 3e49 343b 1db9 7339 d39a 8939 7f8d 9f39
00000300: cb43 103a 14ff 093a 4409 fd3a 6456 6a3b
00000310: f719 d1b8 f8b1 b4b8 f6ff 2738 411d 1d39
00000320: f48a 99b9 4607 15ba b457 eeba 6693 5fb9
00000330: f972 5ab8 2169 9138 a2f0 d838 8819 8639
00000340: feb9 bc38 0f51 05ba fbe0 73b9 df00 66b9
00000350: 456e 7638 eb8a 2f39 4e86 ca39 fbdf 1fb9
00000360: b1d3 d6b9 813c b938 d26d 36b9 bc87 fcb8
00000370: 8ac9 0439 5b97 d739 8c6b 1ab9 4230 3fba
00000380: be77 093a f053 e337 da41 a7b8 1bc6 6139
00000390: 1a3f 2639 6e88 5dba ab5e 11ba 97cc 8b3a
000003a0: c3f1 5a39 1968 9db9 1e3f 5fb8 6e9a b7ba
000003b0: c2dd c1ba 9e7b 9db9 7036 943a 02d8 bcb8
000003c0: e068 1fb9 0b35 35bb d1a9 8dbb 2ff3 5ebb
000003d0: f8b4 b0ba b766 d3b9 7bbc 95b9 b6fb 1fba
000003e0: 636d 8bbb 4b11 c3bb 52c2 b1bb d3a9 fdba
000003f0: dd7f 2bb8 8f63 2839 f93d aa37 a590 3ebb

conv.7.bias f4 [4]
0.012103213 0.02122732 0.043650836 0.013971709
00000000: 8e4c 463c ebe4 ad3c 38cb 323d 98e9 643c

lin.0.weight f4 [32, 36]
-0.04179025 0.15192768 -0.0630012 0.08794616 0.0027472829 -0.075223334 0.09794898 0.1337867
0.1116901 -0.03928907 0.09181042 0.00128741 0.098544255 -0.07579983 0.018856892 0.18102255
0.115792505 -0.07310927 0.009222261 0.034940943 0.02604363 0.13934575 -0.046307415 0.12117454
-0.032673474 0.09004213 0.20998809 -0.03450025 -0.19379467 -0.014891279 -0.17164248 -0.04210064
-0.052353226 -0.09980867 -0.19696796 -0.010257582 -0.038842138 0.008904302 0.017120803 -0.053608224
-0.058943022 -0.084026635 0.10607746 -0.13667321 -0.10917379 -0.09314099 -0.10772269 -0.026780346
-0.118171684 0.060735792 -0.14358021 -0.011367153 -0.085967496 -0.16508755 0.04619949 -0.0026629525
-0.0060576703 0.032747995 -0.031063447 -0.14990622 -0.024073511 -0.0826395 -0.095523894 0.08639983
0.09056467 0.14775315 0.16244574 0.14003502 -0.021568516 0.00029024872 -0.042661577 0.11133692
-0.1472203 -0.13107812 0.040200993 -0.030399974 -0.11663724 0.037535556 0.0410644 -0.06595038
-0.13007352 0.0406749 0.029483868 -0.05991141 -0.11375406 -0.054849945 0.012216511 -0.092781246
0.03887929 0.015111276 -0.123811565 0.0473583 -0.046035778 0.020266976 -0.12495565 0.0053712535
0.033860855 -0.009616098 -0.13607039 0.02571803 0.09975148 -0.07327256 0.014078226 0.029810855
0.045794327 0.15004313 0.021417702 -0.013508568 -0.07550668 -0.09596664 0.06739006 0.10642343
0.1015476 -0.107162386 -0.055419065 -0.10949253 0.049459264 0.06464089 -0.032558184 0.08478433
0.083517745 -0.051913917 -0.05541972 0.13861008 0.0829902 0.07073593 -0.0437706 0.018100102
-0.11380564 -0.013473409 0.074054085 -0.038051378 0.14123148 0.09381926 0.029517781 0.076911904
0.13799803 0.049486257 0.038235564 0.028215522 -0.09695862 -0.10502958 -0.1584141 -0.015590095
-0.005235326 0.023743296 0.017707283 0.03595752 -0.07447945 -0.073994756 0.10047937 -0.027472321
0.022708174 0.14026801 0.14484845 0.11236667 0.15567014 0.14730063 -0.041404538 0.03292392
-0.04168571 -0.03914809 0.17718896 -0.04169029 0.061999563 0.008050746 0.16439801 0.07719531
-0.08197617 0.06345264 0.021185301 -0.11863345 0.02064328 0.03223938 0.017337445 -0.047256615
0.0360156 -0.11880905 0.07159928 0.061096612 0.09267962 -0.12361953 0.010263151 0.095282316
-0.055324357 -0.07065797 0.122026324 -0.0030018326 0.010757708 -0.07040756 -0.0017583877 0.0717864
-0.06429738 -0.006076385 0.0417717 0.041678924 -0.06892766 0.021302875 0.03492254 -0.030444106
-0.0511291 0.11684376 0.16868638 0.111902416 0.15531313 0.01021517 0.24923973 -0.16881044
-0.13681613 -0.1131849 -0.07605222 -0.007859036 -0.1321802 -0.19055451 -0.08854606 -0.05235827
-0.026073491 0.011867503 0.110827155 -0.02983917 -0.02192034 0.11899155 -0.10926861 -0.098788664
-0.013923745 -0.02982263 -0.056019396 0.0197978 -0.0025975336 -0.039942987 0.011773326 0.06681135
-0.07591743 -0.06831512 -0.041243546 0.0018671909 -0.042534556 0.00048103783 0.0071237036 -0.016329639
0.025515169 -0.027050745 -0.057435047 -0.014112489 0.024052674 0.011254713 -0.017694075 0.012516004
0.053547516 0.013051404 -0.022164086 -0.07510321 0.09147018 0.09135462 0.14467855 0.03879542
00000000: 412c 2bbd ee92 1b3e c606 81bd 1e1d b43d
00000010: c20b 343b b10e 9abd 7a99 c83d 61ff 083e
00000020: c7bd e43d 93ed 20bd 1a07 bc3d 50be a83a
00000030: 92d1 c93d f13c 9bbd c579 9a3c fa5d 393e
00000040: 9f24 ed3d 50ba 95bd f718 173c 3c1e 0f3d
00000050: 7359 d53c a7b0 0e3e d8ac 3dbd 5b2a f83d
00000060: 9fd4 05bd 0268 b83d 1e07 573e 2250 0dbd
00000070: 1c72 46be 8dfa 73bc 0cc3 2fbe b871 2cbd
00000080: 5670 56bd 7d68 ccbd f8b1 49be 6b0f 28bc
00000090: ef18 1fbd 59e3 113c ed40 8c3c 4c94 5bbd
000000a0: 3d6e 71bd 2816 acbd 243f d93d 10f4 0bbe
000000b0: 8296 dfbd b4c0 bebd b79d dcbd 7562 dbbc
000000c0: ff03 f2bd 18c6 783d b106 13be 4c3d 3abc
000000d0: ba0f b0bd b60c 29be ad3b 3d3d ee84 2ebb
000000e0: 6c7f c6bb c322 063d c578 febc 0481 19be
000000f0: d035 c5bc e63e a9bd 08a2 c3bd 65f2 b03d
00000100: f879 b93d 9a4c 173e 2d58 263e 5765 0f3e
00000110: 75b0 b0bc 862c 9839 e8bd 2ebd 9c04 e43d
00000120: ebc0 16be 5839 06be cca9 243d 5e09 f9bc
00000130: 81df eebd e2be 193d 2533 283d fe10 87bd
00000140: fe31 05be b99a 263d 2788 f13c ab65 75bd
00000150: e3f7 e8bd 56aa 60bd c327 483c 1804 bebd
00000160: e43f 1f3d 4995 773c eb90 fdbd c7fa 413d
00000170: 0390 3cbd ee06 a63c bfe8 ffbd 5701 b03b
00000180: aeb1 0a3d d78c 1dbc 0956 0bbe 9eae d23c
00000190: 814a cc3d ed0f 96bd 5ca8 663c e535 f43c
000001a0: d592 3b3d e8a4 193e 2d74 af3c 0a53 5dbc
000001b0: 3fa3 9abd 288a c4bd cd03 8a3d 87f4 d93d
000001c0: 30f8 cf3d f477 dbbd 1aff 62bd 9f3d e0bd
000001d0: cc95 4a3d 7162 843d bb5b 05bd 68a3 ad3d
000001e0: 5a0b ab3d b0a3 54bd caff 62bd cdef 0d3e
000001f0: c4f6 a93d 00de 903d cd48 33bd aa46 943c
00000200: ee12 e9bd 93bf 5cbc aba9 973d c3db 1bbd
00000210: fc9e 103e 5024 c03d 46cf f13c fd83 9d3d
00000220: 5b4f 0d3e 1ab2 4a3d e59c 1c3d 3d24 e73c
00000230: 3e92 c6bd c019 d7bd 4e37 22be 996d 7fbc
00000240: 198d abbb 4d81 c23c dd0e 913c 3148 133d
00000250: af88 98bd 908a 97bd 21c8 cd3d a20d e1bc
00000260: 7e06 ba3c 6ba2 0f3e 2753 143e 7f20 e63d
00000270: fe67 1f3e fad5 163e ce97 29bd 3bdb 063d
00000280: a3be 2abd bf59 20bd 0671 353e 70c3 2abd
00000290: 41f3 7d3d 47e7 033c f457 283e 9318 9e3d
000002a0: 1fe3 a7bd 75f3 813d cc8c ad3c 18f6 f2bd
000002b0: 191c a93c 710d 043d 4207 8e3c 2790 41bd
000002c0: 1885 133d 2952 f3bd a5a2 923d 7140 7a3d
000002d0: d0ce bd3d 3c2c fdbd c626 283c 6023 c33d
000002e0: cb9b 62bd 20b5 90bd f0e8 f93d 65ba 44bb
000002f0: 1941 303c d731 90bd b379 e6ba c004 933d
00000300: 58ae 83bd 691c c7bb cd18 2b3d 85b7 2a3d
00000310: f229 8dbd 5e83 ae3c f00a 0f3d eb65 f9bc
00000320: bf6c 51bd c84b ef3d 1fbc 2c3e 182d e53d
00000330: 680a 1f3e 875d 273c b338 7f3e a5dc 2cbe
00000340: 8719 0cbe 7ccd e7bd 44c1 9bbd 30c3 00bc
00000350: 3f5a 07be b920 43be a357 b5bd a075 56bd
00000360: 1398 d5bc ea6f 423c 59f9 e23d 4671 f4bc
00000370: 4992 b3bc d7b1 f33d 39c8 dfbd b651 cabd
00000380: 6b20 64bc 974e f4bc 9874 65bd ff2e a23c
00000390: 623b 2abb 429b 23bd e9e4 403c 64d4 883d
000003a0: 997a 9bbd cce8 8bbd feee 28bd 88bc f43a
000003b0: b738 2ebd ce33 fc39 f56d e93b bcc5 85bc
000003c0: 3005 d13c 8699 ddbc 0341 6bbd 1238 67bc
000003d0: 1d0a c53c b065 383c 2af3 90bc ed0f 4d3c
000003e0: a454 5b3d 8ed5 553c 7591 b5bc b6cf 99bd
000003f0: b854 bb3d 2218 bb3d 9d26 143e f2e7 1e3d

lin.0.bias f4 [32]
0.11961995 -0.02957373 -0.13342604 0.1461747 -0.06777145 -0.13827635 0.032643195 -0.0056741806
0.12478985 -0.12045728 0.068946816 -0.08114579 0.15190926 0.054379445 -0.022376403 0.025142007
0.073682554 0.02153861 0.0057817125 -0.04236218 0.01729896 -0.1625481 -0.13241653 -0.009600069
-0.076447666 0.040169608 -0.04703599 -0.09385796 -0.11964944 0.01429162 -0.031256724 0.020364799
00000000: 4efb f43d 9b44 f2bc d6a0 08be d2ae 153e
00000010: c2cb 8abd 5198 0dbe dfb4 053d 7aee b9bb
00000020: d291 ff3d 4eb2 f6bd fd33 8d3d c42f a6bd
00000030: 1a8e 1b3e fbbc 5e3d b84e b7bc 9cf6 cd3c
00000040: e1e6 963d bd71 b03c 8574 bd3b f783 2dbd
00000050: 8cb6 8d3c 0273 26be 3398 07be 9c49 1dbc
00000060: 9890 9cbd e388 243d cfa8 40bd 9a38 c0bd
00000070: c40a f5bd 6627 6a3c 0d07 00bd 14d4 a63c

lin.2.weight f4 [2, 32]
0.021928152 0.026973771 0.09449752 -0.19833037 0.092548236 -0.055867236 -0.033328507 -0.009676132
-0.11911661 -0.14769304 -0.13088688 0.09171532 -0.14326735 -0.12717362 0.057209246 0.07909033
-0.15094635 -0.09694907 -0.053478725 0.16145597 0.10187207 0.10186969 0.17149198 0.054106034
0.0010793366 0.034595158 0.1130918 0.08701502 0.0034090842 0.21866903 0.009402266 0.043426048
0.1943382 -0.10394383 -0.035176482 -0.00018121317 0.123428166 0.10105892 -0.013171756 0.19506365
0.10959391 -0.0833818 0.10242802 0.019004703 -0.031965304 -0.12625778 -0.10778494 0.22399026
0.03345877 0.09658049 0.16198103 -0.17923129 -0.17743577 0.065424 -0.07729322 0.19776957
-0.09749176 -0.2167731 0.15127638 0.20122398 -0.13136902 -0.25333783 -0.2517183 -0.20395644
00000000: aba2 b33c 19f8 dc3c ea87 c13d 1e17 4bbe
00000010: ee89 bd3d 0bd5 64bd 7983 08bd a488 1ebc
00000020: 69f3 f3bd d83c 17be 3607 06be 3ed5 bb3d
00000030: adb4 12be cd39 02be 3e54 6a3d 1cfa a13d
00000040: ae91 1abe 3c8d c6bd 820c 5bbd b754 253e
00000050: 4ea2 d03d 0ea1 d03d 989b 2f3e 4a9e 5d3d
00000060: 8778 8d3a a7b3 0d3d ac9c e73d ee34 b23d
00000070: f16a 5f3b c6ea 5f3e f60b 1a3c 83df 313d
00000080: 9800 473e 81e0 d4bd 3715 10bd 0a04 3eb9
00000090: e8c7 fc3d fbf7 ce3d 59ce 57bc c4be 473e
000000a0: c672 e03d 14c4 aabd c8c5 d13d c0af 9b3c
000000b0: 0dee 02bd b849 01be 5abe dcbd b45d 653e
000000c0: 100c 093d fecb c53d 5bde 253e 6888 37be
000000d0: b9b1 35be 05fd 853d e84b 9ebd 1b84 4a3e
000000e0: c3a9 c7bd c4f9 5dbe 32e8 1a3e a90d 4e3e
000000f0: 9a85 06be 7fb5 81be 39e1 80be f5d9 50be

lin.2.bias f4 [2]
0.14982787 -0.053641237
00000000: 7a6c 193e eab6 5bbd
