dei_ws/src/tests/lane_keeping_6_cv_camera/models/local_path_estimator.onnx (onnx, 157730 bytes, 16 tensors)

conv.0.weight f4 [8, 1, 5, 5]
00000000: 17a6 d8bd fcbe c4bd 90b0 303e f4d6 793c
00000010: e49b 05be b2ce 623d b7a8 a4bd 85d9 e3bd
00000020: 4fd4 353d 5600 05be cd42 1cbe 738d bdbc
00000030: 83dc 02be 129c 03be da60 713e fdf5 f5bd
00000040: 8e59 893d 0e2c bfbd 9c58 6b3e bdd3 583e
00000050: ebcd 13bd 1299 593d 74d0 7bbc 19e7 d93d
00000060: 3786 0d3e a46a e13d bfa3 82bd 9a4a cb3c
00000070: e09f 4a3d af84 28be 1fff c4bd 27fa 02be
00000080: 55e6 97bd a7e2 433e b43a 103e f8a1 ca3c
00000090: 5f11 c8bd 2953 97bd 8f8a 353e 3182 cd3d
000000a0: 61e6 05bd d64b c83c 4ab6 bebd aee9 a5bd
000000b0: 29dc dc3d 5fdc f8bd 4801 e7bd 5d34 acbd
000000c0: 391d 173d 0d20 893c 270e 7bbd 0f05 f9bd
000000d0: d4ad a6bd 4921 cdbd fbec 383c e6bc 4bbd
000000e0: 29aa aebc 5189 dfbd ffd0 683e 2bcd 8c3d
000000f0: 9a61 fbb9 5dc8 bdbd 25bf 593e dcb7 253e
00000100: 5524 a9bb b2b1 83bc 0606 523e 207c b03d
00000110: 6b69 4dbe 5271 363d 665b 883d 8bde b9ba
00000120: b4fc 0abc 7bc8 a6bd 12ba a33d 3834 3e3e
00000130: 5bdf 303d 54d4 84bd d07f 0fbd 1b37 b5bd
00000140: 59e9 2ebe 60be 4abe a86a 6d3c ecdf 07bd
00000150: ca96 9bbd c8a6 503d 62b9 27be ad27 533b
00000160: 4ea3 4c3d 350b 12be ec58 dabd a001 67bd
00000170: c066 503c 48a0 62be a322 c9bd 7a09 953c
00000180: 1732 db3d 8cb0 5abe 846c bfbd 9fa6 d43d
00000190: 642e ff3d dc51 c13d e413 4abe bff8 db3d
000001a0: 7f2c 183d c089 2abe 3920 b9bd 5b07 d53d
000001b0: 4eb2 8c3d ca85 30be bcb9 4bbd 5464 ed3d
000001c0: 2b61 693e 3aee f8bc 5b48 9ebd 85e9 9cbd
000001d0: 11d7 ddbd 3531 be3c 6bf7 6cbd 3918 5ebe
000001e0: aee5 793d 8cf6 cc3d b237 fd3d 70cb 3f3c
000001f0: aa9e 273d cc1b c63d 6d82 273d 103a f33d
00000200: 0bab 63be 283e d5bd d1c7 403e 34fe 0f3e
00000210: f582 adb9 58f6 0b3e b538 39be ca10 00be
00000220: 9f13 a9bd 3de3 fbbd 21f4 093e 794b f03d
00000230: 4b23 b2bd 8bda 033e 1332 af3d c985 27be
00000240: a403 863d a3d7 2ebe 68f1 2cbe a0f8 f53d
00000250: 50d5 4b3e 7798 09be 15ac 963c dd83 ecbd
00000260: 969e 89bd c40a 86bd 15b7 ddbd dc86 3d3d
00000270: 1c6c 44bd 40d5 cc3c a05d 643d 9be2 0cbd
00000280: aaf0 d8bc fa10 053d f4d6 ff3d dec4 1f3e
00000290: e5fa 21be 4ae0 1a3d 32c6 333d b032 f43d
000002a0: 589e 6d3e 48a0 383d 16ad adbd c6fa 73be
000002b0: a360 c7bc d755 d03c 8953 313e 8b6c aabd
000002c0: 950f cbbc 43bd 8ebd 8cbf 06be 482a fc3c
000002d0: 1d71 58be 8e59 503c b6c1 aabd 387a 9abd
000002e0: a89a 0cbe e04e c23d b372 11be 3a5e fc3b
000002f0: 4937 0cbe 0ad0 14be acb7 f13d 22a5 7e3e
00000300: 8d98 643c ceab 37bd b2c7 51be 9ba3 59be
00000310: 1f13 cfbc cecd e5bd 744d 723c dd85 803d
-0.10578554 -0.0960674 0.17254853 0.015249003 -0.13047749 0.0553729 -0.08039992 -0.11125473
0.044391926 -0.1298841 -0.15259857 -0.023138737 -0.12779431 -0.12852505 0.23572102 -0.12009809
0.06706534 -0.09334575 0.2298302 0.21174522 -0.03608505 0.053124495 -0.015369523 0.106397815
0.1382073 0.11006668 -0.06378888 0.024815846 0.049468875 -0.16456865 -0.09618973 -0.12790738
-0.07416979 0.1912943 0.14084893 0.024735436 -0.09768938 -0.073889084 0.17728637 0.10034598
-0.03269041 0.024450224 -0.09312113 -0.081012115 0.1078418 -0.121514075 -0.11279541 -0.08408425
0.036893103 0.016738916 -0.061292794 -0.12159168 -0.08138624 -0.10016114 0.011286969 -0.049740694
-0.021321373 -0.10914863 0.22735976 0.0687507 -0.0004794717 -0.09266732 0.21264322 0.16183418
-0.005161802 -0.016075943 0.2051011 0.08617425 -0.20059745 0.044541664 0.06658058 -0.0014180703
-0.008483101 -0.08143707 0.079944745 0.18574607 0.04318176 -0.06485811 -0.035034 -0.08848401
-0.17081203 -0.19799185 0.014490761 -0.033172533 -0.0759712 0.050940305 -0.16379312 0.0032219694
0.049960427 -0.14262088 -0.10661492 -0.056398034 0.01271981 -0.22131455 -0.098210596 0.018192995
0.10702913 -0.2135641 -0.093468696 0.10383343 0.1246002 0.094394416 -0.1973415 0.10740804
0.03715181 -0.1665411 -0.09039349 0.104017936 0.068699464 -0.17238536 -0.049737677 0.11591402
0.22790973 -0.030387033 -0.077286445 -0.07661728 -0.10832036 0.023216823 -0.057853144 -0.21688928
0.061010055 0.100079626 0.12364139 0.011706218 0.0409228 0.096732706 0.040895868 0.11876309
-0.22233216 -0.10412246 0.18826224 0.14061815 -0.00033094702 0.13668191 -0.18088038 -0.12506405
-0.082556956 -0.12299202 0.13472034 0.11733145 -0.08698138 0.12876336 0.08554473 -0.16359629
0.06543663 -0.17074446 -0.16888964 0.12010312 0.19905591 -0.13437067 0.018392602 -0.115485884
-0.06719701 -0.06545022 -0.10825936 0.04627119 -0.047954664 0.02500403 0.05575335 -0.034395795
-0.026481945 0.032486893 0.12492171 0.15602443 -0.15818365 0.037811555 0.043890186 0.119237304
0.23204935 0.04507473 -0.08480279 -0.23826131 -0.024338072 0.025431557 0.17317022 -0.08321484
-0.024787704 -0.069696926 -0.13159007 0.03078188 -0.211369 0.012716664 -0.08337729 -0.075428426
-0.13730872 0.094877005 -0.1420391 0.0077016624 -0.13692965 -0.14532486 0.11802611 0.2486768
0.013952387 -0.04484158 -0.20486334 -0.21253817 -0.025277672 -0.11220895 0.014788974 0.062755324

conv.0.bias f4 [8]
00000000: 0eab cc3d 044b 3f3d 54d8 15be b047 503c
00000010: e7f3 53bd f3ac 7bbe 95a3 a53c a818 d13d
0.099935636 0.0467024 -0.14633304 0.012712404 -0.051746275 -0.24577694 0.020219604 0.10209781

conv.3.weight f4 [8]
00000000: a91e 933f fb74 853f 32d3 813f b0b8 723f
00000010: da61 823f 5b50 833f 665c 813f 892e 793f
1.1493732 1.0426325 1.0142577 0.9481306 1.0186112 1.0258898 1.0106323 0.9733663

conv.3.bias f4 [8]
00000000: d969 823d ec46 b93c 5c2d c8bc f6f6 80bc
00000010: b8ea b6bc 8ec2 dc3a 7774 3b3c 78aa 1d3d
0.06367845 0.022616826 -0.024435692 -0.01574276 -0.02232872 0.001684265 0.011441342 0.03849265

conv.3.running_mean f4 [8]
00000000: 346a 9141 a3ba b240 5679 0d42 4712 8e3d
00000010: 330f 8841 e0da 8541 ed43 f741 0814 8c3d
18.176857 5.585283 35.368492 0.0693708 17.007421 16.731873 30.908167 0.06839758

conv.3.running_var f4 [8]
00000000: 3826 ff43 bab4 3543 a854 f443 cfe4 4f3f
00000010: a25a 9243 ffe1 a243 53c3 0144 1b76 9a3f
510.29858 181.70596 488.66138 0.8120851 292.70807 325.7656 519.05194 1.2067293

conv.4.weight f4 [8, 8, 5, 5]
00000000: 7f56 7dbc 048d bebc d303 81bd 90fd 1fbd
00000010: 2f11 b8bd 7cdf 023b ae01 8e3b 7261 c83c
00000020: b368 e3bd 2936 40bd 7421 0b3d 37a3 993d
00000030: e7d4 c83c 1da1 a3bc c234 ddbd 0e5c 96bd
00000040: e34b bc3a 210f 293d c758 a13d e3d7 d1bd
00000050: afce dabd 9b62 2d3d f9de 88bd bf50 b43d
00000060: ebaa 5d3d 3ac8 d53c 8861 6d3c fadf 13bd
00000070: ecd4 febb 7834 8dbb d3f9 c0bd eb38 b7bc
00000080: fd6a 06bd 7391 2f3d aa2a 95bd fca4 b53d
00000090: 343c cfbc c36c 453d 2b11 45bd 609a f33a
000000a0: a9ad bc3c ce06 06be 802a a8bd 04d0 fcbc
000000b0: 7245 63bd 4752 84bd 8800 563d 8c10 9dbd
000000c0: c588 553d 82d5 20bc 8d7a 683d 8318 ce3c
000000d0: e5c3 f93c b92c 7a3d 52ce 3f3d cefe 2cbd
000000e0: 035d adbc dbf6 c9bc eba8 393d 54bc 123d
000000f0: dc4e c53c a1a9 a3bb 615e 21bd d101 8fbd
00000100: 1860 913c ff4a 223c 0d09 843c 53e2 693d
00000110: 667b 2c3c f679 47bd 9335 643d 1835 163d
00000120: cc23 e6bc 8d48 f83c dff3 b83c 43b0 e3bc
00000130: 6cea 3b3c 2448 193c 962b 3d3d 020d 76bd
00000140: 7053 abbc 00ab 28bb a9cd 313c 8c3a 64bd
00000150: ae68 45bd 6742 59bd 15a0 673c 8dc6 313c
00000160: a91b 453d c5d1 853b 9139 82bd 258a 7c3d
00000170: dc82 443d 89eb 0a3c 67a6 213d 12f8 ecbc
00000180: 987b a4bd c400 dabc 5d01 d1bc b2ee b83c
00000190: 71cf 4cbd 2396 843c 39a8 fa3c a0a3 003d
000001a0: d146 4f3c 79ef ccbc 5ad6 f9bc b509 f0bc
000001b0: d7df 2fbd 4919 32bd a0b3 2e3d bd9b 62bc
000001c0: 404d 903d 9a7b 253c 0dcf 9c3c ebcd 153c
000001d0: 7368 f83b c03e 8a3b 79d5 cb3c 6718 343d
000001e0: 41ba e7bc b918 c8bb bc02 1dbb dd22 cd3c
000001f0: 53c6 923d c872 ae3c 6196 ca3d d673 083c
00000200: e09b 9abd 0102 583d a1aa 233d 3b07 29bc
00000210: 58f1 c03d 82e0 753d 7f64 11bd 2ca9 acbd
00000220: 8c2e d43c cfc4 9e3c a2f5 e73d d44a 6bbd
00000230: 6974 643d 2a3e c838 a744 a73c d845 933d
00000240: 8a5c 283d 20c3 44bb 5252 d43b ff7a 103d
00000250: 0394 983d 8000 ed3c 8e01 9a3c 657a 0fbc
00000260: 57d2 4139 869c d03c a45a c03d b7ce eabc
00000270: dbdb dfbc 89c6 a73c 52e6 7abd 5551 583d
00000280: 5415 32bc d1e9 8cbc 41f7 313d 1c6c 87bc
00000290: 83c1 aebd c9b6 703d 4fc5 19bd 8c29 9abd
000002a0: c0c6 8b3d e189 183d 13be ffbb 7f61 6e3d
000002b0: eb54 cdbd c74a e0bc 5e4f 1a3d 97fa e33d
000002c0: 2532 92bc 511b b03d 8b3b a8bd 97c8 a3bd
000002d0: 9c1a 48bd bdb0 503a 3976 9fbc 2187 7e3c
000002e0: 3e21 413d cae4 703c 3ec9 1cbd 50a7 473d
000002f0: 0280 6ebd dfd5 e63c 994f acbd 06b3 a0bd
00000300: a174 c03c 6524 ae3d 0f74 4e3b d127 12bd
00000310: b6fa 0ebc 4e9d 283d 1931 8c3d 0986 25bc
00000320: 4e3b af3c c202 7ebd 4910 e1bd 268c 5fbc
00000330: 6411 ce3d 5a02 abbc 060d c8bc d71f 43bd
00000340: 6a00 833d 441c d03d f6e9 c1bd 8757 fdbc
00000350: dd93 ac3c 7765 fc3d 9e56 063d 50d4 3bbd
00000360: 5aff 403a 0f9a 743d d78f 093d 2ee0 b5bd
00000370: e776 dcbc 4e14 f93c b9e9 ab3d 90c4 43bd
00000380: 6b0f bebd b94c 1e3d dc0b 1c3b d371 bd3b
00000390: e3c0 dabc d6b9 75bc baba d83b ab0b 703d
000003a0: 4f1d bd3a d04a 90bd 8030 8fbd 359b ef3c
000003b0: 097d 1abd fa77 2b3b c933 6cbb b3dd 0fbd
000003c0: 6b60 3f3d a690 3ebd aa9c 6cbd bac1 9d3c
000003d0: 2172 643d bec2 d93c 9422 9bbb 7091 5dbd
000003e0: a62d 003d cadc 773d e34d 513c 3436 aa3d
000003f0: 05f3 f6bc e6bc c2bc 8988 65bb 0b90 bc3d
-0.015462517 -0.0232606 -0.062995575 -0.039060175 -0.089876525 0.0019969633 0.0043336963 0.024460528
-0.11103954 -0.04692665 0.03396745 0.07501834 0.024515582 -0.019974286 -0.108010784 -0.07341777
0.0014365878 0.041274194 0.07878261 -0.10246255 -0.10683953 0.042330366 -0.06683154 0.088044636
0.05411808 0.026096452 0.014488585 -0.036102273 -0.007776847 -0.0043092333 -0.0942265 -0.022366008
-0.032816876 0.04286332 -0.07283528 0.08869359 -0.025297262 0.048199426 -0.048112076 0.0018585436
0.023032026 -0.13088533 -0.08211231 -0.030860908 -0.05548615 -0.06461006 0.0522466 -0.07669172
0.052132387 -0.009816529 0.0567575 0.025158172 0.030488918 0.061077807 0.04682762 -0.04223519
-0.021162516 -0.024653843 0.04532711 0.035824135 0.024085455 -0.0049945866 -0.039396647 -0.06982768
0.017746016 0.009905576 0.016117597 0.057100605 0.010527467 -0.048700295 0.055715155 0.036671728
-0.028093241 0.030308032 0.022577224 -0.02779401 0.011469465 0.009355579 0.046184145 -0.060071
-0.02091381 -0.002573669 0.010852256 -0.055719897 -0.048195533 -0.05304184 0.014137288 0.010850561
0.048122082 0.0040838444 -0.06358636 0.061655182 0.04797636 0.0084790075 0.039465334 -0.028926883
-0.08031386 -0.026611693 -0.025513345 0.022574756 -0.05000252 0.016184872 0.030597793 0.031406045
0.012651161 -0.025016533 -0.030497719 -0.029301504 -0.04293808 -0.043481145 0.042651772 -0.013831076
0.07045984 0.01010027 0.019141698 0.009143333 0.0075808107 0.004218906 0.024882065 0.043968584
-0.028287055 -0.006106463 -0.0023957929 0.025041038 0.071667336 0.021294966 0.09891964 0.008328399
-0.07549262 0.052736286 0.039957646 -0.010316665 0.09421033 0.06002856 -0.03549623 -0.084307045
0.025901102 0.019380955 0.113261476 -0.05744441 0.05577508 9.548322e-05 0.020418478 0.07191056
0.041103877 -0.003002353 0.00647954 0.03527355 0.07450106 0.028930902 0.01879957 -0.0087572085
0.00018484272 0.025465261 0.09392288 -0.028663022 -0.027326515 0.020480411 -0.061254807 0.05281194
-0.010869343 -0.017201336 0.04344869 -0.016531043 -0.08533003 0.058768068 -0.037541684 -0.07527456
0.06825018 0.037240867 -0.007804641 0.05819845 -0.100259624 -0.027379407 0.037673347 0.111317806
-0.017846176 0.0859896 -0.08214482 -0.07997244 -0.0488535 0.00079609064 -0.019465553 0.015535147
0.047150843 0.014702985 -0.038277857 0.048743546 -0.058227547 0.028178154 -0.084136195 -0.07846646
0.023493113 0.085030355 0.0031502282 -0.035682503 -0.008726766 0.041165642 0.06845302 -0.010102757
0.021390583 -0.06201435 -0.10989434 -0.013644254 0.10061911 -0.020875145 -0.024420273 -0.047637787
0.06396563 0.10161641 -0.09468453 -0.030925525 0.0210666 0.123240404 0.03279745 -0.045856774
0.0007362269 0.059717234 0.033584442 -0.088806495 -0.026912166 0.03040519 0.083941884 -0.04779488
-0.092802845 0.038647387 0.002381078 0.005781391 -0.026703304 -0.01499792 0.0066140564 0.058604877
0.001442829 -0.07045519 -0.069916725 0.029248813 -0.0377169 0.002616404 -0.0036041609 -0.03512354
0.04672281 -0.046524666 -0.057766594 0.019257415 0.055772904 0.026582118 -0.0047343466 -0.054093778
0.031293534 0.060513295 0.012774917 0.0831112 -0.030145178 -0.023771714 -0.0035024008 0.092071615

conv.4.bias f4 [8]
00000000: 73ad 36bd 68b5 f53b b40e 93bc e608 b9bd
00000010: 9bac 57bc 7f37 13bc 5555 8bbc d94c 3f3d
-0.044599008 0.007498432 -0.017951347 -0.090349 -0.013163711 -0.008985399 -0.017008463 0.046704147

conv.7.weight f4 [8, 8, 7, 7]
00000000: 9e0d 3e3d d73f 2a3d 022b 283d 6acb 3d3a
00000010: 39fd 28bd 674d 69ba 9496 30bd f6e9 b43d
00000020: 2c0b 0e3d a4f0 ba3c a532 a5bc 25f2 8c3d
00000030: fefc a8bc 4d1c d5bb 1b67 c13c c5e4 d0bb
00000040: 5097 533d a377 243d 1361 6c3c 11a2 7c3c
00000050: b9f3 11ba 1db5 2b3c ef91 2abd 08dd 3c3d
00000060: 41d5 4c3d 2065 02bd 486a 023c ed15 8dbd
00000070: 9638 2e3d 207b 923c 5abe 16bc 7da8 5cbc
00000080: f819 163d 8b95 cfbc 2b61 68bd b1d7 b93b
00000090: 950a 193c ed15 d43c 6e26 0fbd 4ce1 2bbc
000000a0: 4c9d 943c ba37 cdbb 8c4b c43c 5a45 acbc
000000b0: cd4d 0ebd dda7 fa39 d9be 34bd de91 813c
000000c0: ee7a 083d 8fce afbd 7508 4fbd 52de 6abd
000000d0: 03c2 23bd 82ee 58bc 37ee aabc 9aca 543d
000000e0: 100f 223a 1837 00bd 8cc8 ce3c 8c02 dd38
000000f0: 65c6 d23b 4f13 023d eadd 2e3d cdce 3bbd
00000100: 8e38 493c cfd5 dd3a 7ab5 853c 6415 97bc
00000110: 30b6 91bc 1aa6 ff3c 2f4f 533c f9d0 1b3c
00000120: e134 a7bb 5d40 873c a576 453c adca 533d
00000130: 7306 203d 9ab4 1ebd 2e08 67bd 8b7e 993c
00000140: f9f7 523d 4d6d bc3a 285f 7b3d e772 973d
00000150: 3600 393b 0366 df3c 4e46 a0bc 5c1d 70bc
00000160: da5f 19bb 3638 32bc e88d 263d f7bf 64bd
00000170: a333 69bd 32f4 0ebc 6b61 80bc 17f1 2cbd
00000180: 73ee ef3c 3bc5 c73d 9c82 dd3c 13a1 c5bc
00000190: d1c2 d4bc ee70 0fbd 899a 13bc ef1b 5cbc
000001a0: a974 f9bc 2c0c 573d 6a93 f23c 2c6e 89ba
000001b0: 8df7 0a3b 66d8 8bbd 2f89 82bc 6b4f 993b
000001c0: 6e3e c1bb 22a9 09bd aec2 63bc d4c0 dcbc
000001d0: 78e5 9ebc 5536 17bc b8ec 00bc 1329 40bd
000001e0: a830 0abc 2df7 c5bc 928d 63bd 76a0 b3bb
000001f0: c199 f93c 1e55 f73c be6e 8ebb c161 2ebd
00000200: 936d 673c 7e7c 0e3d d4e3 053d 452f 653c
00000210: e893 ec3c 3b89 6fbc e357 35bd b4be 113d
00000220: 9383 413d 8479 643a 9678 593c 1005 cd3c
00000230: 0db3 b33a 51a9 803b 0270 a53c 1b54 c0bb
00000240: 6645 693c 6a54 1d3d b2f8 3ebc 6741 dfbc
00000250: 590d aabc 1276 0cbd fb23 98bd 75ff 37bc
00000260: d609 273d ce44 1ebd afcb 29bc 301d d6bc
00000270: 9c4e a0bc 2bd6 82bd 0446 d8bc aec3 433d
00000280: b584 4a3c e98c e33b 84ab ec3c a14d 863c
00000290: 4b26 e1bc bc0a dbbc ba09 38bd 810b 4dba
000002a0: e7fe 8a3c 86d7 22bd a53f 063d 6d3e c4ba
000002b0: 3478 58bd 7154 1bbc 942e 7c3d 0548 c7bc
000002c0: be2a 3f39 2ac7 083d 135b 083c 68b3 2fbc
000002d0: 7c8f 6f3c 591b 133d 9d6f 2dbd 5693 093d
000002e0: dda0 543d 6f17 153d 2d3d 1abc 1c45 29bd
000002f0: 5c6b 17bc 4543 0b3d 021a bd3c 05a6 393c
00000300: 8cf1 093c aeeb f33a 04fc 83bc 6c23 1abd
00000310: 2ff8 09bd f68f 0cbd 4e9d 7d3c 53ec c2bc
00000320: efcb 71ba 6f26 17bb 3612 9fbc 82c6 76bd
00000330: a8ab abbc 91f7 8cbc ea16 02bd 9428 4e3c
00000340: 29c6 fabb 97cf e53c ba7d 253d 7b32 4e3d
00000350: 1840 553c 676b d0bc db61 033d d6bc 213d
00000360: 43bc d23c 791e 8d3d ebe9 7abc 10f6 dd3c
00000370: bca8 73bc e4f1 25bd bb70 7cba e98a e03c
00000380: 1f1d edbb 14af c7bc c22e e13c 56b3 153d
00000390: cbd6 92bd b87a 18bd 7d41 343c 6127 14bc
000003a0: 7b70 13bd 5172 8c3b c081 1f3d b7c0 97bc
000003b0: 1454 75bd 5516 86bd 2612 683c 409f d9bc
000003c0: ae30 2e3b 4725 193d 3aba 1dbd 7db1 52bd
000003d0: 4b32 6bbd 37dc 67bd b92a 2cbd 3d6a 63bd
000003e0: 7056 9b3b 3624 f1bc 392c 363d d7a8 8fbc
000003f0: 36d1 febc 3848 31bc 00c8 06bd 1253 fb3c
0.046399705 0.04156479 0.04105664 0.0007240089 -0.041257117 -0.00088997785 -0.043112352 0.08833687
0.034678623 0.022819825 -0.02016575 0.06882123 -0.020628449 -0.006503618 0.023608735 -0.0063749277
0.051657975 0.040153157 0.014427441 0.015419499 -0.00055676285 0.0104801925 -0.04164308 0.04610923
0.050008062 -0.03183472 0.00795991 -0.06888948 0.042534433 0.017880976 -0.009200657 -0.013467905
0.03664586 -0.025339862 -0.05673329 0.0056714644 0.009340902 0.025889361 -0.03494876 -0.010490727
0.018141411 -0.0062627466 0.023961805 -0.021029163 -0.034742165 0.00047808784 -0.04412732 0.015816625
0.03332036 -0.0858432 -0.050545175 -0.057340927 -0.039979946 -0.013240458 -0.020865543 0.05195103
0.0006182054 -0.03130254 0.025242113 0.000105385756 0.006432342 0.031756695 0.042692102 -0.045851517
0.01228155 0.0016924682 0.016321886 -0.018442817 -0.01778707 0.031207133 0.012897297 0.009510272
-0.005102739 0.016510183 0.012052213 0.05170696 0.03906865 -0.038746454 -0.056404285 0.018737098
0.051506016 0.0014375836 0.061370045 0.07394963 0.0028228885 0.027270323 -0.019564774 -0.014655437
-0.002340308 -0.01087766 0.040662676 -0.055847134 -0.05693401 -0.008725213 -0.015671453 -0.04222211
0.029288506 0.097544156 0.027039818 -0.024124658 -0.025971802 -0.035019808 -0.009009012 -0.013434394
-0.030451136 0.052501842 0.029611308 -0.0010485104 0.002120468 -0.06828384 -0.015934555 0.004678657
-0.005897335 -0.033608563 -0.013901396 -0.026947416 -0.019396529 -0.009229262 -0.007868938 -0.04691417
-0.008434452 -0.024165714 -0.055554934 -0.005481775 0.030468823 0.030191954 -0.0043466976 -0.042573694
0.014125246 0.034786694 0.032687977 0.013988321 0.028879121 -0.014620121 -0.04427327 0.03558226
0.04724462 0.0008715617 0.013273379 0.025026828 0.0013709978 0.003926434 0.020195011 -0.005869401
0.014237737 0.03841058 -0.011655973 -0.027252866 -0.020758318 -0.034292288 -0.07428738 -0.011230339
0.040780865 -0.038639836 -0.010363503 -0.026136965 -0.019568734 -0.063885055 -0.026400574 0.047794037
0.012360741 0.006944288 0.028890379 0.016394438 -0.02748408 -0.026738517 -0.04493115 -0.00078218436
0.01696725 -0.03975632 0.03277554 -0.0014972218 -0.05284901 -0.009480582 0.061567858 -0.024326334
0.00018231102 0.033393063 0.008322495 -0.010723926 0.014621612 0.035914753 -0.04234277 0.033587776
0.051911224 0.0363993 -0.0094139995 -0.041325673 -0.009241905 0.0339997 0.02308369 0.011331086
0.008419406 0.0018609667 -0.016111381 -0.037631437 -0.033683952 -0.03431698 0.015479399 -0.023794329
-0.0009223809 -0.002306368 -0.019417863 -0.060247906 -0.020955876 -0.017207893 -0.031760134 0.012582917
-0.007653017 0.028053088 0.040403105 0.05034111 0.013015769 -0.025441838 0.032075744 0.03948673
0.025724536 0.06890578 -0.015314559 0.02709487 -0.014871772 -0.040513888 -0.0009629835 0.027409988
-0.0072361375 -0.024375476 0.027488116 0.03654798 -0.07169875 -0.03722641 0.011001942 -0.009042592
-0.03599594 0.0042860885 0.0389421 -0.01852451 -0.059894636 -0.06547228 0.014164483 -0.026565194
0.0026579308 0.037389066 -0.038507678 -0.051438797 -0.05742101 -0.056606498 -0.04203293 -0.05552124
0.0047405288 -0.029436212 0.044475768 -0.017536564 -0.031105619 -0.010820441 -0.03290558 0.03067926

conv.7.bias f4 [8]
00000000: e111 3bbd dff3 233c 763d 30bd 6738 c13c
00000010: 9098 3bbc 958e 03bc 9e15 613c a3ca 843c
-0.045671348 0.010006874 -0.043027364 0.023586465 -0.011449948 -0.0080296 0.013738064 0.016209906

lin.0.weight f4 [128, 72]
00000000: b2ba 45bd 1731 a5bc bb38 42bd bef1 29bd
00000010: 1e8f 83bd 95a0 b73c 1014 d239 70f8 ef3c
00000020: 2bd1 ad3d 93f4 d1bd 9f98 983d 289a 003d
00000030: 7fd6 a73b 90ef 90bc 06e7 b93d 4707 4fbc
00000040: eaa8 69bd 2523 c2bc 591d 133c db16 77bb
00000050: 1dcc 233b 006b 933c a654 153d 9807 9b3c
00000060: 2c36 d9bc 10e4 0d3d 2826 f53b 121b 04be
00000070: 5afa 993d 16d7 a0bd 13cf 96bd 06f1 4bbd
00000080: e152 03bc 6128 30bd b6ef c43d b7dc 673d
00000090: a33c e0bd 7380 22bd f5c8 a9bd 740f 0abb
000000a0: 71f2 7bbd a370 743c e2ec 62bc c72a ab3c
000000b0: bff1 2cbd 7ed9 843d 8433 863d a874 133d
000000c0: 651d f5bd d586 b33b acd6 b9bd 2546 65bd
000000d0: e0a8 c6bb e44a 27bd 528a 85bc 6c7c 833d
000000e0: bbdb 11bd 95b3 1abc 665a 95bd 7679 ac3d
000000f0: 80d9 153b 8a0b 05bc 6e8f 72bd 31a1 d8bc
00000100: 2783 d83c 4641 303c 6d0e 073d af07 523b
00000110: 50c5 e63c c20e 8cbd 7aa5 05bd a1de b73d
00000120: 7078 debc 19b9 213d 7f30 033d 3039 cd3c
00000130: 958d a2bc 985c d93c 72df ea3c a74b 763c
00000140: 3822 ca3b b182 7b3c 035b 17be 0d25 633d
00000150: 71d5 07be c642 ae3d ddb4 a5bd 7372 f1bd
00000160: 876f 233d 2306 32bd 9510 44bd 8872 62bc
00000170: db20 07bc 361b eebb 654b 723c c5c0 c6bb
00000180: d7f5 37bd 1e48 a33c 29bd 063d 7d8f 8f3c
00000190: 6232 0bbe 8008 19be 77de 78bd ac23 98bc
000001a0: 8818 6dbd 3518 683d 333c bb3c c62d 333d
000001b0: 2ce5 ab3d 2b3a a43d c47b af3d 3488 693c
000001c0: 3cfb 123d 13d1 8cbd f78b 1e3d 71d3 1abd
000001d0: 2cac 6b3c a249 dfbd a412 f4bc aca4 293c
000001e0: 8e1a 203d 64ad 73bd 5bff 2d3c 4c63 58bc
000001f0: 1269 db3d c9d6 bb3d 734f 90bb c0ba 8fbb
00000200: 21d0 0bbc caac 603c 3911 863c 5b6d afbb
00000210: 7d03 cb3b 866b a63d 3964 c63d 77fd 843d
00000220: df7b 3d3d 05df e8bc 6988 be3d b4d6 463d
00000230: 491d a43d c211 af3c 2edf 1c3d 2239 8ebd
00000240: 3c54 01bd 8a1e 0f3c 65b8 6a3d 8078 9c3b
00000250: a830 5a3d 0342 bc3c 6415 693d c000 61bb
00000260: 3910 293d 84a3 a2bd c7c5 e7bd bd61 62bc
00000270: b858 c33c dc48 c6bd b112 79bc e1db c4bd
00000280: c65c e1bd 3d56 753d bfe9 23bd 9fe8 d93c
00000290: 2f61 793b 7853 c53b 5cae 59bb 5bc3 2ebd
000002a0: 34a9 7bbc 9404 bfbc 622e 9bba ad62 4abd
000002b0: c794 34bd 9085 fbbc 557d ed3c 3acb 2c3d
000002c0: 3562 233d 7614 9b3d 850e 063d 2a76 84bc
000002d0: e157 653d 1f0d 703d af72 5a3d a178 08bd
000002e0: cc28 e33c 5304 083d a548 923c 3ec4 7a3c
000002f0: 0db1 1c3d 6a36 353c d051 acbb 777c 8dbd
00000300: 0794 5a3c 9e29 373d 40de 2a3d b26f a53d
00000310: 6f45 c2bd 4d94 b8bd b9ac eb3d b167 353c
00000320: 6f15 c5bb bb19 4d3d feec a23c 5b47 febb
00000330: c448 df3c dbe9 f13d 1da4 9a3d 00d7 cebc
00000340: bbf5 a93b 9f0c 33bd cdd6 8fbd c501 cf3b
00000350: 0bd0 65bd b237 d5bc 86b4 72bd 7db4 57be
00000360: c3b9 35bc bda5 84bc ce91 203c ceca b7bb
00000370: 1f4d 6c3d ee02 163d 7fdb 283c 7117 773d
00000380: 1fbc 123d 2c05 1b3d df6e cc3d 6232 083d
00000390: 98f8 d73c bbfb d6bd f8c2 513d a46f 913d
000003a0: 3844 fd3c 355a a4bc 9ed7 ba3d 5c43 8e3b
000003b0: f83b 6abd dab5 27ba 43aa 4abc fc07 61bd
000003c0: 752b 1d3d bd69 46bd 397d c1bc e39e a3bd
000003d0: 41a6 2abd 4c47 fabc da9d 70bc df1f 483d
000003e0: 4ee6 ab3d 85ca 623c d225 94bc c2c6 aabc
000003f0: 5f01 debd c606 1dbd b2d0 ee3c b973 97bd
-0.04827375 -0.02016501 -0.047417384 -0.04149031 -0.06423782 0.022415439 0.0004006927 0.029293269
0.08487161 -0.10251727 0.07450985 0.031397015 0.0051220055 -0.017692357 0.09077267 -0.012636012
-0.057045855 -0.023698399 0.008979165 -0.0037702832 0.0024993487 0.017995358 0.03645768 0.01892452
-0.026515089 0.034641325 0.007481355 -0.12900952 0.07518454 -0.078535244 -0.07363715 -0.049790405
-0.008015365 -0.04300726 0.09616034 0.056606974 -0.109490655 -0.03967328 -0.08290283 -0.002106634
-0.061510507 0.014919433 -0.013850423 0.020894421 -0.042222735 0.06486796 0.065527946 0.035999924
-0.11968497 0.0054787197 -0.090741485 -0.0559751 -0.006062612 -0.040842906 -0.016301308 0.06420216
-0.035609942 -0.00944223 -0.07292633 0.08421604 0.0022865236 -0.008120427 -0.059218816 -0.02644405
0.026429726 0.01075775 0.032972742 0.0032048037 0.028170258 -0.06838752 -0.032628514 0.0897801
-0.027157038 0.039483164 0.03202867 0.025051683 -0.019842902 0.02653341 0.028671 0.015032685
0.00616863 0.0153509835 -0.14780812 0.055455256 -0.13265015 0.0850883 -0.080911376 -0.117894076
0.039901283 -0.043462884 -0.047867376 -0.013821252 -0.008247579 -0.0072664274 0.014788483 -0.0060654604
-0.044912186 0.01993185 0.03289524 0.017524475 -0.13593438 -0.14944649 -0.060759034 -0.018571697
-0.057884723 0.05666371 0.022855854 0.043744825 0.083933204 0.08018907 0.08568528 0.014253665
0.035884127 -0.06875815 0.0387077 -0.037799302 0.014384311 -0.10902716 -0.029794045 0.010354202
0.039087825 -0.05949153 0.0106199635 -0.013207268 0.107134 0.091718264 -0.0044040023 -0.004386276
-0.0085335085 0.013713071 0.016365634 -0.0053536124 0.006195484 0.08125977 0.09687085 0.06493657
0.04626071 -0.028426656 0.09303362 0.0485446 0.08013398 0.021370772 0.03829878 -0.06944491
-0.031574473 0.008735308 0.05730476 0.004775107 0.05326906 0.022980696 0.056905165 -0.0034332722
0.041275237 -0.079413444 -0.1131702 -0.013817248 0.023846015 -0.096818656 -0.01520221 -0.09612251
-0.11004023 0.059896696 -0.04001784 0.02660018 0.003805231 0.006021913 -0.0033215499 -0.042666774
-0.015360165 -0.023317613 -0.0011839385 -0.04941051 -0.044087198 -0.030703336 0.028990427 0.042186
0.03988858 0.07572262 0.03272869 -0.016169626 0.05599201 0.058606263 0.053332027 -0.033318166
0.027729414 0.03320725 0.017856905 0.015305577 0.038254786 0.011060337 -0.0052587762 -0.069085054
0.0133409565 0.044717424 0.04171586 0.08077945 -0.094859 -0.09012661 0.115075536 0.011072085
-0.006014518 0.050073367 0.019888397 -0.007759971 0.027256377 0.118121825 0.075508334 -0.025249004
0.005186764 -0.04371321 -0.07023392 0.0063173496 -0.05610661 -0.026027534 -0.05925419 -0.21064945
-0.011091652 -0.016192311 0.009800388 -0.005608893 0.057690736 0.036623888 0.010306238 0.06032509
0.035823938 0.03784673 0.099820845 0.033251174 0.026363656 -0.104972325 0.051211327 0.07101372
0.030916318 -0.020062545 0.09123157 0.004341526 -0.057186097 -0.00063976424 -0.012369695 -0.054939255
0.038371522 -0.048440684 -0.023619281 -0.079892896 -0.04166246 -0.030551575 -0.014686072 0.04885852
0.083935365 0.01384223 -0.01808444 -0.020846728 -0.10840105 -0.038336538 0.029152248 -0.07395119

lin.0.bias f4 [128]
00000000: df2b e63d 5722 2a3d b732 e2bd 75b5 023d
00000010: c99d 6dbd 72eb a83d 5d59 c03d 7b53 a03d
00000020: 9cb2 fc3c 6c70 f43b 25bb 46bd 7445 58bd
00000030: 827a fa3c c71c 2abd 9d64 b3bd 8ff2 aebd
00000040: 6133 c2bc 1509 b03d 004a 223d 3b65 12bd
00000050: 0ecf 93bd cca5 39bd 478a aabd 1552 d2bc
00000060: 651c 67bd c9c4 ba3d bef6 dcbd f7cf abbb
00000070: bdef 4b3c bd7b 4abd 1d21 f43d 7152 cb3d
00000080: 1eda 233d 0e0b e43d 17b4 933d fac1 aa3d
00000090: d344 c6bd de0f 3f3d 0c36 54bd 7dca 20bd
000000a0: 1202 76bc 1cc8 cebd d4c5 773b 7e24 993d
000000b0: 7ad8 70bd ed3f 4ebb 1e8b 35bd e871 153d
000000c0: a3f7 30bd 2451 e8bc 1e91 63bb 4c56 943c
000000d0: 81c9 c93d cbb1 70bd 955a 223c 7aec 8e3d
000000e0: 4a00 203c fa2b d73c cd3e fa3c 1571 e03c
000000f0: a6b7 6fbd 7523 adbb 46dd 40bc 7fa9 ab3c
00000100: ef3b c6bc a727 87bc b49c 9e3d 7e45 d13d
00000110: 5508 ac3d fbbb c8bd 4c46 ae3d 2edd 943c
00000120: 0ba2 a5bd 4a26 463d 0df1 1d3c 886e a6bc
00000130: 5183 48bd ed81 8d3b 0b96 23bd c072 333d
00000140: 52b0 19bd f43f dcbd bad3 703c f82d 123d
00000150: 83a7 a2bc 1400 453d bfa9 273d b05e fd3c
00000160: 9c28 323d d17a b7bd dd29 a83d fc8a 3e3d
00000170: 032c d3bd 757b cfbd 77ae 84bd 6c04 643d
00000180: 8267 91bd 4c78 cdbd 28a0 563d d8ea 023d
00000190: 4f1d 64bd 6bfa 4e3c e413 b13d ff6d c8bd
000001a0: 124e fc3c 1a1c c23d 7132 8ebd 908b bfbc
000001b0: 5c95 7abc cafe c0bc 7eda 713d 2387 30bd
000001c0: d2d2 58bd 5455 02be c5f9 85bd e243 be3c
000001d0: c658 75bd f25e e3bb fb83 62bd 8605 ad3d
000001e0: 3f45 10bd a642 d03d c8f8 71bd 669c 333d
000001f0: a940 4fbd 16cb 043d a3f8 85bc bb23 053c
0.112388365 0.041536655 -0.11044829 0.031911332 -0.058011804 0.08248033 0.09392045 0.07828423
0.030846886 0.007459691 -0.04851832 -0.05280061 0.030575994 -0.04153135 -0.08759425 -0.08542358
-0.02370614 0.08595482 0.039621353 -0.035741072 -0.07217227 -0.04532413 -0.083271556 -0.025673905
-0.056423564 0.09119565 -0.1078925 -0.005243297 0.012447295 -0.049434412 0.11920378 0.09927834
0.040002935 0.11134921 0.07212084 0.08337779 -0.09681096 0.04664599 -0.051809356 -0.039255608
-0.015015142 -0.100967616 0.0037807124 0.074776635 -0.0588002 -0.0031471208 -0.044322126 0.036485583
-0.043204915 -0.028359003 -0.0034723948 0.018107556 0.09852887 -0.058763307 0.009909292 0.06978698
0.009765694 0.026266087 0.030547524 0.027397672 -0.05852475 -0.005283768 -0.011771506 0.020954845
-0.0241985 -0.0164984 0.077447325 0.10218333 0.08400027 -0.098014794 0.08509502 0.018171873
-0.08087548 0.04837636 0.0096399905 -0.020316377 -0.048953358 0.004318467 -0.039938014 0.043810606
-0.037521668 -0.107543856 0.014698917 0.03568837 -0.019855266 0.048095778 0.040933367 0.03092894
0.04349576 -0.08958972 0.0821111 0.046519265 -0.10311129 -0.101309694 -0.06478589 0.05566828
-0.07099821 -0.100327104 0.05239883 0.031962246 -0.055692013 0.0126329465 0.08646372 -0.09786605
0.030798946 0.09478016 -0.06943215 -0.023381978 -0.015294399 -0.023558993 0.05904626 -0.043097626
-0.05293543 -0.12727863 -0.065417804 0.023225728 -0.059899114 -0.0069388086 -0.055301648 0.08448319
-0.03522229 0.10168962 -0.059075147 0.043850325 -0.050598774 0.03242024 -0.01635391 0.008126195

lin.2.weight f4 [64, 128]
00000000: b43e 27bd bcf6 993d 0a4a 33bb d1b2 58bd
00000010: 5fa2 23bc 9cc9 92bd 5bcc 0a3e 5309 063d
00000020: 1aed b53d 68cb d13d 328e dabc 6a2c 803d
00000030: 4d56 843d aefc aebd df88 3d3d 127b 12bd
00000040: 9842 e43d 4a13 863d 4c8f aabc 9068 a23d
00000050: 1c00 9c3c 5959 9d3c 697f 87bd b16d 823d
00000060: d5b1 d5ba 2364 973d 0b57 3b3b 87dc b83c
00000070: 1a04 3dbd cb7e d9bb ecd2 a6bb 0e29 83bd
00000080: 1fa2 4fbb 6042 603d 285c 48bd 65d5 bf3d
00000090: c88c 74bd 7fe5 1b3d ab2b a3bd 54bf d0bd
000000a0: 9c62 293d 3e88 3f3d 223c 903b 3cc7 6a3c
000000b0: e325 943d 44ee 0dbd 51bd 4a3d 43a8 06bd
000000c0: f2f2 593b ebc6 a63d fb16 8f3d aa76 80bc
000000d0: 307d 05bd fdbc 333c fe11 aaba 9d2c 183d
000000e0: 204b 9f3c 4734 cabd 23d9 70bd 842a 25bc
000000f0: 5ddf 393d 7261 5cbc aab9 583d be21 aa3d
00000100: 93eb 5ebc 5292 d73d a3fd 853a 9c93 cdbd
00000110: ddca 8fbd 457c dc3c 9b25 65bd 3d10 5b3b
00000120: ea9e 62bd b433 ca3d 8a9a c63c 5038 473d
00000130: 7ac8 a3bc edda b3bd 917f bcbd 3a21 95bd
00000140: 395a da3c c6c8 a93d ef1d cd3d 1afd 3e3d
00000150: 2832 6bbd ccf0 813d 3f3a d63d a3fa d2bd
00000160: 7f27 1ebd 26db 0e3d f4e0 f13d 25a5 cdbd
00000170: 50bc 6e3d 25be 343d c623 14bc 34dd 14be
00000180: 8d89 c4bd 0fad a9bc 3da1 a9bd b8c0 b6bc
00000190: eccc c23c b90b cf3d 8888 bd3d 5133 403d
000001a0: 7930 62bc 9d12 24bc dcd8 933d 13f4 dd3c
000001b0: f41f fd3c fdf1 313d 569c bbbb c7b9 79bd
000001c0: 0197 95bd 53c1 46bb 54a6 463d c2b5 ab3d
000001d0: 6a04 8dbd 9a0b 2fbd ba9a 9c3d 68c9 d53d
000001e0: d52e 973d 28b1 253d 7d75 e1bd dd91 b3bc
000001f0: 507d 0a3d be3b 5e3d 01c1 6bbd 66b5 a93d
00000200: cb71 31bd 4c99 02bd 7ade 8b3c 145f 2fbd
00000210: 4db3 61bd 9009 323d e14f b1bd 50f2 69bc
00000220: 5b28 a0bd a166 64bd dde8 db3b fde2 9dbd
00000230: 7080 6b3a a1f4 a8bc e178 9ebd 5343 993d
00000240: b2c1 e6bc 4b37 9539 3194 53bd 192a 44bd
00000250: 886e d43b ba32 4e3d 56ef b93b 8b46 39bd
00000260: cb07 213d 5ca9 6cbd 88de 523d d83f 71bd
00000270: 76ac 1f3d 95c4 093d 7fa8 703d 3c6f 16bd
00000280: 0b63 7f3d fab3 2abd fc49 d0bb 82f4 933d
00000290: ac07 6a3c 61d9 da3b 8859 8d3c 4614 8e3d
000002a0: 0dc9 4dbd 1c69 c8bc 317a 373d efb4 883d
000002b0: 7126 b5bb f87b 983c b1d7 d83c 9151 173c
000002c0: d977 4cbd 8d1e 863d 80c3 86bc 3cd9 e8ba
000002d0: b8af 9fbd b43d 24bd e250 30bd cd7d 3c3d
000002e0: f735 0b3b 41f1 dfbb b438 75bd e9cb 273d
000002f0: 2296 9a3d 3401 3d3b 6db1 f33c 28e0 52bd
00000300: d65b 3f3d d102 c6ba 41bf aeba cb1a 6dbd
00000310: 1a04 c73c c3bf 51bb 2464 32bc 2872 a2bc
00000320: ac7d 0fbd ee5f d8bd 7fea ce3b fc6e 043d
00000330: b793 6c3d f8e3 6c3d 4b98 503d d0a3 6b3d
00000340: 28b9 27bc 2401 0fbd 5461 37bd c21f 433d
00000350: 2d62 8bbc 8b59 abbd ac09 463d ae38 1dbd
00000360: cd8d 393d 7265 ac3d b04b 423d 5a6c d0bc
00000370: 3c2b 03bc 29b4 58ba 0fc5 833d a43c c23d
00000380: 92e0 0bbc 4a8a c33c 8340 ba3d 6feb 6b3d
00000390: bd78 9ebd 36d5 2e3b 2bd3 62bd 9da9 18bd
000003a0: e27c 4bbd d98a 28bc e8db 36bc 4a08 bfbc
000003b0: 5b16 303d 0049 a33d 9e55 283d 0997 223c
000003c0: 4eb5 61bc eb42 00bd b437 29bd fe7c 46bd
000003d0: 4bde 373c 81e7 4f3d bf33 d53b 1268 72bd
000003e0: a5b7 6a3c b58a 80bd 501b b7bc 9471 73bd
000003f0: bed8 6bbd f5ba 37bd bcef 153d 26bb 7dbb
-0.040831283 0.07517764 -0.0027357363 -0.052904908 -0.009987443 -0.0716736 0.13554518 0.032723736
0.08883114 0.10243875 -0.026679132 0.06258471 0.06461773 -0.085442886 0.04627311 -0.0357619
0.11145514 0.06546648 -0.020820282 0.079301 0.01904302 0.019207643 -0.066160984 0.06368578
-0.0016303608 0.073921464 0.0028585817 0.022566093 -0.04614649 -0.0066374294 -0.005091062 -0.06404315
-0.0031682325 0.0547508 -0.048916012 0.09366874 -0.059704572 0.03806066 -0.079673134 -0.10192743
0.041353807 0.04676079 0.0044016996 0.014329728 0.07233789 -0.034651056 0.049496952 -0.03287531
0.003325638 0.08143409 0.06986805 -0.015681583 -0.03259009 0.010970351 -0.0012975333 0.03715192
0.019445002 -0.09873252 -0.058800828 -0.010080937 0.04537903 -0.013450967 0.052911438 0.08307217
-0.01360597 0.10525955 0.0010222684 -0.1003792 -0.07021115 0.026914725 -0.055944066 0.0033426427
-0.055327334 0.09873143 0.024243612 0.04863769 -0.019993056 -0.08781991 -0.09204019 -0.07281728
0.02665435 0.082902476 0.10015475 0.046628095 -0.05742088 0.063447565 0.10460328 -0.103017114
-0.038611885 0.034876965 0.118104845 -0.100412644 0.058285058 0.04412665 -0.009041732 -0.14537507
-0.09596548 -0.020712404 -0.08282707 -0.022308692 0.023779355 0.10109658 0.09254557 0.04692394
-0.013805502 -0.010014203 0.07219097 0.027093923 0.030899025 0.04344367 -0.005725424 -0.060968187
-0.07304192 -0.0030327633 0.048498467 0.08384277 -0.068856075 -0.042735673 0.07646699 0.10438806
0.073819794 0.040452152 -0.11008737 -0.021920139 0.033810914 0.054256193 -0.05755711 0.08286552
-0.043321412 -0.031884477 0.017073859 -0.042815283 -0.055102635 0.04346615 -0.08657814 -0.014278963
-0.07820197 -0.055761937 0.006711109 -0.0770931 0.0008983677 -0.02062446 -0.077378996 0.07483544
-0.028168533 0.0002846069 -0.051655 -0.04789171 0.006482903 0.050341345 0.005674283 -0.04523329
0.039314073 -0.0577787 0.051481754 -0.058898777 0.03898283 0.03363474 0.05875444 -0.036727175
0.062350314 -0.041675545 -0.006356476 0.072243705 0.014284056 0.0066787456 0.017254606 0.069374606
-0.050240565 -0.024464183 0.044794265 0.06675135 -0.005528264 0.0186138 0.026470037 0.009235756
-0.049918983 0.06548796 -0.016450644 -0.0017764936 -0.077971876 -0.040097907 -0.043045886 0.04601841
0.0021241882 -0.0068341796 -0.05986853 0.04096595 0.07548167 0.0028839828 0.02974769 -0.051483303
0.04671844 -0.001510704 -0.0013332145 -0.05788688 0.024293948 -0.0032005168 -0.010888133 -0.019829825
-0.03503196 -0.10565172 0.006314575 0.032332405 0.05775806 0.057834595 0.050926488 0.05752927
-0.010237016 -0.034913197 -0.044770554 0.04763771 -0.017014587 -0.08366688 0.048349068 -0.038384132
0.045301247 0.08417787 0.047435462 -0.025442291 -0.008005913 -0.0008266592 0.0643407 0.094842225
-0.008537428 0.023869652 0.09094336 0.057597574 -0.07737873 0.0026677377 -0.055377167 -0.03727113
-0.049679644 -0.01028701 -0.011160828 -0.023319382 0.04299007 0.07972908 0.041097276 0.009923705
-0.013776137 -0.031313818 -0.04131289 -0.048459046 0.011222432 0.05075789 0.0065064128 -0.05918128
0.014326011 -0.06276456 -0.02235189 -0.05943449 -0.05757975 -0.04485603 0.03660558 -0.0038716285

lin.2.bias f4 [64]
00000000: fbc2 2e3d d0f2 513d 183c d43c deb2 a4bc
00000010: 358b a83d 1dd3 823d 7400 45bd 68ff 453d
00000020: 6f1b 33bd aa8d 8a3d bb23 923d 24b2 68bb
00000030: d67a 8abd 4206 66bd fa7d af3d ca45 98bd
00000040: b75a 6fbd 6b78 9abd bd44 85bd 33bd ec3c
00000050: f611 8f3c 2dd0 f13b d435 fa3c fd7e bb3d
00000060: a5d5 ffbc c36e d1bc 20d1 0bbd 4996 0dbb
00000070: ad59 35bd 0cb2 943c 71be 573d 1722 5dbd
00000080: 1e5b 44bd 2cd2 783c a2ca 42bd 1092 483d
00000090: aed6 75bc 362b 6f3d b5ee 453d 7b4f abbd
000000a0: 1bcc 2ebc 9a33 c8bc e7a4 30bd c425 a5bc
000000b0: 2023 61bd fa61 5ebd 00ab 8cbd 3a25 e6bc
000000c0: c5df 343b c558 37bd 8b25 353d b4de d6bc
000000d0: 422e f33c ca4c 563a 7397 59bd e255 843d
000000e0: fb44 923c 3f10 40bc 8d5a 173d 29f9 513c
000000f0: 9c80 8cbd 5927 8fbd 9ec2 723d b8ca 733d
0.042666417 0.051256955 0.025907561 -0.020104822 0.08229677 0.06387923 -0.048096135 0.048339278
-0.043727335 0.067653015 0.07135721 -0.003550657 -0.0676171 -0.05615831 0.0856895 -0.07435186
-0.05843612 -0.07542499 -0.065072514 0.028898811 0.01746462 0.007379553 0.030543245 0.091550805
-0.031229803 -0.02556551 -0.034134984 -0.002160447 -0.044274975 0.018151306 0.052671853 -0.05398759
-0.04793846 0.015186828 -0.047556527 0.04896742 -0.015004797 0.05839082 0.048323352 -0.08364769
-0.01066878 -0.024438668 -0.043126013 -0.02015961 -0.05496514 -0.054292656 -0.06868553 -0.028093923
0.0027599197 -0.04476239 0.044225257 -0.02622924 0.029685143 0.00081748946 -0.05312295 0.06461693
0.017855158 -0.011722623 0.03695159 0.012815752 -0.06860468 -0.06989927 0.059267633 0.0595195

lin.4.weight f4 [5, 64]
00000000: 9c9f 8c3d cd15 babd b86b 25bc 5e7f bd3d
00000010: c5b7 493d 7eb0 543d 0015 6bbc 763b 443d
00000020: 2521 b03d 898a 33bc fed1 b93d c9e9 5dbc
00000030: 4fb0 593d d012 d8bd ae57 e9bd f7ee 8c3d
00000040: 5835 13bd 8fcb 96bd f1a4 013e 4fb6 683c
00000050: 4703 debd b9bc afbd f13b 72bc a921 44bc
00000060: 95f3 cb3d b784 c23d ec19 01be 5de0 09be
00000070: 9d98 dc3d 6128 14bd fdf4 91bd 67b5 983d
00000080: 835e 9b3d 6593 0bbd f3b6 c9bd 8dec c0bd
00000090: e3d2 bbbd 1707 aebd efab 00be 92a2 823d
000000a0: 0c48 053d 2e7e ebbb 7853 d13d 251b f83b
000000b0: bc47 bf3d 5264 ebbc 897c c83d d89c 303d
000000c0: 7d42 1f3c dca6 143d 84c9 11bd 2dbd 2cbd
000000d0: 72a8 b13c 8e33 13bb b13c e4bc fea2 e7bd
000000e0: d9ac ebbd d026 ca3d d290 d8bd e682 b23c
000000f0: dc7e b03d 5e99 f03d d214 5b3b e941 a9bd
00000100: e2d2 233d 415a f03c 872c cf3d cffe a6bd
00000110: c1be bb3d 036e 3d3d b17f 11bd 0cda 88bb
00000120: c021 0cbe 8c16 dd3d 8acb 0b3e fd36 56bc
00000130: 07da 763d 202b 65bc 7dac 743c 5cb5 6dbd
00000140: 06a4 d4bd 06c2 0abe 02b5 0d3d 4044 6e3c
00000150: 5fc0 3c3d d194 d3bd a2ba 6cbd f727 b93d
00000160: cf68 30bd b6a4 1f3e 5a81 f7bc 0840 e8bd
00000170: 76f1 3b3c 7621 9c3d 98f4 893d 3941 c53d
00000180: 7e53 293d a055 a6bd 42d2 bebd 0262 1b3d
00000190: cf0b 8abc e6b7 b6bd cc14 5a3d e4d4 c0bc
000001a0: 7c8d 6e3d c4f6 d83d a28a 57bc 63b7 903c
000001b0: a717 c6bd 0989 b63d 50b1 cdbc 9fe8 063d
000001c0: 23cc f1bd 429c bebd 7fa8 cb3d 30a0 88bd
000001d0: c499 a2bc 6e58 55bd 3e0e adbd 4a3c fbbd
000001e0: 537d 84bd c8d5 e33d 3610 39bd 3e67 d33b
000001f0: 3a54 a73d cc87 633d aa9f c13d b6c5 213d
00000200: b23f a7bd d75c ac3b 0de7 ddbd 9eec e1bc
00000210: 5ced 8abd 0ab7 25bd dc10 ff3d e7ef 0abe
00000220: 0202 05be 4974 5f3c e23c 063e 9fd6 40bc
00000230: 1748 a43d 9d87 41bb c721 d1bd b183 b43d
00000240: 322c 30bd 2253 c9bd f787 303b 32d0 06be
00000250: acd7 fbbc 1d51 57bd b349 86bd 60b6 bbbd
00000260: a242 5fbc 3cf7 113e 7713 f1bd a994 0bbe
00000270: 56b9 0c3d cf54 86bc 0f2a c4bd 0966 0bbd
00000280: dd08 41bd 339e 9a3d 532d c7bd eaa1 013e
00000290: 12c1 04b9 bd6f 183d 6a6c c6bc 164f 82bc
000002a0: 4835 a6bd 58df cb3d ed0d 7d3b adf5 c53d
000002b0: c771 17ba 1b84 84bc 22ba 4d3b 89d7 673c
000002c0: 36df 6dbd e84a 433c c287 50bd 4af7 c8bd
000002d0: 00dd 373c 37f0 64bd fdd2 abbc 6563 a2bc
000002e0: a152 ebbd a04e 633d d430 ca3d 37f5 663d
000002f0: a5bc 45bc 2d54 fc3c df29 52bc 43c6 853d
00000300: be46 c83d 803e 303c b75b 1abb 0e0a a43d
00000310: fa37 d23c a05e eb3d 1d5e 083d 338b 7ebd
00000320: 96b7 10bd 1d64 d5bd 267c ec3c 1067 09bd
00000330: b836 a9bd e1e9 703d 04c6 9c3d 8d6e 6dbd
00000340: 6645 1a3d 6218 58bd 87e2 b33c ba43 e6bd
00000350: 5580 dd3d 8d84 9e3d b301 913d bef0 16be
00000360: feca d63d 7b02 243e 712f 623b 1060 173d
00000370: aa16 bbbb 0f74 f33d 7fd6 893c fd3e 883b
00000380: 7871 18be e14b f6bc 142b 583d 2af1 8d3c
00000390: 44ca c43d 1336 c43c 9f54 d33c 2875 e03b
000003a0: 92ba 023e 5243 af3d 1b46 443d b983 313e
000003b0: 0a22 f83c 1569 a73d 06b5 c4bd 7411 3ebd
000003c0: 2a4f 223c f923 a33b 3fb1 3abd a72a 0bbe
000003d0: a91f 56bd c1aa c63d eb13 1f3d 5952 8bbc
000003e0: 6ea5 8cbd fe8c d53c d7ee d33d f129 063c
000003f0: 0caf df3d a577 483d a1b2 2ebd a991 d0bd
0.068663806 -0.090861894 -0.010096483 0.09252809 0.049247522 0.05192613 -0.0143482685 0.04790827
0.08600072 -0.010958322 0.09073256 -0.013544508 0.053146657 -0.10550463 -0.11393677 0.068815164
-0.035939544 -0.073630445 0.12660576 0.014203622 -0.10840469 -0.08580918 -0.014784799 -0.011970916
0.09958569 0.094979696 -0.12607545 -0.13464494 0.10771296 -0.03617132 -0.07126806 0.07456475
0.07586386 -0.034076113 -0.09849348 -0.094201185 -0.09171083 -0.08497446 -0.12565587 0.06378664
0.032539412 -0.0071866727 0.102209985 0.0075715953 0.09339854 -0.02873436 0.09789378 0.043118328
0.009720442 0.036291942 -0.03559257 -0.0421726 0.021686766 -0.002246115 -0.027860971 -0.11310385
-0.115075774 0.09870684 -0.10574497 0.021790933 0.086179465 0.117480025 0.0033429158 -0.082645245
0.039996035 0.029339911 0.10115915 -0.0815407 0.09167243 0.046247493 -0.035522167 -0.004176384
-0.1368475 0.10795316 0.13651863 -0.013074634 0.06026652 -0.013987333 0.014933703 -0.058034286
-0.103828475 -0.13550577 0.03459645 0.014542639 0.046081897 -0.10331119 -0.057795174 0.09040826
-0.043068703 0.15590176 -0.030213047 -0.11340338 0.011471143 0.0762357 0.06736106 0.09631581
0.04133939 -0.081218004 -0.09317447 0.037935264 -0.016851334 -0.089217946 0.05324249 -0.023539014
0.0582404 0.10593942 -0.013155611 0.01766557 -0.0967248 0.08912856 -0.025108963 0.03293669
-0.11806514 -0.093071476 0.099442475 -0.06671178 -0.019848712 -0.052086286 -0.08449982 -0.122673586
-0.06469216 0.1112476 -0.045181476 0.0064515164 0.08170362 0.055549428 0.09454282 0.039495192
-0.08166446 0.005260091 -0.10835085 -0.027578648 -0.06783554 -0.040457763 0.124543875 -0.13568078
-0.12989047 0.013638564 0.13109162 -0.01176992 0.080215625 -0.0029530295 -0.10211521 0.08814181
-0.043010898 -0.098303095 0.002693651 -0.13165358 -0.030742489 -0.05256759 -0.06557026 -0.09165645
-0.013626726 0.14254469 -0.11771291 -0.13630928 0.034356438 -0.016397862 -0.095783345 -0.034032855
-0.047127593 0.07549705 -0.09725442 0.12659422 -0.00012660425 0.037215937 -0.024221618 -0.015906852
-0.08115631 0.09954709 0.0038613037 0.096659996 -0.0005777147 -0.016176274 0.0031391461 0.014150509
-0.0580742 0.0119197145 -0.05091072 -0.09812792 0.011222124 -0.05589315 -0.02097463 -0.019822786
-0.114903696 0.055494905 0.098725945 0.0563862 -0.012068902 0.030801857 -0.012827366 0.06531956
0.09779118 0.010757089 -0.0023553201 0.0800973 0.025661457 0.11492658 0.03329288 -0.06214447
-0.03533133 -0.10419486 0.028867792 -0.033545554 -0.0826239 0.058816794 0.07654956 -0.057966758
0.03766384 -0.05275763 0.021958603 -0.112433866 0.10815493 0.07740126 0.07080402 -0.14740273
0.104879364 0.16016571 0.003451314 0.036956847 -0.005709489 0.11887371 0.016825913 0.0041578994
-0.14887035 -0.030065479 0.052775458 0.01732691 0.096088916 0.023951566 0.025797186 0.0068499036
0.12766483 0.08557762 0.04791842 0.17335404 0.030289669 0.0817434 -0.0960484 -0.046403363
0.0099065695 0.0049786535 -0.04557919 -0.1359049 -0.052276287 0.097005375 0.038837355 -0.01700704
-0.06867491 0.026068207 0.103482895 0.008188711 0.109220594 0.048942227 -0.042650823 -0.101840325

lin.4.bias f4 [5]
00000000: 2858 e13d 1703 dcbd af1c 883d b903 c83d
00000010: e4d1 7b3d
0.110031426 -0.10742777 0.06646096 0.09766335 0.061479464
