dei_ws/src/tests/lane_keeping_6_cv_camera/models/pedestrian_classifier_small.onnx (onnx, 677149 bytes, 16 tensors)

conv.0.weight f4 [32, 1, 5, 5]
00000000: 70ca c23d 01b5 1cbe 9fb1 c4bd 0da2 8c3d
00000010: 96e4 b8bd 2132 1c3e 671b 50bd 5dd8 a13d
00000020: 83db c8bd e163 093d 935e 53bd f2c3 bb3d
00000030: 53fd 4c3d 834f 883b e7b3 393d 45d1 0fbe
00000040: ca9a 9c3d bc32 15be 683f 383e c665 c03c
00000050: 185d a9bd dea8 11be 9e7f 263e 7dec 153d
00000060: 18e4 22be a2c6 c9bd 5cc8 1dbe e8d6 8abd
00000070: 5ac0 363e 5ffd 04be 5201 763c 274c 4b3e
00000080: 96e3 243e 5b22 e8bd 4a83 903d 3996 61bc
00000090: d6cc 403e feea 373e 0495 fabd 497b b5bd
000000a0: 2c57 15be a0c2 4a3e 7fb0 bd3b 3708 41be
000000b0: e8f3 ce3b b422 3ebe 2825 23be 84aa d53d
000000c0: d82f 28bd 4256 27bd 86ec b53d 3f01 023e
000000d0: e35b 023e f878 633d bbbb 4cbd 591f 9cbd
000000e0: bf50 3f3e 1ebe cb3d 5623 d9bc 222d fbbd
000000f0: 250d c13d d1fb 8d3c b447 86bd 504c 1c3c
00000100: b3ee 84bd 0cb7 07be 4ac0 4e3d 6633 503d
00000110: 329b 043e e210 1cbe 7bbd e2bd 007c a9bd
00000120: 1bf4 213e 56f9 1f3e 79a7 b0bd 295d 39bd
00000130: 7300 043e dafe 883b 7a42 123e 53ad 86bd
00000140: d339 b53d 11cb a53d 5f33 57bd b184 86bd
00000150: 3a73 35bd 4aca d7bd 7d7b 253e 1763 08be
00000160: e7f2 3abe f89e eebd 40b6 93bd caf0 333e
00000170: 15b9 cf3d 9fd5 d43b 31dc 35bc bb5d 1e3e
00000180: d798 67bd ea96 14be ee18 9b3b e0d4 ed3d
00000190: 2110 ef3d fa92 2cbe af36 e8bd 5d64 11be
000001a0: e175 b4bd aef1 163e 5615 8dbd c89f 2e3e
000001b0: f53f ca3d 2d54 48bd 7b40 39be 9f11 3c3e
000001c0: 3e48 dfbd a390 8bbd 3dd6 d0bd 35cb 39be
000001d0: 5801 183d 7e90 cfbd dd12 143c ebf9 463e
000001e0: 9f45 b63d d817 57bd ee05 ffbd 9ac0 28be
000001f0: 0cf6 84bd acd9 de3d 0e96 25be 1447 03be
00000200: e80c 5c3e dcec 2b3e ec4e 5dba 87de d23d
00000210: 5ba6 0ebe ecb3 28be a7c6 f53d 2a3d 283e
00000220: 6d91 18be 65d4 27be 6fcb fabd fcd7 1dbd
00000230: 96fd 2fbe 736b 1c3d fb4b b6bd 6ba1 b8bd
00000240: c0b4 4cbc b10d ad3a b2fc e93d a3a9 4abd
00000250: 45c2 203c fea1 fe3d 2dfc 52be 1aa2 45bd
00000260: 1169 23bd ce1f 583d 3c58 e1bd 5374 0c3e
00000270: afd3 f8bb 4ca3 92bd 6cb4 10be a5fa 863d
00000280: 3f4d fdbd d016 bbbd e5c4 c7bd ef32 0d3e
00000290: 385c 563e 9962 3cbe b1bc 703d a483 113e
000002a0: 757d 01bd 9d9d 123e c2d0 01be 040d e1bd
000002b0: fde2 433e 9093 f93c 9683 493e 3f02 22bd
000002c0: 1e87 243d 5312 903d 07fe f13d 77fb 973d
000002d0: 7c49 ecbd 6510 68bc 49db d93d b24e ad3d
000002e0: 299a f93c 2472 aabd d575 32be fc1d 3d3e
000002f0: 1e49 f33c 7908 35be 73ce 383e 1f87 0ebe
00000300: 52ec c43d a22c c2bc 67d5 a73c 09a6 f03d
00000310: 9a2d f6bd 125f 42be 8ec3 3dbe f7d0 5f3d
00000320: 7458 7439 6cc9 bcbd 1dda 2cbe d7b6 183e
00000330: cce9 e2bd 92b8 a6bc a4c7 c1bc 03d0 cabc
00000340: 850e 08be 336e 163e 1a23 193d c64d 543d
00000350: 017f 31bd 872a a63d 7bd6 09be c7e5 d9bd
00000360: 9423 a23d 7433 e03d 5f29 3ebe c29e c9bd
00000370: 5198 aebd 2858 0b3e 3dad 49be 0264 10be
00000380: 0bc0 4ebc 3d9c 23bc c19c 0f3e 48fd 0abe
00000390: ca73 42bd b02f cc3b dad3 30bd 04c0 7d3c
000003a0: bee5 adbd 4c87 1f3e 7bdc 33bd 7e70 113e
000003b0: 7565 0dbe f7ac 4bbd 6acd a0bd e0d6 2f3d
000003c0: 5080 223e 4005 98bb d677 76bc 5b25 a4bb
000003d0: 2fb5 94bc 0cd1 10be cebc f23b e00c af3d
000003e0: 6bea a3bd a70c 3bbe 38ba c9bd b17f 223e
000003f0: 87b8 c43d 14ed 0a3e 1ff7 053e 5f94 1ebe
0.09511268 -0.15303423 -0.09604191 0.06866846 -0.09027974 0.15253498 -0.050807383 0.07902596
-0.098074935 0.033542518 -0.051603865 0.09168233 0.050046276 0.004159869 0.045337584 -0.14044674
0.07646711 -0.14570135 0.17992938 0.02348603 -0.08269709 -0.14224574 0.1625962 0.036602486
-0.15907323 -0.09852339 -0.15408462 -0.06779271 0.17846814 -0.12987278 0.015014963 0.19853269
0.16102442 -0.11334678 0.070562914 -0.013768726 0.18828139 0.17960736 -0.12235454 -0.088614054
-0.14584035 0.19800806 0.0057888622 -0.1885079 0.006315697 -0.18567926 -0.15932143 0.10432914
-0.041061252 -0.040853746 0.08883004 0.12695788 0.12730365 0.055535287 -0.04998372 -0.076231666
0.18683146 0.09948371 -0.026506107 -0.12264468 0.09426335 0.01733199 -0.06556645 0.009539679
-0.06490841 -0.1325342 0.05047635 0.050830267 0.12949827 -0.15240815 -0.11071297 -0.08275604
0.15815775 0.15622458 -0.08625693 -0.04525486 0.12890796 0.0041807713 0.14283171 -0.06576028
0.0884892 0.080953725 -0.052539226 -0.065682776 -0.04429934 -0.105366305 0.16160388 -0.1331905
-0.18256722 -0.11651415 -0.07212496 0.17572322 0.101427235 0.006495192 -0.011099861 0.15465443
-0.056542244 -0.14510694 0.0047331965 0.11612868 0.11672998 -0.16852942 -0.11338555 -0.14198442
-0.08811546 0.14740631 -0.06888835 0.17053139 0.0987548 -0.0489084 -0.18091004 0.18366097
-0.10902451 -0.06814697 -0.10197113 -0.18143924 0.037110656 -0.101349816 0.0090377005 0.19431274
0.08899998 -0.052512974 -0.12452303 -0.16479722 -0.06492242 0.10881361 -0.16170523 -0.12820083
0.21489298 0.16789573 -0.0008442241 0.1029635 -0.13930647 -0.16474885 0.120007806 0.16429582
-0.14899226 -0.16389616 -0.12245833 -0.038536057 -0.17186579 0.03818841 -0.08901211 -0.09015163
-0.012494266 0.0013202933 0.11425151 -0.049478184 0.009811942 0.12433241 -0.2060401 -0.048250295
-0.03989512 0.052764706 -0.110031575 0.13716249 -0.007593594 -0.07160053 -0.14131325 0.065907754
-0.12368249 -0.091352105 -0.097543515 0.13788961 0.20933616 -0.18396987 0.0587737 0.14210373
-0.031613786 0.14317937 -0.12677291 -0.10988811 0.19129558 0.030465871 0.19679102 -0.039552923
0.04016792 0.07034745 0.1181603 0.0742101 -0.115374535 -0.014164065 0.106375284 0.084622756
0.030469017 -0.08322552 -0.17427762 0.1846847 0.02969795 -0.17679013 0.18047504 -0.13918732
0.09615387 -0.023702923 0.0204875 0.11750419 -0.120204166 -0.18981579 -0.1853163 0.054642644
0.00023302605 -0.09218106 -0.16880079 0.14913498 -0.110797495 -0.020351682 -0.023654766 -0.02475739
-0.13286789 0.14690475 0.03738699 0.051831983 -0.04333401 0.0811358 -0.13460724 -0.1063953
0.07916942 0.10947314 -0.1857047 -0.09844734 -0.08525146 0.13607848 -0.19694991 -0.1410065
-0.012619029 -0.009985981 0.1402464 -0.13573182 -0.047473706 0.0062312707 -0.043170787 0.015487675
-0.084910855 0.15578955 -0.04391144 0.14203069 -0.13808234 -0.0497255 -0.078516796 0.04292953
0.1586926 -0.0046392977 -0.01504322 -0.005009336 -0.018152801 -0.14142245 0.007407761 0.085473776
-0.08003696 -0.18266545 -0.098499715 0.15869023 0.09605508 0.13567 0.1308255 -0.15486287

conv.0.bias f4 [32]
00000000: 113d e7bd 9460 febc 79c9 793d 037e 87bc
00000010: 13ce b73d e071 a43d 1f85 dabd 7377 17bc
00000020: 61e1 133e 9019 2a3e ee24 03bc 6734 0fbe
00000030: 8e14 0dbe 4c18 60bd b177 503d ba4e 2e3e
00000040: aa07 a5bd b624 6c3b e880 77bd cb89 923d
00000050: 38b8 233e e91b 1bbe aa7e 4dbc 5c25 1b3d
00000060: 0d01 12bd e616 ee3c d3a2 bf3d 5b8e 8abc
00000070: b5bf dc3c a03d b73d 6245 ebbc b0f4 ce3c
-0.11290944 -0.031051911 0.060983155 -0.01653958 0.089748524 0.080295324 -0.10669922 -0.0092447875
0.14441444 0.16611314 -0.00800441 -0.13984834 -0.13777372 -0.05471067 0.050895397 0.1702222
-0.080581024 0.0036032624 -0.06042567 0.07155188 0.15988243 -0.15147366 -0.012542406 0.037877426
-0.035645533 0.029063653 0.09357228 -0.016913584 0.026946882 0.08947301 -0.028719608 0.02526316

conv.2.weight f4 [32, 32, 5, 5]
00000000: 76f1 2e3d 65b4 11bc af22 85bb b7fc 063d
00000010: 3a3d 26bc c880 173d 18f0 083d 1b52 f03c
00000020: 7f5d 173d 347b c43c 093c ab3c 5c31 2a3b
00000030: d188 81bc 84fb e33c 3afb e53c 9e85 f53c
00000040: 5824 02bb 1794 00bd 706b aabc eb50 4fbc
00000050: 2e7f 02bc d7f4 31bc 8f48 333b e647 b53c
00000060: e7cb 593b dd3e a2bc 745d e8bc d511 c2bc
00000070: 348a 713a c08e 86bc 8241 e0bc 5a86 20bc
00000080: 1980 9f3c 9353 103d 1fb5 a1bc 0ac4 e43c
00000090: 4e1c 4e3d dbfe 193d 068d 20bc e50c 49bc
000000a0: 5ffd 8abb bcbc 393d 4c6c ac3b 96e1 bbba
000000b0: 0c88 163c 0cfb 223c edcb fa3c 2523 e53b
000000c0: 091c 913c fb40 c83b 9d80 633c 05bd a33b
000000d0: eed0 e13c eabf b3bc c866 903c 99c6 debc
000000e0: 861a 19bb 4bd2 a8bb 61d8 39bb d445 81bc
000000f0: 0174 5bbc 5432 9e3c 1d0d fd3c 9b11 283d
00000100: 0f89 2fbc d847 5c3c 20cf 84bc 6468 173c
00000110: 73e5 503c 5d6d 4dbd 95c2 9d3c 7888 cabc
00000120: 562d de3b f515 04bd b58e 14bd bd20 b53c
00000130: f468 d5bc 4496 91bc 472b 1f3d 0013 003a
00000140: ed31 be3c 5ab9 b3bc ed31 a5bc e1fa 8cbb
00000150: ef03 903c 903c 07bd 44a8 1fbd 8a2e 923c
00000160: c7e1 9f3c 90aa 26bc 04fe 09bd 3236 8dbb
00000170: 42b0 173d bc58 b1bc 7d31 daba b83b 19bc
00000180: 5325 c53b 6cdb 2fbd 758f f5bb 9b81 0c3c
00000190: 05e6 03bd 3ad4 7e3c 05cf 13bb 754f 823c
000001a0: 3b5e 0f3d 8d66 07bd 05f4 56bd 3119 bd3c
000001b0: 4b33 a93b 4e53 bbbc 6d69 20bd 5400 a5bc
000001c0: 7948 0fbd bf86 d13c fd3a d63b 678a 273c
000001d0: 36ab e1bc 1ae1 18bd 0cdd 0dbd 657a d13b
000001e0: f01b 94bc cf91 2a3d 613e 33bc a5f1 32bc
000001f0: 01b6 c23c 392f 3d3c da3c abbc 6111 873c
00000200: a498 93bc 380d 8cbb 81b7 e23c 54f7 c6bc
00000210: 30b4 45bc 925a e83c 9a45 c83a 3c98 c8bc
00000220: 1664 bcbc 5c96 d03c 2e28 aa3c e098 213d
00000230: 65db 2e3d 6721 edbb 9c7f 013d 5be6 8abc
00000240: 6a35 adbc 3d01 753c e087 753b 44d2 11bd
00000250: 3ec3 dabb 2bb3 e53c 80b5 0fbd a8fd 243c
00000260: 6a0a c6bc 2883 b63c f5ec 91bc ce0d 4c3a
00000270: e56a 29bc 7cc1 923c cb0f 60bd 27e4 123c
00000280: 1490 7b3c 6116 b13a 86c9 08bb f848 8bbc
00000290: cff4 9bbc f565 b53a 1c8a 583b 02e5 a3bc
000002a0: c8f5 92ba 5797 fcbc a429 9e3b 5ab7 e2bc
000002b0: 998d 83bd 9452 38bd e934 303b 95ec bdbb
000002c0: 0835 d83c b6b1 973c 536b 963b cc0b 8abc
000002d0: c804 043d 3985 0cbc 07a3 403d ce6a 9c3c
000002e0: 84c8 e73c bb57 eb3c 1693 133d 2ef0 283d
000002f0: 0dd7 a9bc bada 083d 9307 ff3c 7856 67bc
00000300: 8b69 423d 5b2d d7bb b5f1 1bbb a46e f03c
00000310: c639 983c 72fd 1a3d 1c3a 09bc cd3a b4bb
00000320: 7c7e a93c 10d9 383d ccb4 163b 1d02 6cbc
00000330: 076f 103c bf51 9b3c cc72 83bc 5ce0 05bc
00000340: dbae 573c df3e b83c 0f7f f23c 2710 213d
00000350: 7013 5f3b deed ddbc ec86 b8bb 0d6d 133d
00000360: 000d d3bc a1ce 193d c6b2 d23c 777a f7bc
00000370: bf2a 153d a377 0d3c 585a cabc b8ca e93c
00000380: 609d 913c 6921 4d3c 81a1 d8bc 6dd3 09bd
00000390: 7664 1a3d e923 afbc d216 20bd 5bca dabb
000003a0: 5e42 8dbc a9a5 f23b 9c11 51bc 5019 a23c
000003b0: 4aff 113d 8bf6 cf3c 21c8 a73c 3f52 323d
000003c0: b209 e73c 676a b6bc 1bc4 e83c d8a2 5f3c
000003d0: bafa 223d f6ad 423c 9159 b23b 9302 a53a
000003e0: f42f 0b3b c436 153d 620d 1f3d 9798 bdbb
000003f0: 808e 4cbb ef5c ea3b 4137 203b e5b2 babc
0.042710744 -0.008893107 -0.0040629725 0.03295585 -0.0101464335 0.03698805 0.033432096 0.029336026
0.0369544 0.02398453 0.02090265 0.0025969362 -0.01581231 0.027829893 0.028073896 0.02997094
-0.0019858088 -0.03139123 -0.020803183 -0.01265357 -0.007964892 -0.010861597 0.002735648 0.02212901
0.0033233108 -0.019805366 -0.028364874 -0.023690144 0.0009214014 -0.01642549 -0.027374987 -0.009797657
0.019470261 0.035235953 -0.019739686 0.02792551 0.050319962 0.037596565 -0.009799248 -0.012271141
-0.00424163 0.045346007 0.0052619334 -0.0014334198 0.00918771 0.00994755 0.030614818 0.006992715
0.017713564 0.006111262 0.013885644 0.004996898 0.027565446 -0.021942098 0.017627135 -0.027194308
-0.0023361756 -0.005152022 -0.0028357732 -0.015780367 -0.013394357 0.019311108 0.030890042 0.041032415
-0.01071383 0.013444863 -0.016212046 0.009241197 0.012750017 -0.050153125 0.019257823 -0.024723276
0.006780307 -0.032247502 -0.03626891 0.022110337 -0.026051022 -0.017771848 0.038859632 0.0004885644
0.023217166 -0.021938968 -0.020165408 -0.004302368 0.01758 -0.03301674 -0.03897883 0.017844457
0.019516839 -0.010172501 -0.033689514 -0.004309439 0.037033327 -0.021648757 -0.0016646829 -0.009352617
0.0060164123 -0.042933866 -0.007493908 0.008575822 -0.032201786 0.015553528 -0.0022553813 0.015907029
0.035001975 -0.033056784 -0.05247881 0.023083301 0.0051635853 -0.022866871 -0.03916304 -0.020141758
-0.034981225 0.025576947 0.0065377937 0.010225869 -0.02754746 -0.03732405 -0.034634635 0.0063927644
-0.018079728 0.04164296 -0.010940165 -0.01092187 0.023768427 0.011546903 -0.02090304 0.01648778
-0.01801712 -0.0042740367 0.027675392 -0.024287857 -0.012066886 0.0283635 0.0015279532 -0.024486654
-0.022996943 0.025462322 0.020771112 0.039452434 0.0426897 -0.007236648 0.03161584 -0.016955545
-0.021143634 0.0149539085 0.003746502 -0.035600916 -0.0066761067 0.028039536 -0.0350852 0.010070242
-0.024174888 0.022279337 -0.017813185 0.00077840395 -0.010340427 0.017914526 -0.05470256 0.008965529
0.015354175 0.0013510698 -0.002087207 -0.017002568 -0.019037632 0.001383959 0.0033041304 -0.02000666
-0.0011212165 -0.030833883 0.0048267413 -0.02767532 -0.06423492 -0.045000628 0.0026887006 -0.005796025
0.026392475 0.018517356 0.0045904308 -0.016851328 0.032231122 -0.008576685 0.047030475 0.019093897
0.028293855 0.028728357 0.036028944 0.04124468 -0.020732427 0.03341172 0.031131541 -0.014119737
0.047463935 -0.006566686 -0.0023795192 0.029349633 0.018582236 0.03783936 -0.008375671 -0.0055001737
0.020690195 0.045128882 0.0022995947 -0.014404801 0.0088155335 0.018959878 -0.01604595 -0.008171167
0.013164247 0.022490917 0.029601602 0.039322045 0.0034038685 -0.027090963 -0.0056313183 0.03599267
-0.025763035 0.037550572 0.025720011 -0.030209763 0.03641772 0.008634481 -0.024701282 0.028539047
0.017775238 0.012520173 -0.026444199 -0.033648897 0.037693463 -0.021379428 -0.039084263 -0.0066769547
-0.01724356 0.007405002 -0.012760546 0.01978746 0.035643853 0.025386116 0.020481171 0.043535467
0.028202865 -0.022267533 0.028413823 0.013649665 0.039789893 0.011882296 0.005442806 0.0012589268
0.00212383 0.03642918 0.038831122 -0.0057860124 -0.0031212866 0.007152192 0.0024446996 -0.022790382

conv.2.bias f4 [32]
00000000: 5343 463d 10ea 883b 5fd4 9cbc 0649 c3bb
00000010: e992 3a3d 3d43 f1bc 0701 70bc aa4a ad3c
00000020: c91a 8abc 3168 5f3c a85d 2b3c 5d75 c5bc
00000030: bc9e 21bc d5a2 043c a91c a13b 1d58 d83b
00000040: c5b9 c239 d9c2 a6bc f31a c43c 7e28 1abb
00000050: faa3 c3bb 7d17 ecbb b881 6f3c f5ad 173c
00000060: 071a 793c d971 3bbc 7507 c6bc ae07 ecbb
00000070: 6d29 c43c 12dd 99bc 8816 08bd 0084 f93c
0.04840405 0.004178293 -0.019144235 -0.005959633 0.04555026 -0.029451007 -0.014648682 0.021153767
-0.016858475 0.013635681 0.010459341 -0.024103815 -0.009864505 0.008095463 0.0049167466 0.006602301
0.00037140973 -0.020356582 0.023938632 -0.002352267 -0.0059704753 -0.0072049485 0.01461833 0.009257783
0.015203959 -0.011440718 -0.024173478 -0.007203064 0.023945535 -0.018782172 -0.033224612 0.03045845

conv.5.weight f4 [32]
00000000: f6dc 7f3f 3aeb 7f3f 0e74 7c3f 3171 803f
00000010: 28a1 7c3f 4abd 7e3f 841c 833f 26c8 7e3f
00000020: 1f9b 813f 6988 803f 8199 7e3f 3a75 843f
00000030: 4a01 783f 7a91 7b3f e54f 7f3f 526e 833f
00000040: f104 833f 8889 803f dafa 823f 6eb6 823f
00000050: 5a6d 7f3f 2e82 823f 8928 853f ca20 813f
00000060: 0c81 833f 64ff 803f e7af 803f cbb2 803f
00000070: 752d 7f3f be5f 833f b77c 843f 4e74 7f3f
0.99946535 0.999683 0.98614585 1.0034543 0.98683405 0.9950758 1.0243077 0.9952415
1.0125464 1.0041629 0.9945298 1.0348275 0.96876967 0.98268855 0.99731284 1.0268042
1.0235883 1.0041971 1.0232804 1.0211923 0.9977623 1.0195978 1.0402995 1.0088131
1.0273757 1.0077939 1.0053681 1.0054563 0.99678737 1.0263593 1.035056 0.9978684

conv.5.bias f4 [32]
00000000: be82 1ebc 6023 b7bc a96c ec3b 8d24 953c
00000010: deb2 02bc a415 213b e912 8ebc cb4a 98bb
00000020: 6a7c 53bc d6f5 0fbc 2f0c dd3b db00 ef3c
00000030: 9e33 ecba a115 a6bb bd21 333c 6482 e03c
00000040: fb27 c53c 473d dabc b013 3ebc 6b31 a9bc
00000050: fb3e 3c3c 3efe 7cbc de06 4dbc 8ae9 1d3c
00000060: 6ce3 9abc 1897 853c 2e22 c3bc 753a e2bb
00000070: feeb 1abb 8a71 e1bb c3d2 dcbc 5447 cabb
-0.009674726 -0.022355735 0.0072151017 0.018205905 -0.007977216 0.002457955 -0.017343001 -0.004647588
-0.012908081 -0.008786639 0.006745837 0.029175213 -0.0018020754 -0.0050684963 0.010933337 0.027405925
0.024066916 -0.026640547 -0.011601374 -0.020653447 0.011489625 -0.015441475 -0.012513844 0.0096382
-0.018907271 0.016307399 -0.02382001 -0.0069039413 -0.0023639197 -0.00687999 -0.026955968 -0.0061730538

conv.5.running_mean f4 [32]
00000000: 64b7 e641 ef67 8c41 01f2 8142 310d 8242
00000010: 6d3f da3f 10f8 6242 d502 ba40 8864 4242
00000020: 8911 2742 27a9 4841 2324 7c42 2c40 4141
00000030: 0e66 8142 3e28 7042 bb2b 1c42 d860 8c42
00000040: 6b98 7341 2c7f 9141 27cb 1e40 d8f9 2c41
00000050: aaef b342 ee84 a93c 333c 4f41 c3b6 5d42
00000060: e85a 9940 4318 0840 4a83 3541 37d9 c541
00000070: a218 6e42 3837 f23f 75c2 0d40 2be1 2942
28.839546 17.550749 64.972664 65.025764 1.7050606 56.74225 5.8128457 48.598175
41.767124 12.541297 63.03529 12.078167 64.699326 60.0393 39.042706 70.18915
15.224711 18.187096 2.4811494 10.810997 89.968094 0.020693269 12.952197 55.42848
4.792347 2.1264808 11.344553 24.731062 59.524055 1.8923101 2.2149937 42.46989

conv.5.running_var f4 [32]
00000000: 7c20 fa43 36db 9543 641f 8844 8b64 cb44
00000010: 9122 0442 1287 0144 09e5 7143 e0c6 2444
00000020: 62e6 0f44 21cc 9a43 7855 8a44 b126 8643
00000030: b81c 8044 f67e 5244 47f8 c843 3677 8944
00000040: 2c9a 0644 070b b943 36b9 2242 6416 8b43
00000050: 48c0 a244 9684 fc3e d685 e443 f099 bb44
00000060: 38df 3c43 5808 6c42 8cf9 a043 3d78 8043
00000070: 0890 7e44 9a34 9742 c5fd ab42 d7ef 6c44
500.25378 299.7126 1088.981 1627.142 33.033756 518.1105 241.89467 659.1074
575.59973 309.59476 1106.6709 268.30228 1024.8975 841.98376 401.93967 1099.7253
538.40894 370.08615 40.68087 278.17493 1302.0088 0.49319905 457.0456 1500.8105
188.87195 59.00815 321.9496 256.93936 1018.2505 75.60274 85.99564 947.7475

conv.7.weight f4 [64, 32, 3, 3]
00000000: a4bc 163b 500c 66bd 893d 74bd 76f5 12bd
00000010: 3542 54bd 50c1 b63c 98d0 233d 3b48 33bd
00000020: a052 66bd 9101 05bc c7ad 9abb 5c76 07bd
00000030: 56e5 6ebc 2a15 af3c 8edb 89bd 1e3b c13c
00000040: 57f3 d3bb 5d94 24bd d543 1a3d deb5 c33b
00000050: c3d9 7d3d b29b 163c 22c8 623d d447 a6bc
00000060: 9b09 a33c 922e b5bc 7230 8abb c020 843c
00000070: ab56 df3c 9759 76bb ba8c ab3c dee7 183d
00000080: b4a6 b2bc 8af2 1b3d c186 f5bb eb5c 463d
00000090: 685d c4bc 729f d83b ee2e 383c 670d 74bd
000000a0: 6d2d 323b 3e04 a1bd aa1a 9dbd b430 663c
000000b0: 6eb1 02bd 4cfa 853b fdf0 033c 801a 32bd
000000c0: cf9f cdba 6d80 2fbd c844 863c 8109 a9bc
000000d0: 18ed 85bc de0a f8bc 512b 44bd 696e aebc
000000e0: b5de f23b 16cc 5dbb 4665 0dbd 9682 61bc
000000f0: c12a 04bd 1ab8 05bc bfe0 093d 5413 40ba
00000100: 42f3 d6bc bf09 7e3d 2677 43bd c4e8 643d
00000110: 3122 62bd f5b2 1bbc 21a9 eabc 75d9 d73c
00000120: 47d7 ffbb a073 4b3d 218a dbba 8560 3e3d
00000130: 8f37 75bd 3872 53bc 0b15 2e3c ae15 0e3c
00000140: 86e7 42bd 3cc8 c2bc f02c 3cbc 4dce 94bb
00000150: c173 10b9 2d30 74bd 8ed6 68bc 88fe 59bd
00000160: 3e63 2ebd 980c 0f3c 5f66 53ba 2ad1 8c3d
00000170: 260f 3f3d 2972 5c3d 41bd 2bbd 7063 bd3a
00000180: 6241 0d3d 63f5 4d3d ff95 47bd 5198 00bd
00000190: ac87 0d3d b85e 8ebc dc2d 5f3d 147c 7b3d
000001a0: f8de 3a3c 92aa c93b f6cd 66bd 2c3c db3c
000001b0: 90df 523d 932e 463c 90d2 4d3d 39e1 3fbc
000001c0: 57e2 ad3c 4fe9 383b dfe8 b0bc e75a 313d
000001d0: ec38 833a 16de 453c dd22 5b3d 1004 a03c
000001e0: 90ac 003c e84b 5d3d 2a81 7ebc 14c7 a7bc
000001f0: c17f 8db8 122e 4e3d 8e97 10bd 78e4 91bd
00000200: 9a9c 183d e206 d5bc 7898 bdbb 72d7 87bc
00000210: c245 fc3c 9c12 e43c 6bd6 a0bd f271 023d
00000220: b093 e83a 057a b43c f395 c0bb ae7d 543c
00000230: 354e bdba 6084 ab3b 8de1 313b edaa edbc
00000240: 6730 363d 1a35 373c 4dac 663d 1877 ccbc
00000250: c707 323d 7d80 943d aebb 593d a4ea 5d3d
00000260: d23c be3a 8c97 5b3d f385 3f3d 1b87 ac3c
00000270: 11b2 e83c 91c5 f33b 1b91 883d 38d8 60bd
00000280: b562 293d a16b e9bc bdf2 fb3c 5d19 7bbd
00000290: 988a 04bd 43ea 0ebb 7caf 9f3c 78f3 9abd
000002a0: 03ba 103d 4ccd febc 3e61 ed3c f8b9 49bd
000002b0: 0c1b ec3c 7dc9 89bd b56c 7cbc b668 a2bd
000002c0: aed8 303d 379c f5bc 9bd3 16bd e986 92bc
000002d0: 68b4 103c 1fa9 e8bc 83b8 a2bc d4b9 833c
000002e0: e9f7 20bd 615f 223c d1c1 273d c99d 4b3c
000002f0: d6b6 e43b 76c8 4a3b f8af 813c 1c88 2dbd
00000300: b3f9 57bd a253 0e3d 8133 24bc 9e8b b93b
00000310: 697b 78bd 7201 6abd c9c5 39bc f0fe a9bd
00000320: 3137 84bd 5338 043d 7460 84bd bc56 053c
00000330: 79b1 c1bc 0528 adbd 8e36 61bd 95d6 0cbd
00000340: 6fc4 8d3d f881 243d 2bc9 763d 2dd5 843d
00000350: fe40 4abd 2cc2 50bd a490 f3bb 6c01 e8bc
00000360: f636 4abd dbce abbd dd53 90bd bcaa 50bd
00000370: 5270 14bd 0b9d 43bd b0ed 30bd 9979 a5bd
00000380: 1619 84bd 8bad 293d 33e6 b9bc 16bf 99bc
00000390: 39e2 81bd d292 763c 20d7 f0bc 321d 2bbd
000003a0: dd3b a03c 8331 4fbb 2427 90bb eb02 92bd
000003b0: cf3a 5b3c 326c 92bd 9ea7 70bd 6960 47bd
000003c0: 845d 25bd 89c5 a5bb b474 3ebd 68be fe3c
000003d0: fa18 5abd 7947 86bd 70e8 0a3d 35d4 d23c
000003e0: ddb7 57bd 41c9 45bd 736d 573b 7639 4abc
000003f0: 654e 213d 552d bcbc 790e aabc 55d9 c53c
0.0023000622 -0.056164086 -0.059628997 -0.03587862 -0.051820952 0.022308975 0.039993852 -0.043770056
-0.05623114 -0.008118049 -0.004720423 -0.03307186 -0.014581045 0.021372396 -0.0673133 0.02358776
-0.0064682174 -0.040180553 0.037662346 0.005972608 0.061975252 0.009192394 0.055366643 -0.020297922
0.019902041 -0.022116933 -0.004217201 0.016128898 0.027263006 -0.003759002 0.020941127 0.0373305
-0.021808006 0.0380731 -0.0074928706 0.048428457 -0.02397032 0.0066108042 0.011241658 -0.059583094
0.002718772 -0.07862137 -0.076711014 0.014049698 -0.03190749 0.0040886756 0.008053062 -0.043482304
-0.0015687885 -0.042847086 0.01639022 -0.020634415 -0.016348407 -0.03027862 -0.047892872 -0.021292882
0.0074118027 -0.0033843569 -0.03452041 -0.013764044 -0.032267336 -0.008161569 0.0336616 -0.0007327099
-0.026239041 0.062021013 -0.04772105 0.055886045 -0.05520839 -0.009503116 -0.0286451 0.026348809
-0.0078076455 0.049670815 -0.001674954 0.046478767 -0.059867438 -0.01290565 0.010625134 0.008672161
-0.04758408 -0.02377712 -0.011485323 -0.0045411945 -0.00013776032 -0.059616257 -0.01421131 -0.053221256
-0.042575113 0.00873103 -0.0008064266 0.068758324 0.046645306 0.05381981 -0.041928533 0.001444919
0.034486182 0.050282847 -0.04872703 -0.03139526 0.034553215 -0.01737915 0.054487094 0.061397627
0.011405699 0.006154367 -0.056348763 0.02676209 0.051482737 0.012096065 0.050249636 -0.011711412
0.021226091 0.0028215235 -0.021595417 0.04329958 0.0010011471 0.012076875 0.053500045 0.019533187
0.007853642 0.054027468 -0.015533725 -0.02048067 -6.7472e-05 0.050336905 -0.035300784 -0.07123655
0.037258722 -0.026004259 -0.005785998 -0.016582225 0.030794982 0.027840905 -0.07853397 0.031846948
0.001774421 0.02203084 -0.0058772503 0.0129694175 -0.0014442863 0.005234286 0.0027142495 -0.029012168
0.044479754 0.011182094 0.056316663 -0.024959132 0.04346445 0.0725107 0.0531575 0.05417885
0.0014513975 0.053611323 0.046758603 0.021060517 0.028405221 0.0074393232 0.06668302 -0.054893702
0.0413539 -0.028493704 0.030755395 -0.061303485 -0.032358736 -0.0021807111 0.019492857 -0.07565969
0.035333645 -0.031103753 0.028977033 -0.04924962 0.02882149 -0.06727884 -0.015406777 -0.07930128
0.04317539 -0.029981716 -0.036822896 -0.017886596 0.008832075 -0.028400956 -0.019863373 0.01607982
-0.039298926 0.009910435 0.040956322 0.012427756 0.0069798036 0.0030942238 0.015830979 -0.042366132
-0.052728366 0.034747727 -0.010022045 0.0056623956 -0.060664568 -0.057130285 -0.01133866 -0.083005786
-0.064558394 0.032280277 -0.064637095 0.008138355 -0.023644196 -0.08454899 -0.054983668 -0.03438433
0.06922232 0.04016301 0.060250442 0.064859726 -0.049378388 -0.050966427 -0.007433014 -0.02832099
-0.04936882 -0.08389064 -0.07047246 -0.050944075 -0.03623993 -0.04775719 -0.043195426 -0.080798335
-0.06450097 0.04142527 -0.022692775 -0.018767875 -0.06341977 0.015049653 -0.029399455 -0.04177589
0.019559795 -0.0031615205 -0.004399197 -0.07129463 0.01338072 -0.07149543 -0.058753602 -0.04867593
-0.040372387 -0.0050589484 -0.046498016 0.031096652 -0.053246476 -0.06556601 0.033913076 0.025735954
-0.05266558 -0.048287634 0.0032871633 -0.012342801 0.039381403 -0.022970835 -0.020758854 0.024151484

conv.7.bias f4 [64]
00000000: 2c85 6d3d f2ec 323d 8f2e dbbc a452 6d3a
00000010: 451e 5ebc 1697 e03c 86d6 16bc 937e 8abd
00000020: 44da 5a3d 5f1e 3a3d 884d 15bd adca 34bd
00000030: b0d0 84bb db62 b6bb 168e 4fbc e059 bdbc
00000040: 5de9 32bd b7f0 303b f10b 863d 5b61 26bd
00000050: f725 26bd d31e 06bc 31e2 e1bb c027 3bbc
00000060: 932e 043d 350a 05bd 8579 fd3c db94 853d
00000070: e8bd b53c be5c 163d 7587 dcbc 1fb1 c53b
00000080: 9251 693c cab1 84bd 2862 163c 2e1a 233d
00000090: 5eef 213c 3fc2 f13c 0a7d c1bc 5d68 363d
000000a0: d1e7 d5bc 34e8 41bd 3dc9 d3bb 41bc ca3c
000000b0: c6c9 b6bb 6852 383c 47a3 bbbb b94b 18bb
000000c0: 2930 30bc a365 203d 585e 333d 20d9 1cbd
000000d0: f8c4 82bd 9731 4cbd 2c63 ae3d bda2 f93b
000000e0: e19f edbc 6bb6 7bbd 1f55 623c 9d7e 0e3b
000000f0: 30ca 41bc 35ad 8e3d eaa7 1fbb da99 b2bc
0.05798833 0.043683 -0.0267556 0.0009053147 -0.0135570215 0.027415793 -0.00920642 -0.06762423
0.05343081 0.04543912 -0.036450893 -0.0441386 -0.004053198 -0.0055659837 -0.012668153 -0.023114145
-0.043679584 0.0026998946 0.065452464 -0.04062019 -0.04056355 -0.00818606 -0.006893419 -0.011423051
0.03227098 -0.032480437 0.030941734 0.065225326 0.02218528 0.03670954 -0.02692006 0.0060330774
0.014240639 -0.06479223 0.009178676 0.03981989 0.00988373 0.029511569 -0.023619194 0.044533122
-0.026111515 -0.047340587 -0.0064631985 0.02474797 -0.0055782525 0.011250116 -0.0057262513 -0.0023238494
-0.01075367 0.03915943 0.043791145 -0.038293004 -0.06385225 -0.04985198 0.08515009 0.007618277
-0.0290069 -0.061453264 0.01381424 0.0021742948 -0.01182799 0.0696663 -0.002436156 -0.021801878

conv.9.weight f4 [128, 64, 3, 3]
00000000: 88c5 0b3d 4bb3 95bc 0af7 5f3c 6c50 d03c
00000010: ccbf 96bc dd5d 21bc 794d 953c c03c 83bc
00000020: ecd9 03bd cbf8 953c f1e0 b0bc acc7 13bd
00000030: 1654 a3bc 72f1 9f3c 5348 2abd 34c5 a13c
00000040: 0700 00bc 2607 f83c 90e3 84bb cc82 f73c
00000050: 7355 203c ddd3 d1bc d0a5 3dbc 9595 e5bc
00000060: c1e0 e73c 7f31 d0bc b665 fd3c 549e 09bc
00000070: fc08 4a3c 3f69 d2bb a06b a7bc 7503 2bbd
00000080: 7a3f e8ba e8ea aa3c 3d9a d13c a028 babb
00000090: 59df e7bb 43ed 19bd 6111 e0bc 5ea8 d03c
000000a0: 2827 d23b 9dde 0dbd 6a47 3bbc b763 00bd
000000b0: ec0a aabb 3ba6 b33b 82b9 9e3c ee04 48bd
000000c0: a383 39bd dd92 39bd 4013 2fbc 3071 bdbc
000000d0: 439a 983c d4c6 c5bc e77a 2a3b 94b6 783b
000000e0: 2d60 033d 2cb5 e03c 74ae b73c 0b08 14bd
000000f0: 7402 f23c 6c90 babc ca6a 8a3c 911b 43bd
00000100: 45cc b13c a506 a9bc f84e 39bc 711a 0b3c
00000110: de32 7f3c 738e babb 7944 c5bc 9766 8b3c
00000120: 6890 2abd 3667 3ab9 f021 87ba 73fc 143d
00000130: 13bb 793c b6e0 773b 889e f6bc 1ec2 073c
00000140: c72e 293d 7f0a 203c 6023 40bc bfcb 50bd
00000150: ed86 993c 131a 45bc 6911 243c f34d 8c3c
00000160: 1185 2b3c 0f4a 5e3c 6766 f2ba 1405 bebb
00000170: 5945 a93c fb0e d2bb 58de 963c ff07 813b
00000180: b366 2ebc 14ab 023c 8625 7b3b f68a 3b3c
00000190: f65d 9639 79f6 22bc df16 2fbb 3f53 0f3d
000001a0: 11bb b43c 6530 f33b 040e 10bd e29a cdbc
000001b0: e531 d5bb 98bb 2dbc 56ba ae3c fd75 0ebd
000001c0: 2e71 49bd ff84 98bc bc9d d73c 7750 a8bc
000001d0: a4fc f7bc 15eb 0dbd eb46 473c 8ae6 c0bb
000001e0: 4254 4d3b 7847 cd3b df05 27bd b5dd 90bb
000001f0: 60ce b6bb bc0d 9cbb 2dc2 bcbc bb84 00bd
00000200: 513f c4bc bccd dc3c 5681 913c 8867 88bc
00000210: dd7e 003d a0a1 8abc d17c a53c 4105 113d
00000220: 4bfe 063a dbf3 603a 7882 373c 4ee4 44bc
00000230: 201c da3c cea0 343c 91a9 963b 2b94 a23c
00000240: 135e f3bb b000 ebbc 597b fb3c f41c dfbc
00000250: d38c ba3b 86c9 bbbc 9753 8abc 073f 23bb
00000260: a22f 19bc 3723 07bd 27ee b43c c4fa 1b3c
00000270: d05a b9bb 28f1 463c c423 f5bb 9f6a 18bd
00000280: 72d8 cf3b ce7f a9bc 0b7a ddbc 0ce5 eb3c
00000290: d56d c6bc e560 273d 4341 233c ab7c 70bb
000002a0: de41 83bc b383 883c 3c59 2cbd 2944 9abc
000002b0: 415b 49bd 5230 50bb a70f ae3c e707 d7bc
000002c0: 90fb c4bc 4405 cabc 78f9 9e3c e51a 8bbc
000002d0: 7722 fcbc d138 1abb 3aaf 8b3c b2b5 78bc
000002e0: a3d3 f43c 3b4d bcbb 0151 3dbc dde2 0c3a
000002f0: 8748 1bbc fafa 29bc ae4f 8fbc b821 a6bb
00000300: daa4 df3b 35da 5c3c a8f0 f2bc 41b6 04bd
00000310: 8626 a4bc 54ea 3cbd a0dd 4a3b 33be 2ebd
00000320: 9f39 07bd db18 1fbd 8325 083c 662a a5bc
00000330: 08a5 2dbb 8b8c 8b3b 52c2 963c 8c3e 33bd
00000340: e475 21bb 7a67 e53c aa3b b9bc 4a88 23bd
00000350: 3a89 a8bc 85f0 1c3d f403 b2bc 02f1 5f3c
00000360: 1af0 973c c1b4 043d b948 873c 85f0 03bd
00000370: 7519 b83c 8cb3 863a 1175 c43c 41ff c43b
00000380: 1cd4 87bc 299e bb3c 3b2c b1bc 69cf 2fbd
00000390: 0229 59bc 8ba8 7bbc 2994 af3c af25 413c
000003a0: 21c6 463c cc49 8fbc 1c77 94bc a1ac 5d3c
000003b0: b25a 5cbc e409 973a 2aa7 0f3d 34d5 e3bc
000003c0: 9a35 bf3c e360 013d 6528 4bbd 5d36 39bc
000003d0: ba9a d73c ea5e 2abc 8b1b 49bd d39c 3ebd
000003e0: 63f9 67bc 4d09 d2bc 4ecf 0abd b67f 763b
000003f0: 495e f2ba 69e6 11bd 67af 273c 9e10 323c
0.034123927 -0.01827397 0.013669739 0.025428973 -0.018402003 -0.009849039 0.018225418 -0.016020179
-0.03219025 0.01830711 -0.021591635 -0.036079094 -0.019937556 0.01952431 -0.04157288 0.019747354
-0.0078125065 0.030276846 -0.004055448 0.030213736 0.009785998 -0.02561372 -0.011575177 -0.028025428
0.028305413 -0.025414227 0.030932289 -0.008399565 0.012331244 -0.0064212377 -0.020437062 -0.041751344
-0.0017719113 0.020863965 0.025586242 -0.0056811124 -0.0070761857 -0.037579786 -0.027352037 0.025470909
0.006413359 -0.03463613 -0.011430601 -0.031345095 -0.0051892903 0.0054824627 0.019375566 -0.048832826
-0.045291554 -0.045306075 -0.010685742 -0.023125261 0.018628245 -0.02414266 0.0026013197 0.0037950622
0.032074142 0.02743014 0.022422053 -0.036140483 0.029542185 -0.022773944 0.016896624 -0.04763371
0.021703849 -0.020633051 -0.0113103315 0.008490191 0.0155760925 -0.005693251 -0.024080502 0.017016692
-0.041641623 -0.00017776791 -0.0010309797 0.036373567 0.015242356 0.0037823147 -0.03010489 0.008286027
0.041304376 0.009768127 -0.011727184 -0.050975557 0.018741095 -0.012030142 0.0100139165 0.017127013
0.010468737 0.013567462 -0.0018493653 -0.005798945 0.02066295 -0.006410477 0.018416569 0.003937721
-0.010644603 0.0079753585 0.0038321926 0.011446705 0.00028680236 -0.009946459 -0.0026716513 0.0349915
0.022061856 0.0074215406 -0.035169616 -0.025098268 -0.006506192 -0.010603808 0.021329086 -0.03478049
-0.049180202 -0.018618105 0.02632033 -0.020546181 -0.030271836 -0.03464802 0.012162904 -0.0058868574
0.003133074 0.0062646233 -0.040777083 -0.004420961 -0.005578801 -0.0047623795 -0.023041809 -0.03137658
-0.023955973 0.02695357 0.017761867 -0.01665093 0.031370986 -0.016922772 0.020201119 0.0354054
0.0005149587 0.0008581259 0.01120054 -0.012017323 0.02662474 0.011024667 0.0045978506 0.019846043
-0.007426986 -0.028686851 0.030698465 -0.027235486 0.005693057 -0.022923242 -0.016885562 -0.0024909393
-0.009349735 -0.032992568 0.022086216 0.009520236 -0.0056565776 0.012142457 -0.0074810702 -0.037211057
0.006342941 -0.020690825 -0.027035734 0.028795741 -0.024222294 0.04086389 0.00996429 -0.0036695402
-0.016022619 0.016664362 -0.042077288 -0.01883133 -0.049159292 -0.0031767082 0.021247698 -0.026248885
-0.024045736 -0.024660714 0.019406065 -0.016980598 -0.030778153 -0.00235324 0.017051328 -0.015180038
0.029886073 -0.0057465113 -0.011554957 0.00053743814 -0.009477741 -0.010374779 -0.017494049 -0.0050699376
0.0068250718 0.013479759 -0.02965577 -0.032400373 -0.0200379 -0.04612191 0.0030954853 -0.042661857
-0.033013936 -0.038842063 0.008309725 -0.020161819 -0.0026496071 0.0042586974 0.018403206 -0.04376082
-0.0024636919 0.028003443 -0.022611458 -0.039924897 -0.020573247 0.038315315 -0.0217304 0.013668301
0.018547107 0.032398943 0.016514169 -0.0322118 0.022473076 0.0010276898 0.023981603 0.006011874
-0.016580634 0.022902565 -0.021627536 -0.04292241 -0.013254406 -0.015360008 0.021432953 0.01178877
0.012132199 -0.017491244 -0.018123202 0.0135299275 -0.013449358 0.0011523333 0.03507153 -0.027811624
0.023340989 0.03158654 -0.04959907 -0.011304465 0.026318897 -0.010398606 -0.049098533 -0.046536278
-0.0141585795 -0.0256392 -0.033889107 0.0037612743 -0.0018491234 -0.035620127 0.01023469 0.01086822

conv.9.bias f4 [128]
00000000: c410 f9bc 434a 28bc 558b 01bc 7f00 0dbc
00000010: 8663 69bc 62ca 1cbd 010e 40bd 4b5d 1dbc
00000020: 4a5d ac3c b2a1 9e3c 298f 26bd 2a72 01bd
00000030: 85b8 103c 3a9c 02bc 7a00 563c ac27 9a3c
00000040: b96a 47bd 5512 70bd 881b 40bd 1e94 12bb
00000050: d6ba 253d 6a85 c0bc 8043 933c dd09 ea3c
00000060: 5f1e 33bd 5e67 35bd 41a2 3dbd fce7 7fba
00000070: 50ba ddbc 13c4 9abc 36cc a13c ed58 4bba
00000080: 1757 86bc 1cef 803c 0665 283d bfea 7fbb
00000090: 6a6a 283c bd79 a5bc fb07 06bd 184e 51bd
000000a0: 85e9 13bd c2a9 c3ba 2eed 073c f59b bb3b
000000b0: c350 66bd bdf9 653d 9254 853c 05b9 adbc
000000c0: dd7a 16bd a556 873d 7288 ebbc ceba 003d
000000d0: c142 37bd fc47 a6ba cd7c a13b d053 253c
000000e0: 680e 553d 2f05 ab3c b7f5 c0bb eda5 6cbc
000000f0: f0a0 9f3c 9ec4 2ebd 2ff4 783c 36fd 48bd
00000100: e4d0 e6bb 6d26 78bc 0b64 19bd 88a7 a63b
00000110: 4f41 ecbc 9849 3abd 770c d9bc 6a11 feb9
00000120: 98dd 373d 7541 d53c c971 d13c a197 e0bc
00000130: a344 eeb9 0074 64bc 2011 afbb 92bf da39
00000140: 0edc f6bc 9346 5e3b 977d af3b dd38 84bb
00000150: 6cd3 aa3b 4124 6a3d f0d8 5d3c 7fa2 40bd
00000160: 0e6a ad39 80f9 503c 9d46 14bd 539d c03a
00000170: bf8d 03bd fa23 c33a dca1 233c 23c0 1bbc
00000180: a823 efbc dbbc 4bbd c3a9 47bd 2784 3cbb
00000190: 28bd 0b3c 6fa1 a4bc b0d5 703d 5044 44bd
000001a0: 7e8e 8bbc 4121 d7bc c032 a43c ede8 7e3b
000001b0: 8262 6bbc 4c78 9fbc b77c 233d a4f0 0a3d
000001c0: 5a12 e0bc ff7a 3cbd 5dc5 00bd bb70 09bd
000001d0: 7326 02bc 7025 60bc 45a6 4fbd 90c7 9d3c
000001e0: bcba 043c 6456 39bd f91a ffbc 89fa 67bc
000001f0: 7cf8 70bc 6ee0 433c 2436 053c 8ff2 3c3c
-0.030403502 -0.010271612 -0.0079067545 -0.008606075 -0.01424492 -0.038278945 -0.046888355 -0.009604762
0.021040577 0.019364212 -0.040663872 -0.031603016 0.008833055 -0.007971818 0.013061637 0.018817745
-0.048685763 -0.058611233 -0.046901256 -0.0022366117 0.040461384 -0.023501117 0.017976522 0.028569156
-0.043730136 -0.04428803 -0.046297316 -0.00097620464 -0.02706638 -0.018892324 0.019750696 -0.00077570864
-0.01639895 0.015739016 0.04111197 -0.0039049832 0.010279277 -0.02019965 -0.032722455 -0.051099867
-0.036111373 -0.0014927911 0.008296294 0.0057253786 -0.056229364 0.056146372 0.016275678 -0.021206388
-0.036738265 0.06608323 -0.028751586 0.03142815 -0.044741396 -0.0012686248 0.0049282075 0.010090783
0.052015692 0.020876495 -0.0058886665 -0.014443857 0.01948592 -0.042667978 0.015194937 -0.049069606
-0.0070439447 -0.01514588 -0.037448924 0.0050858893 -0.028839735 -0.04548034 -0.026495202 -0.0004845963
0.044889063 0.026032189 0.025566952 -0.027416052 -0.00045446036 -0.013943672 -0.0053426176 0.0004172293
-0.030134227 0.0033916577 0.0053555476 -0.004035099 0.0052131917 0.05716348 0.013540491 -0.04702997
0.00033076148 0.012754798 -0.036200155 0.0014695324 -0.0321176 0.0014888041 0.009987321 -0.009506258
-0.029191807 -0.049740653 -0.04874588 -0.0028765292 0.008528985 -0.020096509 0.05879754 -0.04791671
-0.017035719 -0.026260974 0.02004373 0.0038896159 -0.014366748 -0.019466542 0.03991386 0.0339209
-0.0273525 -0.046015736 -0.03143822 -0.033554774 -0.007943737 -0.013680801 -0.050695676 0.019260198
0.008101162 -0.045248404 -0.031140791 -0.014158853 -0.014707681 0.011955364 0.008130584 0.01153244

lin.0.weight f4 [256, 128]
00000000: c039 0cbc d6a6 56bd f7bd 763d 0bc3 b2b9
00000010: 6841 8d3d 12f3 98bd 6edf ccbc 9b5e aabd
00000020: b4c0 7dbd eeec 923d b71a f33b fc77 613d
00000030: 22f5 ba3d d984 0b3d 245c c53d 2ff0 033d
00000040: 9814 0d3d c40c 5c3d 0ec2 1b3d 458b 35bd
00000050: 20af 9e3d cf1e aa3d 1baf da3a 5052 12bd
00000060: 48c4 883d 3ab7 8a3c e767 193d d593 a7bd
00000070: 28e8 37bd 70bf e73c ec78 493d 44fc 7a3c
00000080: d944 193d d171 b6bc 339b a3bd a002 113d
00000090: d834 36bd dfc0 1b3d 573b 11bd aa8e f13c
000000a0: 207f d83c 3635 c63b 013b bb3c 9dda 763d
000000b0: a157 84bd 2221 ac3c b03c 7b3d 6c06 30bb
000000c0: cfae 2b3d 9237 5bbc ed7f 073c b67d 60bd
000000d0: f797 80bd 8d5c 3b3d 09f8 153d 8375 8bbd
000000e0: 8f89 7abd ae86 a33d bb97 0f3d 3acf 8a3d
000000f0: 4cf7 9a3b dc5b 913c 5fe1 01bd 5e11 813d
00000100: 7fbd 17bc 1ca7 71bd db2d 2d3b 61a5 63bd
00000110: 64f8 86bc ec5a 29bd c180 9bbd 199f 933d
00000120: c7b2 44bd 6463 b33d 54f5 b03c 5b44 293c
00000130: 505e 2a3c 630c 9b3d dd42 fe3c 8c7d ed3c
00000140: e580 6dbc 4927 7bbd 4f00 9c3d c4dc 323c
00000150: 3d69 983d 06da 06bc 8c60 2b3d 5ac7 f1bb
00000160: 5b6c 9f3d 1aa8 903b ce44 2cba 2fd5 be3c
00000170: eb91 d33d 7358 52bd a41b f4bc e097 deba
00000180: 9f16 473c bd62 203c e783 b93d 60af 6a3d
00000190: bcbf 91bd fb3f ae3d a226 63bd 5866 a33c
000001a0: af6c c13b 5c70 94bc e0fd aabd da65 6ebd
000001b0: 5be5 4ebc b549 4e3d 3442 1ebc 8391 85bd
000001c0: 258b 0539 387f 23bd bcfe d93b 2418 923d
000001d0: 4dea 76bc a144 5ebd d01c 073d 3b6f 843c
000001e0: fcda ad3d 73fc 44bd e9a4 3abc 0103 d73c
000001f0: c1ee 973c 79ae c83d 932f 1abd 2954 0bbd
00000200: 165a c2ba c1fc b13d 899e 4abd 18a1 1bbd
00000210: 5395 18bd 5e6c 1a3d 1271 a3bc 1797 223d
00000220: 51b0 6ebb a861 aabd f00b 5e3d fbc6 3f3d
00000230: 32f4 953c 10ec 3b3d 4655 8d3d f6ca a63d
00000240: 11bc 1d3d 6c85 d13d 0fbf d73c c25b 6d3c
00000250: 6a0e e8bd c3d3 87bc da20 cabd 9631 03bd
00000260: fd55 c43d 7196 d0bc d0a0 18bc 944b 873d
00000270: 3e0e 203d 8af9 01bd 118d 823d 0b44 3d3c
00000280: c2ea 19bd 45fd adba 40d4 93bd 5da6 4dbd
00000290: fab7 0ebd a9db febb 4f55 0b3d b3dd a73c
000002a0: 2756 5dbd ef7a 4b3d f9b3 703d bd00 e73d
000002b0: 7ef9 bd3c 8a83 6bbd 5794 a4bd 4d2f 513d
000002c0: 63d4 9b3d 4814 663c 5136 e63d 42ae 813d
000002d0: f93c 213d 4547 a83c b0eb ac3c d772 f5bc
000002e0: cfb4 21bd bd27 893c 2ab2 a43d 2844 7abd
000002f0: 7f3f 9f3c 1faf 5fbd 85f6 3fbc 6471 81bc
00000300: 75ad c0bc 7a06 b13d 4d2f 133c 6e76 b93b
00000310: 2e9b bc3d 5f78 b93d 2555 8cbd 22c5 eebc
00000320: ab3f 5abd fa25 6ebd 6ab6 8ebc 1d0b 2dbc
00000330: 0f85 4e3d de7d a7bd 897a e63d 5137 993d
00000340: 5ac8 a4bd 1f57 943d 74ac bb3c 1708 61bd
00000350: 3abe 683d cb3f 89bc c4d3 a63d 8f55 f43c
00000360: a237 b23c 936f 8a3d daa6 90bd 5469 07bd
00000370: 2fd4 dd3d 39c6 b9bc a562 523d 1e5b 4d3d
00000380: a311 da3c f65e 773d da0e bb3d 0663 c23d
00000390: e33e aa3c 09e4 323d e02a c6bd 5cf8 a53c
000003a0: 2b71 6bbd b19f 0e3d c841 793d d913 1bbd
000003b0: 7a55 7d3d afa4 af3b fa8a 37bc be8b 54bb
000003c0: ed91 37bd 9a4a 523d 692f 98bd c33a cbbb
000003d0: eeca 983d 6541 9e3d 6423 893c b9f0 7cbd
000003e0: 1624 bd3d 9efd 37bb d9a0 993d d412 0dbd
000003f0: bea9 dd3c aa5c 3ebc f17f 9dbd 732d dabc
-0.008558691 -0.0524052 0.06023976 -0.00034096124 0.06897241 -0.07468237 -0.025008883 -0.08318826
-0.061951354 0.07174097 0.007418956 0.055046067 0.091287866 0.03406224 0.09636715 0.03221148
0.034443468 0.05372311 0.03802686 -0.04432227 0.07748246 0.083066575 0.0016684266 -0.03572303
0.06678063 0.016933072 0.037452605 -0.081824936 -0.044899136 0.028289527 0.049187586 0.015318934
0.037419174 -0.022271069 -0.07988586 0.035402894 -0.04448399 0.038025733 -0.03545698 0.029486973
0.026427805 0.0060488237 0.022855284 0.06026708 -0.064620264 0.021011893 0.061337173 -0.0026859296
0.041914757 -0.013379948 0.008270246 -0.054807387 -0.06278985 0.04574256 0.036613498 -0.06809523
-0.061166342 0.079846725 0.03505681 0.067778066 0.004729187 0.017743997 -0.03170907 0.06302141
-0.009261488 -0.05899726 0.0026425037 -0.05557764 -0.016475864 -0.041346475 -0.07592917 0.0720808
-0.048022058 0.08759192 0.021601357 0.010331239 0.010398462 0.07570722 0.031037742 0.02899053
-0.014496063 -0.061316762 0.07617246 0.010916892 0.074419476 -0.008230692 0.04184012 -0.007378501
0.07784339 0.0044145705 -0.0006571532 0.023295013 0.10330566 -0.051353883 -0.029798336 -0.0016982518
0.012151389 0.009789166 0.090583615 0.057296157 -0.071166486 0.08508297 -0.055456765 0.019946262
0.0059028487 -0.018119983 -0.08349204 -0.058202602 -0.012627925 0.05036326 -0.009659339 -0.06521895
0.00012735704 -0.039916247 0.006652681 0.07133511 -0.01507051 -0.05426467 0.032986462 0.01616632
0.084890336 -0.048092317 -0.011391857 0.02624655 0.018546464 0.09798903 -0.037643027 -0.03401581
-0.0014827873 0.08690787 -0.049467597 -0.037995428 -0.03725178 0.037701003 -0.019951377 0.03969487
-0.003642101 -0.08319408 0.054210603 0.046820622 0.018304918 0.045879424 0.0690103 0.081441805
0.038509432 0.10230526 0.026336221 0.014487209 -0.11330874 -0.016580468 -0.09869547 -0.03202971
0.095867135 -0.025462361 -0.009315684 0.06606212 0.039076082 -0.03173212 0.063745625 0.011551867
-0.037577398 -0.0013274333 -0.07218218 -0.050207485 -0.034843422 -0.0077776504 0.034016903 0.020491457
-0.05403724 0.049677785 0.058765385 0.11279438 0.023190256 -0.057498492 -0.08036106 0.0510705
0.07608869 0.014042921 0.11240829 0.06332065 0.03936479 0.020541796 0.021108478 -0.029961986
-0.039479073 0.016742582 0.080417946 -0.061100155 0.019439457 -0.054610368 -0.01171649 -0.01580114
-0.02352021 0.086438134 0.008983445 0.00565987 0.09209286 0.09056162 -0.068521775 -0.029146735
-0.053283375 -0.058141686 -0.017420966 -0.010561732 0.050419863 -0.08178304 0.112538405 0.07481254
-0.080460265 0.072431795 0.02290938 -0.054939356 0.05682204 -0.016754052 0.0814586 0.029825954
0.021755043 0.06759562 -0.070630744 -0.033059433 0.108314864 -0.022677528 0.051363606 0.050135724
0.026619738 0.060393296 0.09133692 0.094915435 0.02078194 0.043674503 -0.096761465 0.020260029
-0.057480972 0.034820262 0.06085375 -0.037860725 0.061849095 0.005360208 -0.011202568 -0.0032431926
-0.0448169 0.051340677 -0.07430918 -0.0062020733 0.07460581 0.07727317 0.016740508 -0.06175301
0.092353985 -0.0028074752 0.075013824 -0.034441784 0.027058478 -0.0116187725 -0.076904185 -0.026633

lin.0.bias f4 [256]
00000000: e385 efbc 4a5c 5e3b 91b5 b3bd 4f2f 70bd
00000010: 0356 7a3a 4ea6 603d 35de 9dbd d33b 913d
00000020: 6f16 c53d bef9 293d b41a e13b 84a5 2bbd
00000030: 8c73 d43d c4e2 403d 0c12 b53c 01b9 33bd
00000040: 5fa9 ba3d b837 91bc 7268 cebd 46ba 84bd
00000050: 041b b53d 3a39 80bd 5d9a 7dbc 1fd8 413d
00000060: 713e a33c 2161 5abc 518f c8bd a9c2 573d
00000070: b0f1 be3d d766 0d3d fdbf be3d e64b 2c3d
00000080: babd 133d ca84 c93d 38fd 41bd 1776 8d3d
00000090: 1885 33bd ecac 533c af84 7d3c 3f57 433d
000000a0: ef70 863d 50bb 923d f8ef dabd 9073 04bd
000000b0: 4295 d1bc c4c2 053d 7263 39bd e0eb e339
000000c0: c79d d43d 08e6 3bbc 9008 c43c 2534 7ebd
000000d0: 689f 4dbd e2ac 873d 7669 1d3d 5205 d2bd
000000e0: 3517 3cbd 30b0 383d 1863 4bbd 272c 383d
000000f0: b99f a0bc a77c 5e3d a8bb 033c 4c5b 79bd
00000100: aa04 87bb cbda c03d e38b 56bc f134 783d
00000110: ed91 96bd 64cf b03d 010c a33d ac10 933c
00000120: 3c65 14bd b051 b23c 2a02 b3bc 874d b1bd
00000130: 3db9 873d dc8a 263d ae0d 89bd 0a1d c6bc
00000140: 8559 72bd e21d 373d 575b 70bd 50fd a43d
00000150: 8df9 7d3d eec7 f7bc 1527 8eba 88cd 8f3c
00000160: c693 b9bd 98ad c0bd eb07 b83d 8fc1 653d
00000170: 16fd b8bd a4e6 d23d 43a8 3a3d bd20 17bd
00000180: 643b b7ba 82ca c2bc 1ee0 24bc 9ae3 02bc
00000190: 2890 94bd 124b cd3d 48be eb3a fd47 7ebd
000001a0: 267d 393d 2097 b63d fbd9 36bd e650 83bd
000001b0: 706d 82bd b369 c9bd 02bf 193d 8937 093d
000001c0: 5c37 963c 3c9e 9ebc c865 833d 247e b13c
000001d0: 340d abbd f7ea 52bd be78 293d aa48 603d
000001e0: cec1 3b3d bff6 463d 3c73 843d c9c4 2e3c
000001f0: 9b8e 983d b8cd 083d 4b96 723d 5c93 bebd
00000200: 3a06 b03d 034f 5dbc 7b9e 043d 0377 72bd
00000210: bef8 2c3a 0ed7 2dbc e079 983d 61a8 b2bd
00000220: 2d39 aa3c 3151 a1ba 5854 48bd b877 78bd
00000230: 38d3 7c3b 8608 a33d 1b4e 7a3b 34ec 873c
00000240: d6a5 653d fb01 b83d 4b81 013e 1178 b43c
00000250: c448 b7bd 3d17 f83c b1d1 d1bc 3c72 a3bd
00000260: 18f2 41bd f504 2b3d d219 c2bc 2ce4 27b9
00000270: a5ff 513c 67e6 6e3d fa06 763d 37eb af3d
00000280: 68c8 98bc 8e05 a0bd c14f c4bd 3640 5fbb
00000290: 1577 aebd 12d5 883d 9d0f e63c a33d 62bc
000002a0: 4764 953b 7cda f4bc 2aed 8a3d df65 dc3c
000002b0: 1307 453d ddc7 a93c e508 66bd ef0a 813d
000002c0: 971d c8bc 2afb dd3d 3e7d a3bd 997b b5bd
000002d0: a2c5 4abd 826f 8bbd 29fc 643d 14c1 02bd
000002e0: a1d3 91bd 9198 fa3d 1f62 afbc 7f7d b2ba
000002f0: d64c 01bd bb06 4a3d 304e 00bc e368 c6bc
00000300: b01d 7c3d a136 bd3c cc3d c8bd 338e d6bc
00000310: 2def 97bd a2ba b4bc 48ab 6e3b 9d2e 76bd
00000320: 5b08 263d 7185 b13d 76fe 213d d0e0 d7bc
00000330: 5803 803c e259 8c3d ea47 aabd d6e8 693d
00000340: 007a 753a df36 943d f1ec 843c 7561 9e3b
00000350: 8916 75bd 1163 0c3d 0a6d 5d3d 3535 d73d
00000360: 5e51 d43c fd03 c73c e88d 1bbd 8068 d33c
00000370: 3571 bc3d 9a50 58bc 28fe a63c b292 cebd
00000380: d9a4 e6bc 2ab7 433c 28b1 d33c 8bb2 fa3d
00000390: bfd0 abbc 0977 393d 421e d7bd 9c1a bebd
000003a0: 4f5b 373b 8b95 dbbc fe73 5abd 0b30 a8bd
000003b0: ce3f 1abb eeaf 7fbc b336 bc3d de57 0ebc
000003c0: f6ea eebc 36d6 923d 4ffa 823d 1467 60bc
000003d0: 5611 da3d b924 3c3c 5c4a 233d 6014 79bd
000003e0: 3358 b6bd b1f5 c5bc 3757 9f3d 3bb1 893d
000003f0: 2e70 51bd 2726 76bd 3611 eebc 8ae5 cfbb
-0.029238647 0.003392952 -0.087748654 -0.058638867 0.000954956 0.0548461 -0.07708398 0.07091489
0.096234195 0.04149794 0.0068696383 -0.041905895 0.10373601 0.04709126 0.022103332 -0.043877605
0.09114336 -0.017726764 -0.10078515 -0.06480841 0.088430434 -0.06260915 -0.015478698 0.04732525
0.019927235 -0.013328821 -0.097929604 0.052675877 0.09323442 0.034521904 0.093139626 0.04206457
0.03606961 0.09839781 -0.04736063 0.069072895 -0.0438281 0.012919646 0.015473529 0.047690626
0.06564509 0.07164633 -0.10690302 -0.03233677 -0.025583867 0.032656446 -0.045260854 0.00043472555
0.10381656 -0.011468418 0.023929864 -0.062061448 -0.05020085 0.06624772 0.038430654 -0.10254921
-0.04592057 0.0450899 -0.04965505 0.044963982 -0.019607412 0.054318096 0.008040346 -0.060878083
-0.004120429 0.094167314 -0.013094875 0.060597364 -0.07352052 0.086333066 0.07961274 0.017952286
-0.036229357 0.021767467 -0.021851618 -0.08657365 0.06627128 0.04065977 -0.06692062 -0.024183769
-0.059167404 0.044706233 -0.05868086 0.08056128 0.06200557 -0.030246701 -0.0010845388 0.01755406
-0.09061389 -0.094081104 0.08985885 0.056092795 -0.09032647 0.102978975 0.045570623 -0.036896456
-0.0013979492 -0.023778204 -0.010063199 -0.007988835 -0.07254058 0.10024084 0.0017985785 -0.062080372
0.045285366 0.089155436 -0.044641476 -0.064119145 -0.0636853 -0.09834614 0.037535675 0.033500228
0.018336944 -0.019362561 0.064158976 0.021666594 -0.08352128 -0.05149361 0.041374914 0.054756798
0.045839123 0.04857516 0.06467292 0.010667034 0.07449075 0.033399314 0.05922536 -0.0930545
0.085949376 -0.013507607 0.0323777 -0.05919553 0.0006598345 -0.010610355 0.07445121 -0.08723522
0.020779217 -0.0012307522 -0.04890856 -0.060661048 0.0038578045 0.0796061 0.0038193527 0.016592123
0.056066357 0.08984753 0.12646978 0.022029908 -0.08949426 0.030284518 -0.025612684 -0.07980773
-0.04735002 0.041752774 -0.023693953 -0.00016011362 0.012817298 0.058325198 0.060065247 0.085897855
-0.018650249 -0.078135595 -0.09585524 -0.0034065372 -0.08518807 0.06681265 0.028083617 -0.013808641
0.004559073 -0.029889338 0.06783517 0.026904045 0.04810245 0.020725185 -0.056160826 0.063009135
-0.024428172 0.10838921 -0.079828724 -0.08861465 -0.049504884 -0.06808378 0.05590454 -0.031922415
-0.07120443 0.12236131 -0.021409092 -0.0013617723 -0.031567417 0.049322825 -0.007831141 -0.024219936
0.06155175 0.023097338 -0.09777412 -0.026190853 -0.07418666 -0.02206165 0.003641801 -0.060103048
0.040535312 0.0866803 0.039549313 -0.026352316 0.015626594 0.06853081 -0.08314498 0.057106815
0.0009364188 0.07237028 0.016226264 0.004833395 -0.059835944 0.034274165 0.054059066 0.10508195
0.025917705 0.024293894 -0.03797713 0.025806665 0.0920128 -0.013202811 0.020384863 -0.10086574
-0.028154777 0.011945525 0.02584131 0.122410856 -0.020973561 0.045279536 -0.10503818 -0.09282419
0.0027978008 -0.026804706 -0.053333275 -0.082122885 -0.0023536566 -0.01560591 0.091901205 -0.008687941
-0.029164772 0.07169764 0.06395399 -0.013696451 0.10647838 0.011483365 0.039865837 -0.060810447
-0.089035414 -0.024165006 0.07780307 0.06723257 -0.051132374 -0.06009498 -0.029060941 -0.006344502
