dei_ws/src/tests/lane_keeping_6_cv_camera/models/sign_finder.pt (torch, 27064 bytes, 14 tensors)

conv.0.weight f4 [16, 1, 8, 8]
00000000: 2790 f33b 2e4f fa3a 7d10 e83d 1c7f 623e
00000010: 6ba0 c23d 6718 ae3d c5cf 163e a83c d3bd
00000020: c812 f4bc 368d 00be 8a22 3f3d 937b ec3d
00000030: a5a9 973e c3e5 a43e 7db9 b43d ae3a 1b3c
00000040: 53da 133e 0746 9fbd 4768 55bc 50f2 723d
00000050: 283d e83d 2cbb ca3d 100c 4a3e 7002 f93d
00000060: 7df4 aa3d 0f7c 35be d826 e1bd 6e38 5ebd
00000070: 3a32 13be f147 8ebd e9c3 dfbd 2ec6 123d
00000080: 6424 ffbd a11e 89bd 1b52 cb3b 282c 563e
00000090: 62cb a33d adf7 c2bd 6405 f73c b270 053e
000000a0: 5494 0bbe daf1 b73d a558 a6bc a57c b23e
000000b0: eeb1 b83e ffb7 abbc 2b29 fe3d 0eeb 2b3e
000000c0: 0446 04be 66e6 533d e31e 623d 5f2b 2e3e
000000d0: 69c9 cb3c e140 663d c45d 94bd be85 3f3d
000000e0: 1436 243d ea0c 3a3c 6ff5 1b3b 4cd5 cf3d
000000f0: 6acf 11bd e384 8b3d 9dc0 e3bc 1e11 d0bd
00000100: 8318 cd3d 87dc 323e 7042 ab3d 27e4 af3e
00000110: ef57 b93d b3b3 053e 48e8 be3d 1d9a f43c
00000120: cc8d 1d3e 7cc2 b63d 0a80 213d f11f 613e
00000130: 7fbf 813e 90c8 6b3c 3e9c eb3d 9bdd 39bc
00000140: 47df ddbd 3025 0cbe 196e d6bd 9817 1bbe
00000150: e90b 6a3d 26b5 74bb 2230 193d dbc7 203d
00000160: d5b8 a53c 4d34 96be ebcf 41bd eb1e 9a3d
00000170: 759c e8bd 13fd 083c 6f87 30bd c75b a5bd
00000180: 340b babd add7 b7bd b6a2 cd3b 211f 5f3e
00000190: 9620 ba3c 57ab f1bd fb15 28bc 1b9c 01be
000001a0: 5c3f b0bb efa3 1b3d ac1b e3bd e7b1 f83e
000001b0: 53f7 e43e 9f05 9a3c 2f3b 263e 138b 953e
000001c0: c628 50bc 9483 0c3d 4e55 9d3d e38f 933e
000001d0: 35bd a33d f257 493e 6c24 2dbd c2c8 2b3e
000001e0: 8fc7 db3d e877 723d 18ef c33d 7198 6a3d
000001f0: 11bf cd3d 1b29 e73d 55b2 e0bd 84a9 9f3d
00000200: f293 173e 4c4e 2a3d 074f c93d c0c2 e03d
00000210: 1d46 a23d 4611 303e 0d7d 093e 0eaf f43c
00000220: c600 943c dad0 b23d 38ac f439 4217 6f3d
00000230: 22db ef3d 2aff 043e 971e f93d 9602 6f3e
00000240: 71b3 0cbe 6d86 d9bd 87fe b4bd a49e 363e
00000250: db2f 483e 25a2 413e e940 d43d 9595 443e
00000260: 64ac dabd d930 053c 81d5 d23d 64b7 5cbd
00000270: b1d1 81bc a632 913d 9e3f 6e3d 5d81 1b3e
00000280: a52b 81bc c915 f8bd c289 c9bc cfb4 d7bd
00000290: 1ce8 bfbd 3238 9abd 17ae 5439 aa97 69bc
000002a0: 82ab a13d decc cf3c 7239 9abd b520 14be
000002b0: eeb9 b23d 67a4 4abd 5b30 c03d 894f bd3d
000002c0: f2bc 8a3c 7b70 20be 81f1 16be fe25 febd
000002d0: cf59 cf3b 3e83 8a3d 26b3 11bd c3f9 393d
000002e0: 943e 923c 0259 d23d ae86 c9bd 8a58 40bb
000002f0: c994 3cbe d0b8 b8bd 7aa2 10be c0e9 2cbd
00000300: 360d 52bd 9e0b bd3a 2f65 d83d b58d 65bd
00000310: 600b 343e 37ef ef3c 5140 863e d489 5bbe
00000320: 2a6f cebd 9ad8 2abe bf25 febc a0df 153e
00000330: a463 ee3c 0d3e 633d 7a72 4abd 7347 2abc
00000340: 315f 4abd 7c76 85bd d00f ddbd 3748 663d
00000350: 124d 263e b091 753e c333 c63d c82d 7f3e
00000360: 285a ae3d 7570 6abe bf9b fabd d788 223e
00000370: 5a25 0c3e 6261 e93d 846e c73d bead ac3d
00000380: 2158 1fbe 1b16 c4bd b86f 1dbe 0d06 dd3c
00000390: e067 41bd 686c 0abe f927 253d 043f 43bd
000003a0: 5783 eabc 6cc9 103d b69a 88bc dfb5 8a3e
000003b0: 20dd 943e 0977 f73d 4913 c5bd 6eaf f5bd
000003c0: 653a 7dbd df69 e9bd 881f 0d3e 4dea 303e
000003d0: 63d1 55bb f591 933d 5fe6 1c3c 5b11 243d
000003e0: 0632 97bd dcad d23d 6524 8cbd c975 18be
000003f0: 123f 223d f8cb 663e 76e4 bd3c 8ea2 35bd
0.007432956 0.0019097084 0.1133127 0.22118801 0.095032535 0.08500748 0.14727695 -0.10314304
-0.029794112 -0.12553868 0.0466638 0.115470074 0.29621616 0.32206544 0.088244416 0.00947444
0.14438753 -0.077770285 -0.01302535 0.05931312 0.1133979 0.098989815 0.19731164 0.12158668
0.08347414 -0.17723106 -0.10993737 -0.054253034 -0.14374629 -0.069473155 -0.10926039 0.03583353
-0.12458113 -0.06695295 0.006204856 0.20915282 0.079977766 -0.09519897 0.030153938 0.13031271
-0.13630801 0.089816764 -0.02030594 0.3486072 0.3607325 -0.02096176 0.12410196 0.16788885
-0.12917334 0.051733397 0.055205237 0.17008732 0.024876313 0.056214217 -0.07244447 0.046758406
0.040090635 0.011355618 0.0023797413 0.10148105 -0.035598196 0.068124555 -0.027801806 -0.10159515
0.10014441 0.17466937 0.08362281 0.34353754 0.09049975 0.13056831 0.09321648 0.029858643
0.15386122 0.08923814 0.03942875 0.21984841 0.25341412 0.01439108 0.1150441 -0.011344339
-0.108336024 -0.13686061 -0.10470218 -0.15145719 0.057140265 -0.0037339418 0.03739942 0.039253097
0.020229736 -0.29336777 -0.047317427 0.075254284 -0.11357967 0.008361119 -0.04309791 -0.08074146
-0.09084168 -0.08976684 0.0062755 0.21789218 0.022720616 -0.118002586 -0.010259147 -0.12657206
-0.005378647 0.037998136 -0.11089262 0.4857323 0.44719943 0.018801508 0.16233514 0.29207668
-0.012705034 0.03430517 0.07682286 0.28820714 0.07995073 0.19662455 -0.042271063 0.16775802
0.10731422 0.059196383 0.09567088 0.057274286 0.10046209 0.11287137 -0.10971514 0.077960044
0.1480253 0.041578576 0.098295264 0.109746456 0.07923529 0.1719409 0.1342661 0.029868629
0.018066775 0.087312415 0.0004666762 0.05837179 0.11711718 0.12987962 0.12164038 0.2334083
-0.13740326 -0.10621343 -0.0883761 0.17833954 0.19549505 0.1890951 0.10363943 0.19197686
-0.10677412 0.008129322 0.10294629 -0.053885832 -0.015847059 0.070897385 0.05816614 0.15186067
-0.015767882 -0.1211353 -0.02460182 -0.105325334 -0.09370443 -0.0753025 0.00020282749 -0.014257351
0.07894041 0.025366243 -0.07530488 -0.14465602 0.087268695 -0.049473193 0.09384223 0.09243686
0.0169358 -0.15667908 -0.14740564 -0.1240959 0.0063278447 0.06763314 -0.03557124 0.045404207
0.017852105 0.10270883 -0.09840141 -0.0029349648 -0.18416132 -0.09019625 -0.1412448 -0.04221511
-0.05128213 0.0014423018 0.10566174 -0.056043345 0.17582464 0.029288871 0.26220945 -0.21439296
-0.100797966 -0.1668419 -0.031023858 0.14636087 0.029100247 0.055479098 -0.04942558 -0.010393011
-0.049407188 -0.0651674 -0.107940316 0.056221213 0.16240337 0.23981357 0.096778415 0.24919808
0.0851329 -0.22894461 -0.122367375 0.15872513 0.13686123 0.113955274 0.09737876 0.08431576
-0.15560962 -0.09574529 -0.15374649 0.026980424 -0.047218204 -0.13517916 0.040321324 -0.04766752
-0.02862708 0.03534834 -0.016675334 0.27091882 0.29074955 0.12083251 -0.09622819 -0.11996351
-0.061823267 -0.113971464 0.1378156 0.17276879 -0.0032626025 0.072055735 0.009576409 0.040055614
-0.07382588 0.10287067 -0.06842879 -0.14888681 0.03961093 0.22538745 0.023180228 -0.044344477

conv.0.bias f4 [16]
00000000: 453e eb3d 46d2 27be 9074 d53d a649 6a3c
00000010: 4393 413e ba42 93be a0fb 123d fb85 a0bd
00000020: b385 82be f047 9b3d 8b1b c83c ac18 df3c
00000030: ac6a 25be 6a0e a2be 6e9c 2f3e cd62 a13d
0.11486486 -0.16388807 0.10422623 0.014299786 0.18903832 -0.28761846 0.0358845 -0.07838055
-0.2549263 0.0758208 0.024427196 0.027233444 -0.16153973 -0.31651622 0.17149517 0.07880173

conv.3.weight f4 [16]
00000000: 3a51 913f 9c6c 953f d19f 8c3f 9805 9d3f
00000010: bcf1 823f 8665 a13f f925 9a3f 6414 8a3f
00000020: cfbe 9e3f feae 993f 4df3 983f abaa 9a3f
00000030: 458d 783f ef64 943f a157 803f 36be 883f
1.1352913 1.167377 1.0986272 1.2267332 1.0230021 1.2609107 1.2042838 1.0787473
1.240198 1.2006528 1.194925 1.2083334 0.9709056 1.1593302 1.0026742 1.0683048

conv.3.bias f4 [16]
00000000: a657 153e 74fc 393e ab9f 88bd ac13 383e
00000010: 7311 3fbe 6b79 3bbd 5588 243e c892 aebd
00000020: 4082 0d3e 6ea9 ff3d d922 143e e12d 333e
00000030: a4b4 d6bd 84e2 013e f9fe cf3d 9b28 3f3e
0.14584216 0.1816271 -0.06671079 0.17976254 -0.18659 -0.04577009 0.16067632 -0.0852409
0.13819218 0.12483488 0.14466418 0.1749797 -0.10483673 0.12684065 0.10156054 0.18667834

conv.3.running_mean f4 [16]
00000000: 9be4 c143 b273 d543 f393 3543 197c 6f43
00000010: 72ed 823d db82 9b3a 336c 4243 49b0 b843
00000020: 90f8 5543 a24e 6a43 9a44 4943 496c a943
00000030: 3c5b d73a 33b7 6e43 6001 fe3d e60f d53c
387.78598 426.90387 181.57793 239.48476 0.06392945 0.001186456 194.42265 369.37723
213.97095 234.30716 201.26797 338.84598 0.0016430388 238.71562 0.12402606 0.026008558

conv.3.running_var f4 [16]
00000000: 62b8 a446 bb2f cb46 4f65 a545 cce1 0146
00000010: eb0c 5340 70f6 a03b 136c b045 2505 9d46
00000020: 67de dc45 d2f1 0046 cd8f b045 ffa6 8146
00000030: 6214 df3b a393 fc45 cd12 a940 bd5f 8e3e
21084.191 26007.865 5292.6636 8312.449 3.2976635 0.00491219 5645.5093 20098.572
7067.8003 8252.455 5649.975 16595.498 0.0068078497 8082.4546 5.283545 0.27807418

conv.4.weight f4 [4, 16, 6, 6]
00000000: c5c1 dfbd 4d7a e9bd 2090 49be a526 e0bd
00000010: 3e17 ecbc e6aa 243d 5bdc bebd fb62 36be
00000020: 842d d0bd 5bdd d6bd 0ec7 4dbd 16d4 4a3c
00000030: 6984 a3bd ab3b 18be fed7 ebbd 47d5 0ebe
00000040: 155b 3dbd 196b 72bc a457 54bc ce18 98bd
00000050: 4a23 ecbd de8d 0cbe 7d76 99bd a88a 48bc
00000060: b840 673c 1d2a bfbb a7b4 aebd b4b2 47be
00000070: 975a 20be 87be 85bd c42d 05bc d873 17bc
00000080: 81bf 7ebd 217e eabd c2fe 18be f4b5 0dbe
00000090: 9777 d6bd 5846 12be 31e4 26be fffd dcbd
000000a0: 8f52 22bd dede f73c 8aec a4bd e126 31be
000000b0: 2ebd 23be 1922 c4bd 6482 cdba 3772 683c
000000c0: aa08 a2bd 26b5 fabd ebfc e2bd 7576 19be
000000d0: 1f44 d2bd 0f44 133c b005 72bd 1028 78bd
000000e0: be09 01be 04bc 08be 15a0 2ebe 9b46 e0bd
000000f0: 6896 5ebc 74c7 56bd 0c14 e1bd d7ac e2bd
00000100: 9118 30be af1f 0cbe 632d 893d 811f 7cbc
00000110: 2b90 a3bd f190 9dbd 3c33 39be bd24 82bd
00000120: 2bc4 7b3c e0ef cb3d 3071 9f3d a356 8f3d
00000130: 83cd a33d 82f0 d1bb 8510 9fbd 24a3 62bc
00000140: 9ae0 06bc 6034 e13d 8cb7 963d d361 c43c
00000150: eb49 86bd 1594 23bd 2603 58bd 0c94 d5bd
00000160: 95c0 29bd 3848 273c 69ee 2fbd d45a 61bd
00000170: 11c8 67bd 8394 383b d9aa 4b3d 9a90 a73b
00000180: 3395 1ebe 3bf6 04be 3d56 ddbd 81cc 60bd
00000190: 7d43 963d 6118 023e 9831 1dbe 8108 f1bd
000001a0: 926a 24be 896b 0ebe ec79 18bc 6986 663d
000001b0: b9f4 6fbd 5172 17be f128 14be 1ca4 a0bd
000001c0: f572 143d c5aa 003e 70b3 e2bd a82b 3abe
000001d0: 3a92 0ebe 93c4 713c 5817 a53d 9b6b f73d
000001e0: 782f 9ebd 1a34 38bd e4e3 6fbd faf4 9cbd
000001f0: e7f5 cfba 9f0f 323d c3c8 71bc 3744 0dbd
00000200: cb1d a2bd c6cf 1dbe 2ff6 d9bd 28e0 a0bd
00000210: 2219 ce3b 8fe3 bc3c f177 70bd af6e 3cbe
00000220: e5ff 43be 2582 eebd 7624 a63c 9d6c 5a3d
00000230: 58ee d9bd c74b 06be b894 32be aabc ebbd
00000240: 5e0d e2bc f04d 4abe 8caf 02be cea6 60bd
00000250: c39c 3fbd 1b27 14be 1a0c 87bd 8a1f 19be
00000260: 3ee5 b1bb b430 5abc 176d 08be 8c09 11bb
00000270: cd9e 593c 59f5 94bd b459 9cbd 29d7 c3bd
00000280: d333 c6bd c1e7 fc3c 928c 36bb 6899 4bbd
00000290: c514 8fbd 4709 39bd fe1d 19bc 68f3 9dbd
000002a0: 0c35 b5bd c89e f7bd 33dc 90bd 7b47 c0bd
000002b0: b380 293c 7ec8 9bbd 1e51 55bd 12eb 32bd
000002c0: 78ce edbd c80d 8cbd 2c85 9e3b a43f aabd
000002d0: 483e 4e3d 41d9 013e 91ff 863e 8670 503c
000002e0: 571f 4ebd b2e4 38b9 7bb7 4bbd 1f3a f63d
000002f0: 047f 083e f211 4dbe 21db 7bbc 42b2 cfbd
00000300: 8555 f4bd ecc0 163e 6db1 483e 309e febd
00000310: 0cd7 eebc 8b5c 893c f9e3 dd3d d595 433e
00000320: ec72 ac3d ec2e 26bd a071 edbd 8cb8 1cbe
00000330: f786 fb3b b2e5 81be cac3 93bd 0320 2c3d
00000340: 7ba0 803a 7957 26bd 86b1 ccbd 51f1 f2bd
00000350: d09e e1bd 6fb7 f93c dcda bb3c 83cf cfbc
00000360: f9f8 e0bd a1fa 49be 7664 01be ee24 13be
00000370: 1c54 86bd 0210 263c ba59 e4bd 77e7 1abe
00000380: d0db babd 8426 c9bd 551b c1bd 8b26 f03c
00000390: 8de7 46bd a1ed f7bd b885 11be 47e7 1bbe
000003a0: f70b 80bd 6ac8 5bbd 02fe 9dbd 494a a9bc
000003b0: 94a2 03be 1e93 04be 91cb 36be 1ec9 ddbd
000003c0: f47b 963c c5b3 66bd a187 94bd 1df1 28be
000003d0: 061c 30be 78f7 aabd b20a da3c cde2 d7bc
000003e0: 129b 4dbc fbe9 07be 3551 03be c024 8fbd
000003f0: ec68 2cbe d094 05be dc96 9cbd dc43 323d
-0.109256305 -0.1140028 -0.19683886 -0.10944871 -0.028819676 0.040202044 -0.09319373 -0.17811196
-0.101649314 -0.10491439 -0.05023866 0.012379667 -0.079842396 -0.14866512 -0.115158066 -0.13948546
-0.04622944 -0.014796042 -0.012960348 -0.07426606 -0.11530168 -0.13725993 -0.07493303 -0.0122400895
0.014114551 -0.0058338777 -0.085305505 -0.19501764 -0.15659557 -0.06530481 -0.008128587 -0.009243928
-0.06219435 -0.114498384 -0.14940932 -0.13838941 -0.10472029 -0.14284647 -0.16297986 -0.107906334
-0.039629515 0.030257639 -0.08052929 -0.17299987 -0.15990135 -0.09576816 -0.0015679118 0.014187387
-0.07911809 -0.122415826 -0.110833965 -0.14986594 -0.10266899 0.008988394 -0.059087455 -0.06058508
-0.12601373 -0.13352972 -0.17053254 -0.10950967 -0.013585664 -0.052436307 -0.10990152 -0.11068123
-0.17196871 -0.13683961 0.0669811 -0.0153883705 -0.07986482 -0.07693661 -0.1808595 -0.063546635
0.015366594 0.09957862 0.07785261 0.069989465 0.079981826 -0.0064068446 -0.07766823 -0.013832841
-0.00823226 0.10996318 0.073592275 0.023972427 -0.065570675 -0.039936144 -0.052737378 -0.10428628
-0.041443426 0.010210089 -0.042951975 -0.05501826 -0.056587283 0.0028164692 0.04972348 0.0051136734
-0.15486602 -0.12984554 -0.10807464 -0.05488253 0.07337091 0.12704612 -0.1535095 -0.117692
-0.16056278 -0.13908209 -0.009306412 0.056280527 -0.058582995 -0.14789702 -0.14468743 -0.078438014
0.036242444 0.12565143 -0.11069381 -0.18180716 -0.13922969 0.01475634 0.08061093 0.12081071
-0.07723898 -0.044971563 -0.058566943 -0.07663913 -0.0015866131 0.04347193 -0.014757338 -0.034488883
-0.07915839 -0.1541129 -0.10642659 -0.078552544 0.006289617 0.023057727 -0.058708135 -0.18401597
-0.19140585 -0.11645917 0.020281058 0.053326238 -0.106411636 -0.13114844 -0.17439544 -0.11510594
-0.027594265 -0.19756293 -0.12762278 -0.054846577 -0.04678036 -0.14468043 -0.06594105 -0.14953437
-0.005428939 -0.013317276 -0.13322864 -0.0022130935 0.01328249 -0.07273359 -0.07634297 -0.09562523
-0.096778534 0.030872228 -0.0027854783 -0.049706846 -0.06986383 -0.045174863 -0.00934553 -0.07712442
-0.088480085 -0.12090832 -0.0707325 -0.09388634 0.010345626 -0.076066 -0.052079313 -0.04368121
-0.116116464 -0.06838566 0.0048376527 -0.0831292 0.050352365 0.12680532 0.26366857 0.01272214
-0.050322857 -0.00017632803 -0.049735527 0.120228045 0.13329703 -0.20026377 -0.015372069 -0.10141422
-0.11930374 0.14722031 0.19598933 -0.124325156 -0.029155277 0.01676776 0.10834498 0.19100125
0.08420357 -0.040572092 -0.11593938 -0.15304774 0.007676001 -0.25370556 -0.07215078 0.042022716
0.0009813452 -0.040610764 -0.099947974 -0.11862434 -0.11016619 0.030482976 0.022931509 -0.025367504
-0.10984988 -0.19724514 -0.12635979 -0.14369556 -0.06559011 0.0101356525 -0.111499265 -0.1512736
-0.09123957 -0.098217994 -0.09429041 0.029315254 -0.048560668 -0.12105871 -0.14211166 -0.15224944
-0.06252282 -0.053657927 -0.07714464 -0.020665305 -0.12854987 -0.12946746 -0.17851092 -0.10829376
0.018369652 -0.056323785 -0.07252432 -0.16498227 -0.1719819 -0.08347982 0.026616428 -0.026353264
-0.012549179 -0.1327285 -0.12823947 -0.069894314 -0.168369 -0.13045049 -0.07645962 0.043521747

conv.4.bias f4 [4]
00000000: 2b0a 3ebe ee5b be3d 0ec2 fe3d 8d2b 453e
-0.18558566 0.09294878 0.12439357 0.19254895

conv.7.weight f4 [4, 4, 5, 5]
00000000: df4a 3e3d a31e 0cbd 07d6 a53d 3b15 1d3e
00000010: 99d4 473e 93fd 06bd 529c 7abc c610 1d3d
00000020: f831 d13d 31fc a23d 5caf b6bb 2790 ecbd
00000030: c356 89bd 8d2e 15bd c382 213e 7c3e 4cbd
00000040: 53c4 17bc f822 dcbd afdc 363c fb7a f0bd
00000050: 0056 1b3e 4029 353c 18d0 8ebc 08b3 46be
00000060: 830c bdbc 6035 e93d 444a 903c d78d 97bd
00000070: 8b46 89bd f9a3 7cbe 6a66 fd3c 1665 0a3d
00000080: 189f af3c a3ec 25be af83 41be 1e38 ed3d
00000090: 8786 e83d 0517 e9bd d92b 29bc 8916 5c3d
000000a0: a573 d93c 19a6 26bd 0275 14bd 3a7a 853d
000000b0: 24df 7e3d ac73 debd c14e 0a3d 6c2a 2e3e
000000c0: cd42 5f3e 609d 833e d2a9 003e 9f49 9b3c
000000d0: 5323 c43b b914 58be e649 8cbe 3a6a 0f3e
000000e0: 0582 febd 6b03 48bd 7505 1fbe 7163 4ebd
000000f0: 2ff5 953c f044 dbbd 6501 0fbd 6e67 d3bd
00000100: 2edf bb3d 9ac6 05be 5a88 75bd 4309 ca3d
00000110: 4c32 323e 505b 083e 3927 e9bd ecfb 4e3c
00000120: 51d0 083e f3ff 893e 2f1c 753e c902 57be
00000130: eb39 20be 4669 d53b 60c6 363d 6a63 853d
00000140: e606 06bd 76b7 673d 2822 5cbd 75c6 78bd
00000150: a7e3 aabc 8792 4f3e 8174 2a3e ea8b 513d
00000160: 1240 14be 9b0e 55be 1d56 333e acff a73d
00000170: ee55 f2bc 9fbe 2dbe 74bb 06be cec5 813e
00000180: 5019 093e fbfd 3c3e 4b83 753d 96b7 29be
00000190: aa60 8d3d 9f55 fdbd c0a7 6fbd b0cb 1fbe
000001a0: 5e43 01be a23e 153e b254 bdbc 3e80 393c
000001b0: 48e3 34be 984d a4bd ec24 0a3e fc2b 583d
000001c0: 613f 013c d0ef 0fbd 4ae6 5abd 83f3 a43d
000001d0: 4ede d43d 6530 68bd 0f78 ae3d d170 31bd
000001e0: 22f6 e83c 2798 56bd 0ff8 ac3d cdc3 283d
000001f0: ff2d 1a3e 706d 6dbb d043 eb3d 9c1a 49bd
00000200: 53a9 343d 5f59 6c3d 8b1e 13be 218f 92bd
00000210: be24 ebbc 6110 543d ca2c 5e3d 6344 a7bd
00000220: bfd7 47be a615 6b3d fdca b33c 6bd9 27be
00000230: 96bd 90bd 9b6c 50be 8ddc 0cbe 19c2 05bd
00000240: 041c 39be 194b c8bd 6687 2dbe 90fb cbbd
00000250: 68c7 3bbe 512f 28be d4c5 d23d 0f39 003e
00000260: a43e 003d e4a2 e43d 2e60 2d3e 8df1 67bc
00000270: 6a70 48bd 3652 eabc e833 453d 3148 40bd
00000280: e6b9 49be b037 aabb f691 9c3d c36b 45bd
00000290: 7483 b7bd 7d88 1abd 236f 9fbd 8b69 14be
000002a0: 9fe7 3fbe f61d fcbd de5d 34be 8a48 14be
000002b0: 9bf2 b6bd 63ca 52be ecc0 21be 8de9 a43d
000002c0: 83c4 1b3e f364 a6bd 452e 78bd c953 a43d
000002d0: 62c9 333e 5a94 e63d f5d1 0c3e 40fe 2cbd
000002e0: 701b e83b 96ad 2f3d 2af1 5e3d 184a fb3d
000002f0: 192c e73c 1d90 cebd ad8f 99bd c356 583d
00000300: 7381 3f3d 334e 53bd aafc a83d cb49 9fbc
00000310: 9bf6 a53c 5d29 70bd d2d9 af3c 98d9 1b3d
00000320: 1f74 45be ebd1 90bd fe5b 00bd 624f 823d
00000330: 58b2 86bc 0d92 02be 2cb7 afbd 2d37 593d
00000340: 66de c23d a3bc a2bd 3d79 95bd 6ade d2bd
00000350: 4392 80bd 80da b53a 2378 edbd 1ce4 df3d
00000360: fa9b 70bd 94a1 ff3d 6faf 173d 40ad f1bb
00000370: 6bf6 6cbd a286 943d 6e58 343e 3781 ae3d
00000380: 1f97 3cbb 7081 2d3d 0cf4 5fbd ae34 9abd
00000390: d03f 123e 3b72 e73d a0b3 673d 5410 573d
000003a0: 6984 94bc 60da b9bc 9e91 8d3d 6619 50bd
000003b0: ad4d 11bd 4a8d a83c 33cc 94bc 2801 373d
000003c0: a82b 853d 7247 a6bd b428 36bc 9c2a 0bbe
000003d0: a838 1fbd 4019 b8bc 9bb6 fcbc 60f7 32bd
000003e0: 2856 0bbe 8306 44bd fcfb 093c 60ac 723d
000003f0: c40e 02bd 4399 063e 1baa 103d bd00 c6bd
0.04645812 -0.034208905 0.08097463 0.1534013 0.19514693 -0.03295667 -0.015296059 0.038346075
0.10214609 0.07958258 -0.0055751037 -0.115509324 -0.067060016 -0.036421347 0.15772538 -0.049864277
-0.009263116 -0.10748857 0.0111610135 -0.11742207 0.15169525 0.011057198 -0.017433211 -0.19404233
-0.023077255 0.113871336 0.017613538 -0.07400101 -0.06702908 -0.24671926 0.030932624 0.03378781
0.021438166 -0.16203551 -0.1889789 0.11582969 0.11353784 -0.11381344 -0.0103253955 0.05373243
0.026544401 -0.040685747 -0.0362444 0.065174535 0.062224522 -0.108619064 0.03376651 0.1700837
0.21802826 0.25706005 0.12564781 0.018956004 0.0059856563 -0.21101655 -0.2740013 0.14005366
-0.12427143 -0.048831385 -0.15529425 -0.050387803 0.01830539 -0.10706508 -0.03491344 -0.10322462
0.091734275 -0.13064042 -0.059944488 0.09865048 0.17401999 0.13316083 -0.11384434 0.012633305
0.13360716 0.26953086 0.23936532 -0.20997156 -0.15647094 0.0065127937 0.04462278 0.06513102
-0.032721423 0.056571446 -0.05374351 -0.06073614 -0.020860506 0.2027074 0.16646005 0.051158823
-0.14477566 -0.20806353 0.17513318 0.082030624 -0.02958199 -0.16967247 -0.13157445 0.25346226
0.13388562 0.18456261 0.059939664 -0.16573939 0.06903203 -0.123698466 -0.05850959 -0.15605044
-0.12623355 0.14574674 -0.023111675 0.011322079 -0.17664826 -0.08022612 0.13490647 0.05277632
0.007888646 -0.035140812 -0.053442277 0.08054259 0.10393964 -0.056686778 0.08518993 -0.04332048
0.028437678 -0.052391198 0.08445751 0.041202355 0.15056609 -0.003622856 0.114875436 -0.049097642
0.044106793 0.05770242 -0.1436712 -0.07156206 -0.028704043 0.051773433 0.054241933 -0.081673406
-0.19515894 0.057393692 0.021947378 -0.16391532 -0.07067411 -0.2035393 -0.13756008 -0.03265581
-0.18077093 -0.09779949 -0.16946182 -0.09960091 -0.18337786 -0.164243 0.10291639 0.12521766
0.03130974 0.111638814 0.16931221 -0.014156711 -0.04893533 -0.028603654 0.048145205 -0.046943847
-0.19699821 -0.0051946267 0.07645027 -0.048198473 -0.089606196 -0.03772782 -0.077848695 -0.14493386
-0.187407 -0.12310402 -0.17613932 -0.14480796 -0.08932992 -0.20585017 -0.1579625 0.08052359
0.15211682 -0.08124723 -0.060591 0.08023793 0.1755729 0.112587646 0.13751967 -0.04223466
0.007083349 0.042890154 0.05442921 0.12269992 0.02821927 -0.10086081 -0.07498107 0.052817117
0.04675431 -0.05158825 0.08251317 -0.019444367 0.020259192 -0.058633197 0.02146617 0.03804931
-0.19282578 -0.07071289 -0.03133773 0.06362797 -0.016442463 -0.12751026 -0.08579859 0.053031135
0.095150754 -0.07946136 -0.07298515 -0.10296328 -0.06277897 0.0013874322 -0.1159518 0.1093218
-0.0587425 0.124819905 0.03703254 -0.0073753893 -0.05785219 0.07252242 0.17611858 0.085207395
-0.0028776599 0.04235977 -0.0546761 -0.07529579 0.14282155 0.113010846 0.056567788 0.052505806
-0.018129544 -0.022687137 0.0691254 -0.05080547 -0.035474468 0.020575184 -0.018163776 0.044678837
0.065024674 -0.08119096 -0.011118103 -0.13590473 -0.03887239 -0.022472978 -0.030848792 -0.043692946
-0.13607085 -0.047857773 0.008421894 0.05924642 -0.031752363 0.13144402 0.035318475 -0.096681096

conv.7.bias f4 [4]
00000000: 4cc9 af3d d652 e03d 77a4 72bd 0439 fe3c
0.08583316 0.109533 -0.059238877 0.031033047

lin.0.weight f4 [16, 100]
00000000: b1f5 e83d 969e 1fbd 994e 9dbc 42ef 083e
00000010: 9e12 443e 5f53 efbd 562f 86bd cda3 79bd
00000020: 2849 323c 0124 083e 0e52 5abd acf8 eebd
00000030: 057e 1a3d 018d 2c3d ec48 74bd 3df8 6d3e
00000040: 31a6 843d efb4 973d 2043 01bc a7d6 f33c
00000050: 4680 18bd 9241 f93d ebf1 313d daee 50bd
00000060: a416 3d3c f44a 0abe 1a77 6abd 1c1b e7bd
00000070: 0d04 6bbd 9b54 e4bd dc32 d63d 3dba 0b3c
00000080: 4b87 803e 256a 443e 4285 df3b 57cb 3d3e
00000090: 6298 703e 2f85 15be eafa 533d 3b3e e83d
000000a0: 2746 513c 18f7 23be 2db1 9abe 96f0 28bd
000000b0: bae9 78bc 20b9 f0bd f204 873c 05e2 2bbd
000000c0: 9fc3 873c 1d66 203e 9dac 8fbd 77fe d0bd
000000d0: d4db a43d 045d 4b3d 0e28 3a3d 4782 cfbc
000000e0: dbc6 2cbd e148 603d b5e6 bd3d efd9 e93c
000000f0: 68d9 6abd 8c5c 3dbd 94db 423e e51c e13d
00000100: 7fcd 5f3d a025 f5bc afaa 65be b52a ee3d
00000110: d4a7 15bc e4d3 073e e81e 81bd 890a 333b
00000120: e45b 113d f9c5 ad3c 9691 653d 669f c93d
00000130: 2930 ddbd 57e3 713c aa41 1d3e 7297 6fbd
00000140: 8cc2 6abd 38ff ecbd 11c5 ee3d 57a2 403e
00000150: b92a e9bd f9b6 a1bd 1db0 9dbd 94a3 b4bc
00000160: 044e 37be 3119 03bd da2c ccbd 2152 3bbd
00000170: bbdf e33d bb2d 4cbd 6744 843d 6ea2 873b
00000180: b969 b8bc 375a a83e d73c 41bd 937f e03c
00000190: b409 9bbd 3920 313e 1c74 273e e3a6 06bd
000001a0: b32f 573d 0e2d db3c b2e0 d23d f703 d23c
000001b0: 783f 94bd a5cf bbbd 91c5 0e3e f6ef d3bd
000001c0: 2f7d bbb9 58f5 a0bc ddee 773d 697a 0cbd
000001d0: c716 083d 322f 74bd 18d2 3f3e 875f 123c
000001e0: 7324 a7bd bc71 22be 1009 1e3c 6688 b23d
000001f0: 983c 27bd 211f 65bd 1206 3f3d 6f82 cf3d
00000200: f763 b83d 17e8 11bd 5874 173d d9da 523e
00000210: dcb1 adbd 7bf9 6ebe 3d70 5a3e 02ee 77be
00000220: fc5c fdbd 4123 06bd f9e7 36be 0ccf 7dbd
00000230: c9f9 f93d 15e7 17bb 2e81 0c3e 1f6a 71bd
00000240: b211 9cbd e03d 143e 9ac8 4a3e 1fc4 7b3e
00000250: bb5e f33c bd1b 6f3d 2466 343c 58e2 c43d
00000260: ad5c a6bb d416 453d 79f7 683c 2e6a 803d
00000270: 04a6 223d 0283 c03d 9d83 3c3d da01 dc3c
00000280: 8151 ee3c 5a7b 1bbe 22e1 90be 8317 d9bd
00000290: 5404 72bd 1313 f03c e0e5 9d3d 2dcc 18be
000002a0: f5b8 b63d c6fc bf3d 3ae6 063d 6b71 bb3d
000002b0: 1dc7 f03d 85f8 373e f496 093c 248c debd
000002c0: 4f16 e43b f7b3 21be 3fc1 cfbd 8b4d acbd
000002d0: d5de 97bd 16f8 a23d f31f d5bc 88a9 fdbd
000002e0: a084 e23c 9b3a b8bb 921f 80ba d915 acbd
000002f0: 16fb 973d 9996 113e 4f0e 62bd f058 ef3c
00000300: 44eb 92bd c152 e13d 7f9f de3d 4a68 7a3d
00000310: 2cbf 0e3e 67e2 00be 0458 233e f00e 883d
00000320: 0321 bdbd 4ae5 133d 9d5f 8b3d e4bf e7bc
00000330: 1925 0f3d 7ec5 e1bb 93cf 243d c877 9d3d
00000340: 1d8c 513d 9ca6 24be 01f6 153c 1f1c 8bbd
00000350: 7728 ee3d eac4 94bc d337 f7bc d0bb b0bd
00000360: bd51 efbd bcd0 933c 26e8 d83d 0968 933e
00000370: 3ca2 2cbd de32 d93c 5525 9dbc b523 a03d
00000380: ab06 f93d 5932 2bbc e42f 073d e348 0cbd
00000390: 5dea cd3d 9d10 a93d 580e 08bd 4644 d33d
000003a0: cb48 393e 328f 1fbd 35e7 8d3e 7b7b 843d
000003b0: a488 143e d7a9 d8bc ec6d acbd 67f9 e43d
000003c0: 82b9 2ebe d83d b23c 77f8 1c3d bf9d 86be
000003d0: 4d0d 6abe 96c6 d83c b682 883d cbd6 143e
000003e0: 96d3 3c3e c52b febc 46d8 163e f1c7 993d
000003f0: 6b5f bd3d 8290 88bd d4a6 32bd 207c 503e
0.11374987 -0.0389696 -0.019202517 0.1337252 0.19147727 -0.11685824 -0.06551997 -0.06094723
0.0108817 0.13294984 -0.05330091 -0.11668524 0.037717838 0.04212666 -0.059639856 0.23239227
0.06477011 0.07407557 -0.007889539 0.02976544 -0.037231706 0.1217071 0.0434436 -0.051009037
0.0115410425 -0.13505155 -0.05724249 -0.112844676 -0.05737691 -0.1114895 0.104589194 0.008528289
0.2510322 0.19181116 0.0068213055 0.18534599 0.2349563 -0.14601587 0.051752962 0.113399945
0.012773073 -0.16012228 -0.302133 -0.041245066 -0.0151924435 -0.1175406 0.01648185 -0.041963596
0.016572772 0.15663953 -0.07015345 -0.10204785 0.080497414 0.049649253 0.045448355 -0.025330676
-0.04218183 0.054757003 0.092725195 0.028546302 -0.05733624 -0.046230838 0.19029075 0.10991839
0.054639336 -0.029925168 -0.22428392 0.116292395 -0.009134252 0.13264424 -0.06304723 0.0027319512
0.035488024 0.021212565 0.056047045 0.09844856 -0.108002014 0.014763675 0.1535708 -0.05849404
-0.05731444 -0.115721166 0.11658681 0.18811928 -0.11385102 -0.078962274 -0.076996066 -0.022050656
-0.17900854 -0.032006446 -0.09969492 -0.04573262 0.111266576 -0.0498483 0.06458359 0.004139236
-0.02251135 0.32881328 -0.047177162 0.027404582 -0.0757021 0.17297448 0.16352886 -0.032874
0.052535724 0.026754882 0.102967635 0.025636656 -0.07238668 -0.091704644 0.13942553 -0.10348503
-0.00035760688 -0.019648239 0.060530532 -0.034296427 0.033224847 -0.05961532 0.18732488 0.008933908
-0.08161249 -0.15863699 0.009645715 0.08717422 -0.04082927 -0.05593789 0.04663665 0.101323
0.09003442 -0.03562173 0.03697619 0.20591296 -0.084811896 -0.23337357 0.21331878 -0.24211887
-0.12371251 -0.032748464 -0.17861928 -0.061965033 0.12205846 -0.0023178507 0.13721153 -0.058939096
-0.076205626 0.14476728 0.19803086 0.24586533 0.029708257 0.058376063 0.01101068 0.09613484
-0.005076966 0.048117474 0.014219158 0.06270252 0.039709106 0.09399988 0.046023954 0.026856352
0.029091598 -0.15183774 -0.28296763 -0.10600188 -0.05908616 0.02930597 0.07709861 -0.14921637
0.089219965 0.093743846 0.032934405 0.09152492 0.11756728 0.17965896 0.008397806 -0.108665735
0.006960667 -0.15791307 -0.10144281 -0.08413228 -0.07415549 0.07957475 -0.026016211 -0.12385851
0.027651131 -0.0056222207 -0.0009775034 -0.084026046 0.07420938 0.14217605 -0.055189427 0.029217213
-0.071737796 0.11002112 0.10870265 0.061134614 0.13940114 -0.12586366 0.15951544 0.06643474
-0.09234812 0.03610734 0.06805346 -0.028289743 0.03494749 -0.006889998 0.04023702 0.07688862
0.051159013 -0.16079181 0.00915289 -0.06792473 0.11628812 -0.018160302 -0.030177986 -0.086295724
-0.11685512 0.018043868 0.10591154 0.2879031 -0.042146906 0.026513513 -0.01918284 0.078193106
0.12159475 -0.010449016 0.033004656 -0.034249198 0.10054467 0.08255122 -0.033216804 0.103157565
0.18094175 -0.03895492 0.2771546 0.064688645 0.1450525 -0.026448173 -0.084194034 0.11180382
-0.17062953 0.021758005 0.038322892 -0.26292226 -0.22856636 0.02646188 0.06665556 0.14535062
0.18440089 -0.03102673 0.1473094 0.07508839 0.09246715 -0.06668188 -0.04361613 0.2035985

lin.0.bias f4 [16]
00000000: ecd2 2a3d f4b6 a53d d43a 073e edf8 003e
00000010: a264 00be 2661 4e3e a1e6 afbb 067a b73d
00000020: 4f0c 183d ab46 393d 7062 e8bc e415 383d
00000030: fd0e c3bc 713d 78bd 10b8 2dbe 5033 d63d
0.041705057 0.08091536 0.13206035 0.12594958 -0.12538388 0.20154247 -0.0053680693 0.08958821
0.037121113 0.04523341 -0.028367251 0.04494275 -0.023810858 -0.06060547 -0.16964746 0.10459006

lin.2.weight f4 [12, 16]
00000000: e0e8 d7bd b6f0 7fbe ae2b 633e 98c6 03bd
00000010: 5274 293e 683a a3bd 8885 bd3d 4097 87bb
00000020: 007f 99bc 9073 15be be91 263e 0230 46be
00000030: ea20 373e f89e 18be ae64 163e 7c49 3a3e
00000040: a274 573e c017 b13b 0460 05be 9400 7c3e
00000050: 48da ecbd f8a3 16be 082d 7d3e b0d2 c73c
00000060: 101f 2f3d 8040 96bc 3644 5f3e 244b 12be
00000070: 00e8 bc3a a04e 1e3c d650 72be 0e17 2bbe
00000080: b03d 88bd 64d0 c83d 28e2 90bd 2c27 c83d
00000090: 289b 053e 5cd2 e6bd fce7 833d 64cc 32be
000000a0: c41e 3abe cc03 17be 1615 603e bc6c ed3d
000000b0: b479 eb3d 1a56 4f3e f00d bebd e0ea 35bc
000000c0: c3c0 763e acba 97bd 3a0c c0bc d99b 34be
000000d0: 852b 83be 535f 05bf 611f d53b 0512 573e
000000e0: 9440 a33e f1e1 0d3e effb 9abd eea9 a6bd
000000f0: 0453 7ebe 46c4 90bd 8003 2cbe 5a0b afbe
00000100: 6148 c2be 7b58 6abe 9a00 71bd df28 a73e
00000110: 5b7b 713d eeb1 98bd 5a66 f83d a3a6 863d
00000120: c57f 53be 07ac 933e e1bd 063e 8ba4 0a3c
00000130: 80cb 1d3d 782a e1bd a960 29be 17da b43e
00000140: 446d de3c d1e4 68be 9f1a d63d 2d2e 1cbe
00000150: 15fb 263e ffe5 d5bd c083 59be 2eed 763b
00000160: d57d ff3d c333 933d e12e 353e 077a aa3d
00000170: 6a86 843e 27cd 97bd c352 213c 1c97 7a3e
00000180: 0d1d 76bd 8a01 a7bc cda5 f23d 6ab8 87be
00000190: 49a0 503c a2d4 e3bd 3d1e 54bd 63d0 49bd
000001a0: 182b a63d 62f8 07be c1ff 01be 607d 4e3d
000001b0: 63a2 6f3e e196 153e 74e9 b1bd 48a9 5a3e
000001c0: 6d42 25bd 18d8 8a3c 8896 b9be 7c6f 733e
000001d0: 9345 5cbe 7e54 a03d f018 13be 4a58 293e
000001e0: 47bb 59bd 9cb9 bc3e e766 9cbe 126f 2dbe
000001f0: d108 09be a1e3 9f3e f068 323e ca31 7abe
00000200: 280e a5bd e0fb 653e a8fc ee3d 95fe f73b
00000210: 9054 0cbe 741e 40bc ab51 8e3d 421a 62be
00000220: e259 1cbe a4f2 33be 907d c23d 2901 273e
00000230: 82fe 8bbd 2377 8bbe 67dc 1f3e 7e68 f1be
00000240: cc1b f5bd 9ae0 0f3e 1359 debe 30bb 0bbd
00000250: 8aa2 50be cb68 c5be 1877 5c3e 7930 32be
00000260: 49a5 cdbd f323 febc 7a6f f2bd 84c5 a03e
00000270: 293a 6c3e 376b 4d3e e141 153e 646e 473e
00000280: 96f4 c8ba c3d0 47bd b5ed a03c 3112 ff3d
00000290: 440c 0ebe 4244 84bb 8c3e 763e c846 1dbd
000002a0: 9c60 5c3d 3de1 b0be b205 5c3d ebdc 28be
000002b0: 490f 6b3c 2238 39be fd3b 6dbe 5f45 7dbe
000002c0: f3b4 b4be c5a6 713e 7f99 b63d b296 22bd
000002d0: 2303 8f3e e497 8cbd 60ca 7abe c71f de3c
000002e0: bb55 9c3e 39c2 cfbd 5dde 43bd e32a 02bf
000002f0: 43f0 6bbe f7f3 a5be 9f83 643e 1b05 1ebe
-0.10542464 -0.24994168 0.22184631 -0.032171816 0.16548279 -0.079701245 0.09253985 -0.0041379035
-0.018737316 -0.14594865 0.16266534 -0.19354251 0.1788365 -0.14904392 0.14686844 0.18192095
0.21040586 0.0054044425 -0.13024908 0.24609596 -0.11565071 -0.14710987 0.2472421 0.024392456
0.042754233 -0.018341303 0.21803364 -0.14286476 0.0014412403 0.0096623 -0.23663649 -0.16708013
-0.06652391 0.09805372 -0.07074386 0.097730964 0.13047469 -0.112705916 0.06440732 -0.17460781
-0.18175799 -0.14747542 0.21883044 0.11593005 0.114978224 0.20247689 -0.09280002 -0.011103362
0.2409697 -0.07408652 -0.02344333 -0.17637576 -0.2561914 -0.5209858 0.006503985 0.21002968
0.31885207 0.13855721 -0.07567584 -0.0813788 -0.24836355 -0.07068686 -0.1679821 -0.34188348
-0.37945846 -0.22885315 -0.058838464 0.3264837 0.05895553 -0.074558124 0.12128897 0.06574752
-0.20654209 0.28842184 0.1315837 0.008462082 0.03852415 -0.109944284 -0.16540779 0.3532264
0.027151711 -0.22743537 0.10454296 -0.1525199 0.16306718 -0.10444259 -0.21241665 0.0037677991
0.124751724 0.07187607 0.17693664 0.08324056 0.258838 -0.074121766 0.009846392 0.24471706
-0.0600863 -0.020386476 0.1184803 -0.26507884 0.012733527 -0.11124541 -0.05178665 -0.049271
0.08113688 -0.13278344 -0.12695219 0.050412536 0.2340179 0.14608337 -0.08687106 0.21353638
-0.04034655 0.016948745 -0.3624766 0.23772997 -0.21510915 0.078286156 -0.14364982 0.16537586
-0.053157117 0.3686036 -0.30547258 -0.16936901 -0.1338227 0.31228355 0.17422843 -0.24433056
-0.08059341 0.22459364 0.11669284 0.0075681903 -0.13704133 -0.011726011 0.06949171 -0.22080329
-0.15268663 -0.17573029 0.094966054 0.16309036 -0.06835653 -0.27239332 0.1561142 -0.47150034
-0.119681925 0.14050522 -0.43427333 -0.034114063 -0.20374504 -0.38556513 0.21529806 -0.17401303
-0.10041291 -0.031023001 -0.11837669 0.31400692 0.23069061 0.2006043 0.14575912 0.19475704
-0.0015331681 -0.048783075 0.019644598 0.124546416 -0.13871866 -0.0040364573 0.24047297 -0.03839758
0.05380307 -0.34546843 0.05371637 -0.16490524 0.014346906 -0.18087819 -0.23167415 -0.24733494
-0.35294303 0.23598774 0.08915996 -0.039694495 0.2793208 -0.06864908 -0.24491262 0.027114762
0.30534157 -0.10144467 -0.047819484 -0.5084669 -0.23040871 -0.32412693 0.22315834 -0.15431635

lin.2.bias f4 [12]
00000000: 5c69 b1bd 6ab6 7c3e 04be 1a3e 4495 a43d
00000010: edc2 ec3b a22f 5dbe b9b5 1dbd 59ab 2cbd
00000020: ec7a 15be 0768 dabc 6010 023d df70 403e
-0.08662674 0.2467896 0.15111548 0.08036283 0.0072253854 -0.21600202 -0.038503382 -0.042155597
-0.14597672 -0.026660932 0.031753898 0.18793057
